hw4/tests/hw4_extra/data/test_transformer_model-8-5-27-64-4-8-32-True-0.1-cpu().npy (npy, 4448 bytes, 1 tensors)

array f4 [8, 5, 27]
00000000: f331 3d41 6a82 103f 174a 0e41 ea7d 3ec1
00000010: eb90 a540 ec88 3940 755b 0b41 3b94 2a40
00000020: 4cab 8c40 bba2 46c1 9034 3c40 b419 c7c0
00000030: aec4 8abf 5af3 6e40 7287 42c0 4c25 5040
00000040: ea0e b040 66bb 39c1 4172 3440 9555 7f40
00000050: 10b2 c5bd d4cd c8bf 6e94 9ec0 f2e2 9dc0
00000060: ba71 ac40 b011 23bf 7896 5bbf ca96 1541
00000070: 3cfd 3840 d7b7 d240 5e00 ecc0 87ad a6bf
00000080: 21ac 0bc0 174f 9b40 a082 ebbe 2093 8cbf
00000090: 5288 21c1 24d1 e5be cbbc 01c1 daf6 f940
000000a0: e7e2 c740 e0e3 3ac0 70ec 50bf e25d de40
000000b0: e278 29c1 0e41 c840 0071 c93f eec4 73c0
000000c0: 5f77 1640 b0c5 e2c0 dd93 bdbe 78b7 8c40
000000d0: dd1e abc0 2023 6dc0 1b3f bf40 2206 44c0
000000e0: b5fe 5540 3a2e cfc0 99c7 2e40 7251 d9bf
000000f0: b80f 2440 8076 89bd 9890 2f41 61e7 e5be
00000100: 041f 03c0 1c9d eac0 08cb afbe ae11 0341
00000110: 76c2 2f40 601c 9d3d 71c2 3141 f335 fcc0
00000120: 0024 61bf e7d5 2141 d21b 3140 2631 72bf
00000130: 75f2 0240 db5f f2c0 0a6f 7d40 9d65 91c0
00000140: 4af3 9440 2a22 a540 361f 24c0 dc57 b4c0
00000150: a02d d33f 110e 71bf 3b0e 83bf a261 9abf
00000160: febd 5540 55d5 02c0 71b2 d9c0 54f5 2140
00000170: f766 0fc1 73be 0141 5c3c 8340 2f88 cf3f
00000180: 4652 56c0 ea30 5b40 b47e a43e 8990 bc3f
00000190: 9eae 50c0 5762 1440 5cc7 203f 40a6 15be
000001a0: 6ea6 e73f c971 1140 b436 0bc1 611f b6c0
000001b0: 0cdf 703f d0d4 6cc0 be51 0240 fb6c aec0
000001c0: e64c 2940 b9d6 4cbf 9d53 8940 e6c5 f640
000001d0: 005e 2dbf 2460 2dc1 4ce7 13bf ec81 e9c0
000001e0: 0054 2e3e 9e5c ef40 8dd9 1040 c410 7b3f
000001f0: f2d3 3c41 aed9 20c1 e8f6 9bbf d725 c240
00000200: d393 6cc0 7632 85c0 18f4 08bf 7ca5 01c0
00000210: 502f df40 8ee9 803f 6eed d53f 74a3 3b40
00000220: 8012 a9bd 562e 29c0 12d7 a5c0 54db 05bf
00000230: d739 223f d8b0 6a40 fede cb3f ab79 28c1
00000240: 449d 14c0 2ccd d23f 9eee 5fc0 cbc6 3941
00000250: ff30 9740 9dcd 8740 8d37 d8c0 48d8 2d3d
00000260: bb32 29c0 933c d240 df9e 89c0 a751 2840
00000270: 25c2 70c0 58ac 04c1 38ff 4d3f a060 f43f
00000280: 30b6 e0be 968e 62c0 b5c1 1540 a31a 9e40
00000290: 10f9 0e3e ae4e c6c0 97ce cd40 b306 83c0
000002a0: 4876 783e 0aec 17c0 024c afc0 c0b6 d0c0
000002b0: 58ed 9a3e 13ed b6c0 4777 3141 f087 4c41
000002c0: dcd1 0ec0 2417 78c0 6f86 e43f 7c58 ffc0
000002d0: 8bf8 3a40 2fe9 f4c0 7321 8640 18e8 3940
000002e0: 5e15 bac0 e49d 34c0 ea11 863f 1a87 d4c0
000002f0: 0afe 5fc0 e8bd a1c0 194c 5dc0 d438 c8bf
00000300: 7b51 52c0 42e3 0ec1 9a33 bec0 cf71 2a40
00000310: 64c8 d63f 6d37 b1c0 660f e2c0 7825 52be
00000320: 1832 f8c0 125f bb40 dc5d 14bf 2039 2541
00000330: c2de ff3e fa7a 5d3f 4d71 bcc0 bcf5 b73f
00000340: 692e 9c40 825e 12bf b4a4 e8c0 d01a 153e
00000350: 146a 3ec0 8cd3 4dc0 52a3 4e40 b139 d540
00000360: e8d9 2741 4470 1cbf 1415 28c0 341b 42c1
00000370: 1186 b640 baef 98c0 0857 a1be 6a6a a140
00000380: f993 82c0 90f8 76c0 5232 e93e dc33 82c0
00000390: 3601 9640 7e86 5841 b0e2 70c0 f3c4 a6c0
000003a0: 5e07 9d40 33dc e2c0 c4d7 81bf 32a9 96bf
000003b0: 323d 1d41 013e 2840 c8de c5c0 cfad 3c40
000003c0: 525d 8b3f 1a9d 18c0 29e4 efc0 d982 dc40
000003d0: 2c37 aebf ac6e 883e 8e29 31c1 0935 b140
000003e0: d21a 4940 8048 fa3f 34d3 5840 5543 da3f
000003f0: c04a 0ec1 1265 e2bf c0d7 d03f f602 24c0
11.824695 0.56448996 8.893088 -11.905741 5.17394 2.898982 8.709828 2.6652973
4.3959103 -12.414729 2.9407082 -6.2218876 -1.0841272 3.733603 -3.039517 3.2522764
5.5018206 -11.608252 2.8194735 3.9895985 -0.09653103 -1.5687814 -4.955619 -4.9339533
5.3888826 -0.63698864 -0.8577647 9.349314 2.8904562 6.5849414 -7.375045 -1.3021706
-2.182381 4.8534045 -0.45998096 -1.0982399 -10.095781 -0.44886124 -8.108592 7.8113832
6.246448 -2.9201584 -0.81610775 6.9489603 -10.592012 6.2579412 1.573761 -3.8088946
2.3510358 -7.086632 -0.37026873 4.397396 -5.3475175 -3.7052689 5.9764533 -3.0628743
3.343671 -6.474393 2.7309325 -1.697798 2.5634594 -0.06712055 10.972801 -0.4490309
-2.048768 -7.3316784 -0.34334588 8.191816 2.746244 0.07671428 11.109971 -7.8815856
-0.87945557 10.114722 2.767323 -0.94606245 2.0460484 -7.574201 3.9599023 -4.543654
4.6546984 5.1604204 -2.564405 -5.635725 1.6498299 -0.9416209 -1.0238718 -1.2061045
3.3397212 -2.0442708 -6.8030324 2.5305986 -8.962638 8.108996 4.101118 1.6213435
-3.3487716 3.4248605 0.32127917 1.4731609 -3.2606578 2.3185022 0.628042 -0.146142
1.8097665 2.27257 -8.700855 -5.6913304 0.9409034 -3.700489 2.0362391 -5.4508033
2.6453185 -0.8001514 4.2914567 7.7116575 -0.6772156 -10.835972 -0.57774806 -7.2971096
0.17024231 7.480056 2.2632782 0.9807246 11.801744 -10.053144 -1.2184725 6.067119
-3.6965225 -4.16241 -0.5349746 -2.0257254 6.9745255 1.0071275 1.6713083 2.9318514
-0.08255482 -2.6434531 -5.1825037 -0.52287793 0.63369507 3.6670437 1.5927427 -10.529704
-2.3220987 1.6468863 -3.498939 11.611033 4.724731 4.2438493 -6.756781 0.04244259
-2.6437213 6.5698943 -4.3006434 2.6299837 -3.7618496 -8.292076 0.8046756 1.9091988
-0.43888998 -3.5399528 2.339948 4.9407516 0.13962197 -6.1971045 6.4314685 -4.094568
0.2426387 -2.3737817 -5.4780283 -6.5223083 0.30259204 -5.7164397 11.09162 12.783188
-2.2315588 -3.8764124 1.7853526 -7.9795513 2.9214199 -7.653465 4.191583 2.9047909
-5.8151083 -2.8221369 1.0474217 -6.641492 -3.4998803 -5.054432 -3.4577696 -1.5642343
-3.2862232 -8.930483 -5.943799 2.6631963 1.6779904 -5.538016 -7.0643797 -0.20522106
-7.756115 5.8553553 -0.5795572 10.326447 0.49974638 0.8651577 -5.8888307 1.4371867
4.8806653 -0.5717546 -7.2701054 0.1456101 -2.9752245 -3.2160368 3.2287183 6.6632924
10.4907 -0.61108804 -2.6262865 -12.131641 5.7038655 -4.7792635 -0.31511712 5.04424
-4.080563 -3.858921 0.45546204 -4.0688305 4.687648 13.532835 -3.763836 -5.2115417
4.9071493 -7.08938 -1.0143971 -1.1770384 9.82744 2.6287844 -6.183445 2.9481084
1.0887854 -2.3845887 -7.4966016 6.8909726 -1.3610587 0.26646936 -11.072645 5.537724
3.142262 1.9553375 3.3878908 1.7051798 -8.8932495 -1.7687094 1.6315842 -2.5626807
