hw4/tests/hw4_extra/data/test_attention_layer-8-11-27-8-32-True-0.0-cpu().npy (npy, 9632 bytes, 1 tensors)

array f4 [8, 11, 27]
0	0xbf447390	-0.76738834
1	0x3fa0fb20	1.2576637
2	0x4082842a	4.0786333
3	0x3fdf822e	1.7461603
4	0xc01e43ce	-2.4728885
5	0xbfac5f93	-1.3466667
6	0x3fe2cca9	1.7718707
7	0x4026b19e	2.604591
8	0x3fedf509	1.8590404
9	0x3f9748e9	1.1819125
10	0xbfb1d346	-1.38926
11	0x408a6218	4.3244743
12	0xbfffd7fb	-1.9987787
13	0x3f7b5bd2	0.9818698
14	0x40459955	3.0874836
15	0x3f18afd4	0.5964329
16	0x3fcc8e60	1.5980949
17	0xbf8d2ec3	-1.1029896
18	0x3f977809	1.1833507
19	0x3ff06582	1.8780978
20	0x3f731e03	0.9496767
21	0x3f87e2a8	1.0616045
22	0x3f3584ee	0.7090596
23	0xbe0b312f	-0.13592981
24	0xbeae1213	-0.33998165
25	0x3ee9707e	0.45593637
26	0x3eb82839	0.35968187
27	0xbfd58c77	-1.6683491
28	0x3f4ba7eb	0.795531
29	0x404e3ad2	3.22234
30	0xbf8221bd	-1.0166546
31	0xc01c32de	-2.4406047
32	0xbf1d9c9c	-0.6156709
33	0x3f82b629	1.0211841
34	0x3f6b7f15	0.91990787
35	0x3d15570f	0.03645998
36	0xbfa6d6b3	-1.3034271
37	0x3f7bc8bb	0.98353165
38	0x3f837cdc	1.0272479
39	0xc01b4161	-2.4258654
40	0x3fd78051	1.6836034
41	0x40317857	2.77297
42	0xbe814756	-0.25249738
43	0x3f23eb32	0.64030755
44	0x3e82ebd1	0.2557054
45	0x4012df8d	2.2948945
46	0xbf6c7040	-0.9235878
47	0xc00c85af	-2.1956594
48	0x3fc189b1	1.5120145
49	0x40159f0c	2.3378325
50	0x3fdd4061	1.7285272
51	0xbf05fc4a	-0.5233809
52	0x3f6f942f	0.93585485
53	0xbf1cbcc0	-0.6122551
54	0xc01d0a77	-2.4537637
55	0x3f0f9376	0.5608438
56	0x3f97532d	1.1822258
57	0x3feff403	1.8746341
58	0xc04bd199	-3.1846678
59	0x3f365337	0.71220726
60	0x403d3a13	2.9566696
61	0x3f5bff56	0.85936487
62	0x3faf52ad	1.3697106
63	0x3f6ce57c	0.92537665
64	0xc0570d06	-3.36017
65	0xbefcb9a4	-0.49360383
66	0xc016b966	-2.3550658
67	0xbf79a148	-0.9751172
68	0x3fd50abf	1.6643904
69	0xbe8725c6	-0.26396006
70	0xc06d5c0d	-3.7087433
71	0xbf8b3510	-1.0875568
72	0x3f6f6f94	0.9352963
73	0xbf2e1298	-0.6799712
74	0xc0246a47	-2.5689867
75	0xbf58da3c	-0.84708
76	0x3eb7e8af	0.3591971
77	0x405ee5f3	3.482785
78	0xc004e5e0	-2.0765305
79	0x3fa4ecce	1.2884767
80	0x401ca378	2.4474773
81	0xbf39592a	-0.7240168
82	0x3fb3d045	1.4047934
83	0x3f78ae3d	0.97140867
84	0x3f963924	1.1736188
85	0xc0914ba1	-4.540482
86	0x3f33fecd	0.7031067
87	0x3feecd57	1.8656415
88	0xbd92d0cb	-0.0716873
89	0x3fd44209	1.6582652
90	0x3e6b2f65	0.22967298
91	0xc00d35be	-2.2064052
92	0xbfa9fcab	-1.3280233
93	0x3d8920cb	0.06695708
94	0xbf1d40eb	-0.6142718
95	0xbedeee95	-0.435414
96	0xbffe9702	-1.9889834
97	0xbff66a1d	-1.9251133
98	0xbf50a25b	-0.81497735
99	0xbfaede92	-1.3661673
100	0xbff7a571	-1.9347364
101	0x40081697	2.1263788
102	0x3d033600	0.03203392
103	0x4019dd64	2.4041376
104	0x3ffbb6a2	1.966511
105	0xc00c00b7	-2.1875436
106	0x400aec34	2.1706667
107	0x3fde459e	1.7364995
108	0x3f906c60	1.1283073
109	0xbfb5c6fc	-1.420135
110	0x40028e32	2.039929
111	0xbf93af45	-1.1537863
112	0xbf91791b	-1.1365083
113	0x3f386dd0	0.7204256
114	0xbf88e13d	-1.0693737
115	0xbf710848	-0.9415326
116	0xbc939e2b	-0.018019756
117	0xbe0432c6	-0.12909994
118	0x3f50f9d2	0.81631196
119	0x3eec4d47	0.46152708
120	0x3fa1924c	1.2622771
121	0x3f4a535f	0.79033464
122	0x40a2a386	5.0824614
123	0x3e3b4542	0.18288139
124	0xbf24af1a	-0.64329684
125	0x3f0e4cdf	0.55586046
126	0xbf41161f	-0.7542438
127	0xbe7806ae	-0.24221298
128	0xc05d9ecb	-3.462817
129	0xc031c703	-2.7777717
130	0xbfa29fd6	-1.2705028
131	0xc02ab07e	-2.6670222
132	0x3ffb4572	1.9630568
133	0xbead2270	-0.33815336
134	0xbe059959	-0.13046779
135	0xbe41d4af	-0.18928789
136	0xbff053c3	-1.8775562
137	0x400381e1	2.0548022
138	0xc01ab233	-2.4171264
139	0xbfcf7bfc	-1.6209712
140	0xbd844c8e	-0.06459914
141	0xbedeab0a	-0.43489867
142	0xbf9cbbf4	-1.2244859
143	0x3e36605d	0.17810197
144	0x3f526e6a	0.8219973
145	0xbe9e3e1f	-0.3090677
146	0x3eea94e5	0.45816723
147	0xbea58eb2	-0.3233543
148	0x3f9394ab	1.1529745
149	0x4071040d	3.7658722
150	0x3f778f96	0.9670347
151	0x3f57a095	0.84229404
152	0xbf694a59	-0.9112907
153	0xbe55a0d5	-0.20862134
154	0x3edc912b	0.43079504
155	0xbf9aaea7	-1.208455
156	0xbf79c7d9	-0.9757057
157	0xbe39cfd3	-0.18145685
158	0xbe4e758d	-0.2016203
159	0x3fcd5b99	1.6043578
160	0xbf91c907	-1.1389474
161	0x3f452912	0.77015793
162	0xbf51fd96	-0.82027566
163	0x3e2d3670	0.16915298
164	0x3e846218	0.2585609
165	0xbf11b509	-0.5691686
166	0xbf4d7131	-0.8025084
167	0xbe3af1d2	-0.1825631
168	0x3f40e49b	0.75348824
169	0x3e50bd81	0.2038479
170	0x3fa7b610	1.3102436
171	0x3f2be8d7	0.6715216
172	0xbf7d4b8f	-0.9894342
173	0x3f308647	0.6895489
174	0x3d568382	0.05237151
175	0x3f2b56d8	0.6692939
176	0x3f8d0145	1.1016012
177	0x3f821629	1.0163013
178	0xc0244641	-2.566788
179	0x3dc6b551	0.09702552
180	0xbf10b88c	-0.56531596
181	0xbee356ad	-0.44402066
182	0xbf2c6cab	-0.67353314
183	0xbfb040c6	-1.3769767
184	0x3f2a254a	0.6646315
185	0xbfc7cf16	-1.5610073
186	0xbfa7ee6e	-1.3119638
187	0xbf2dd18f	-0.67897886
188	0x3ff1ab0a	1.8880322
189	0xbfb86d0b	-1.4408277
190	0xbe4d1c2a	-0.20030275
191	0xbfb2956c	-1.395185
192	0xbfd74c2e	-1.6820123
193	0xc0231f54	-2.548787
194	0xbfd31970	-1.6492138
195	0x3f7fc911	0.9991618
196	0xbdc58813	-0.09645095
197	0x3f98bc6d	1.1932503
198	0xbea3febe	-0.3203029
199	0xbf7fc9c2	-0.99917233
200	0x3eaa1008	0.33215356
201	0xbb2c333b	-0.0026275653
202	0xbfd37ccb	-1.6522459
203	0x3e838af6	0.25691956
204	0x3fc14952	1.51005
205	0x3fe9c750	1.826395
206	0xbfa97200	-1.3237915
207	0xbf8320a3	-1.0244335
208	0x3eb2c29a	0.34914094
209	0xbf8afa6e	-1.0857675
210	0x3e9580a6	0.29199713
211	0x4001cc32	2.028088
212	0xbf004af3	-0.50114363
213	0xbe22bf2d	-0.1589324
214	0xbf1949e4	-0.59878373
215	0x3f4bb309	0.7957006
216	0xbf7dbe11	-0.99118143
217	0xbf8d7ce6	-1.1053741
218	0xbea92203	-0.3303376
219	0x3f0ee8c0	0.558239
220	0xbf1c8d44	-0.61153054
221	0x3f5074a8	0.81428003
222	0x3f87d82f	1.0612849
223	0x40263528	2.5969944
224	0x3f80590c	1.0027175
225	0x3fa91e67	1.3212403
226	0xbfdc521e	-1.721256
227	0x401a074b	2.4066951
228	0xbf99a8dd	-1.2004658
229	0xbfc1fe07	-1.5155648
230	0x3f9c15c0	1.2194138
231	0x3ff0e6ed	1.8820473
232	0xbe9fee58	-0.3123653
233	0xbf5f9dd3	-0.87350196
234	0x3f9b4cff	1.2132872
235	0x4015c172	2.339932
236	0xc0340b48	-2.8131886
237	0xbda43a8b	-0.08018979
238	0x3ff276bd	1.8942486
239	0xbef72489	-0.48270062
240	0xbf9dbe6b	-1.2323736
241	0x4017fa18	2.3746395
242	0x4040ca28	3.0123386
243	0x3db193ca	0.08670767
244	0x3f2173d6	0.63067377
245	0xbe986873	-0.29767188
246	0x3fb0b259	1.3804427
247	0xc0011af3	-2.0172698
248	0x3f0a4557	0.54012054
249	0x3fc155c3	1.5104297
250	0x3fdb3ce2	1.7127955
251	0x402dd90f	2.7163732
252	0x3f525faf	0.8217725
253	0xc06557fc	-3.5834951
254	0x3d97a84f	0.07405149
255	0xbffb7aab	-1.964681
