hw4/tests/hw4_extra/data/test_transformer_model-8-5-27-64-4-8-32-False-0.0-cpu().npy (npy, 4448 bytes, 1 tensors)

array f4 [8, 5, 27]
3.659356 0.68787265 2.3118196 -5.886884 -1.3965294 -1.5659488 -0.7090608 5.2067914
4.370186 -2.1199472 0.6249023 -6.5221376 2.0555239 1.2931613 -2.1461701 -2.5385256
6.4444175 -6.319383 2.0783613 0.5968667 1.3862413 -6.6489654 -4.9420633 -3.838513
3.2671494 -2.709228 4.820525 0.5323531 -2.781026 0.51680994 -4.3327847 0.6097199
-3.066885 1.9498842 3.3854418 -2.9496632 -9.369284 -1.2166232 -4.910302 5.1116695
3.0444093 -1.2746081 -2.0482116 2.827887 -11.016626 3.3062875 0.01832056 -0.51102155
3.1690865 -1.3220266 -3.4751275 4.018684 -6.554438 1.7227933 2.4526749 2.7472725
-3.0637465 -2.4852884 -2.1661801 1.0504346 0.34701163 1.9282838 7.0074067 -1.236221
-6.9580064 -5.13194 1.1397085 3.9870791 0.8669496 -4.2644796 7.682223 -5.791533
-6.9199095 6.8644705 -2.6358223 -1.8249353 0.21344638 -3.2669454 5.0409603 -1.2110504
8.012624 6.097373 0.97395563 -6.713426 -4.566596 -5.8892584 2.1524081 -0.019219518
1.5650098 0.013950944 -2.1220887 -0.8144047 -4.707796 2.0079005 6.848992 -0.95309395
-4.8705826 4.1644363 0.44257268 -1.1017497 0.7282325 -2.2246935 -1.797065 -0.5620835
2.8810015 2.8408406 -8.537843 3.0881503 0.8299921 -1.1334418 -2.2838607 -8.224219
2.4715538 0.8434354 2.1243198 3.7479386 2.845108 -10.351749 -3.397644 -7.959484
4.125391 6.9435143 -0.7058722 0.8521292 6.9276547 -6.2088075 -2.0290778 5.1967335
-2.1747806 -2.1026046 -0.9803604 0.50082994 4.6127505 -2.096877 3.6108322 6.3278427
5.9974136 0.6486187 -9.53428 -1.2645234 5.739719 -1.8758372 0.9270069 1.805984
-5.5747743 2.28439 -2.6860642 -4.917341 7.0750437 -5.011415 -3.9526281 7.485786
-0.9291387 -5.620033 -2.4427242 0.40145528 -3.0085845 0.48575503 -5.0105104 2.295619
0.38681114 -5.6322546 -0.24430203 3.1036403 3.704215 -7.1928368 3.4304562 -5.0759883
2.8241224 1.8651823 -3.1822941 -7.405216 1.456635 -3.4540591 -0.42749214 7.582701
-2.2954085 0.65620685 0.6800337 -12.874668 -1.5351126 1.9990187 0.21640515 1.1650808
-5.5648236 -5.037032 8.770448 4.84058 1.9932526 -4.5891113 1.2477511 -0.6972505
1.4131318 -0.17062023 -7.198839 4.5024943 -2.4944067 -1.2542748 -3.6632204 0.9319216
-5.6730657 -2.272306 2.77015 1.4544172 -3.1595979 -3.8373475 -5.9555135 -5.0970254
8.93026 -4.35255 1.285631 -0.2994008 -2.904926 4.5121765 6.1264963 5.619673
9.706732 6.2036934 -0.83578455 -6.9797864 1.996019 3.9382176 -2.5882597 3.4694362
2.2298317 -2.0065749 2.76091 -1.250386 -1.5723386 11.680186 -3.9715762 -4.197213
2.9799957 2.3949926 0.13660502 -2.3225875 4.731033 2.0279782 5.245007 -0.39456108
2.7995687 -7.1096215 -4.7649646 8.001419 0.062255144 0.45651805 -8.976124 5.751822
1.6551063 2.0851197 9.020064 3.9328527 -6.6820455 -0.45391843 -2.2868667 -2.0374742
00000000: e432 6a40 6c18 303f daf4 1340 5b61 bcc0
00000010: 7ac1 b2bf 0371 c8bf 0285 35bf 099e a640
00000020: 90d8 8b40 37ad 07c0 99f9 1f3f 5ab5 d0c0
00000030: b48d 0340 4f86 a53f da5a 09c0 3477 22c0
00000040: ab38 ce40 6338 cac0 df03 0540 42cc 183f
00000050: 5b70 b13f 53c4 d4c0 6225 9ec0 32aa 75c0
00000060: fa18 5140 fe63 2dc0 be41 9a40 4b48 083f
00000070: 54fc 31c0 a84d 043f 2ca6 8ac0 9a16 1c3f
00000080: d847 44c0 ce95 f93f 14ab 5840 48c7 3cc0
00000090: 96e8 15c1 4fba 9bbf 3221 9dc0 cc92 a340
000000a0: 9ad7 4240 5c26 a3bf e615 03c0 1afc 3440
000000b0: 1a44 30c1 379a 5340 0015 963c 4fd2 02bf
000000c0: 50d2 4a40 2b38 a9bf 7d68 5ec0 0f99 8040
000000d0: f5bd d1c0 7e84 dc3f a0f8 1c40 50d3 2f40
000000e0: 6c14 44c0 f70e 1fc0 b2a2 0ac0 a474 863f
000000f0: 82ab b13e 01d2 f63f ad3c e040 7d3c 9ebf
00000100: fda7 dec0 da38 a4c0 f8e1 913f 4e2c 7f40
00000110: 69f0 5d3f 9e76 88c0 c5d4 f540 3d54 b9c0
00000120: e66f ddc0 bea9 db40 50b1 28c0 7b97 e9bf
00000130: b091 5a3e a215 51c0 8c4f a140 b303 9bbf
00000140: b533 0041 ae1d c340 2855 793f 63d4 d6c0
00000150: 8e21 92c0 ce74 bcc0 0ec1 0940 4072 9dbc
00000160: 3e52 c83f 8092 643c 4dd0 07c0 d47c 50bf
00000170: 44a6 96c0 7181 0040 f12a db40 f7fd 73bf
00000180: d0db 9bc0 1043 8540 e398 e23e 2206 8dbf
00000190: 726d 3a3f 6161 0ec0 3a06 e6bf b4e4 0fbf
000001a0: 5462 3840 55d0 3540 019b 08c1 41a4 4540
000001b0: 5d7a 543f 9f14 91bf c62a 12c0 6796 03c1
000001c0: f02d 1e40 62eb 573f dbf4 0740 3ade 6f40
000001d0: 4016 3640 c4a0 25c1 0073 59c0 18b4 fec0
000001e0: 3403 8440 4531 de40 0ab4 34bf 2425 5a3f
000001f0: 59af dd40 8dae c6c0 69dc 01c0 a44b a640
00000200: 9b2f 0bc0 1391 06c0 e6f8 7abf 6436 003f
00000210: a79b 9340 3c33 06c0 e017 6740 b07d ca40
00000220: d0ea bf40 e00b 263f 698c 18c1 e7db a1bf
00000230: c7ab b740 6f1b f0bf 5350 6d3f 7c2a e73f
00000240: 8d64 b2c0 7233 1240 7ae8 2bc0 dc5a 9dc0
00000250: c266 e240 835d a0c0 dcf7 7cc0 8f8b ef40
00000260: 09dc 6dbf 4fd7 b3c0 9855 1cc0 8c8b cd3e
00000270: a68c 40c0 e2b4 f83e 1a56 a0c0 6ceb 1240
00000280: 1c0c c63e 6e3b b4c0 502a 7abe 0ba2 4640
00000290: dc11 6d40 b82b e6c0 988c 5b40 7f6e a2c0
000002a0: 6cbe 3440 4bbe ee3f b5aa 4bc0 88f7 ecc0
000002b0: 0473 ba3f 4e0f 5dc0 40e0 dabe 7da5 f240
000002c0: f9e7 12c0 2cfd 273f b016 2e3f a4fe 4dc1
000002d0: 927e c4bf d8df ff3f 5099 5d3e 5e21 953f
000002e0: 0913 b2c0 5e2f a1c0 c153 0c41 08e6 9a40
000002f0: e722 ff3f 00da 92c0 4fb6 9f3f 027f 32bf
00000300: 81e1 b43f 12b7 2ebe e45c e6c0 6f14 9040
00000310: 5ca4 1fc0 148c a0bf 3472 6ac0 6a92 6e3f
00000320: c189 b5c0 766d 11c0 234a 3140 582a ba3f
00000330: da36 4ac0 1a97 75c0 9193 bec0 d51a a3c0
00000340: 58e2 0e41 1748 8bc0 8e8f a43f 104b 99be
00000350: 4fea 39c0 c063 9040 420c c440 5cd4 b340
00000360: c64e 1b41 a884 c640 faf5 55bf 695a dfc0
00000370: 8d7d ff3f c20b 7c40 0ca6 25c0 3e0b 5e40
00000380: 90b5 0e40 b96b 00c0 c0b2 3040 a60c a0bf
00000390: 6442 c9bf 0be2 3a41 4e2e 7ec0 924f 86c0
000003a0: 40b8 3e40 8f47 1940 30e2 0b3e 46a5 14c0
000003b0: 9f64 9740 65ca 0140 19d7 a740 e903 cabe
000003c0: 222c 3340 0582 e3c0 977a 98c0 d005 0041
000003d0: 40ff 7e3d bcbc e93e 349e 0fc1 ed0e b840
000003e0: 86da d33f 9a72 0540 2f52 1041 dcb3 7b40
000003f0: 51d3 d5c0 ff67 e8be 065c 12c0 fa65 02c0
