hw4/tests/hw4_extra/data/test_attention_layer-4-5-27-8-32-True-0.1-cuda().npy (npy, 2288 bytes, 1 tensors)

array f4 [4, 5, 27]
000000 63 0c a4 3f 46 94 aa bf b6 33 19 c0 a6 63 8b c0
       1.281628 -1.33265 -2.3937812 -4.355914
000010 32 74 3d 3f 49 c6 17 40 ae d2 db 3f 3f b8 aa be
       0.74005425 2.3714774 1.7173669 -0.33343694
000020 89 61 ef 3f fd 5e d5 3f 2a 38 12 40 e4 b6 49 c0
       1.870164 1.6669613 2.284678 -3.1517878
000030 20 9b 53 3d 47 5d 2a 40 02 42 95 c0 13 a4 03 c0
       0.05166161 2.6619432 -4.6643076 -2.0568893
000040 eb f1 14 40 2d 9a 8b 3f 3e f5 56 c0 74 66 b1 40
       2.3272655 1.0906426 -3.3587184 5.5437565
000050 94 51 56 c0 39 8a 29 40 9b 45 4a bf 20 99 c2 be
       -3.3487291 2.6490614 -0.7901246 -0.3800745
000060 2e c2 e8 3e a1 8c 95 3e 9c ae 23 c0 bb 14 ba 3f
       0.45460647 0.29208854 -2.5575323 1.4537576
000070 4c 28 73 3e 2d 13 ab bf b7 f6 fa be 19 7a 8d bf
       0.23745841 -1.3365227 -0.49016353 -1.1052886
000080 bb 51 88 3f ef 0d 2d 3f a5 3b 89 3f 50 7e 1e 40
       1.0649942 0.67599386 1.0721327 2.4764595
000090 98 24 5a bd 62 85 00 40 41 bf 29 c0 fc 85 c8 be
       -0.053257555 2.008141 -2.6522982 -0.39164722
0000a0 39 eb f1 3f 49 76 a0 bf 69 d1 ad be 6c 84 d9 3f
       1.8899909 -1.2536098 -0.3394883 1.6993537
0000b0 14 d5 09 bf e7 55 0f c0 44 45 d9 40 93 40 11 c0
       -0.53840756 -2.239618 6.7897053 -2.2695663
0000c0 9d 3e 0a 40 ea e2 09 bf 00 b7 44 c0 9a f2 de 3f
       2.1600716 -0.5386187 -3.0736694 1.7417786
0000d0 b7 a2 2b 40 e3 b0 5f c0 14 25 ae 3f c1 c7 80 be
       2.6818063 -3.4951713 1.3605065 -0.251524
0000e0 c2 54 d6 3f e4 f6 3e bf 42 40 ac bf d0 4f 35 bf
       1.6744616 -0.74595475 -1.345711 -0.7082491
0000f0 36 f0 93 3e 49 aa 5d 3b 2e 15 c3 be fb f0 36 3f
       0.28894204 0.0033823422 -0.38102096 0.71461457
000100 36 41 13 40 83 93 46 c0 f2 f8 6e 3e eb fd bf 3f
       2.3008552 -3.1027534 0.23337153 1.4999365
000110 28 28 37 bf 92 6d 82 3e d1 84 5c bf d3 de 75 3f
       -0.7154565 0.2547422 -0.8614016 0.9604313
000120 e5 f8 9d bf c2 8c 88 3f d1 35 a4 3f 85 41 d2 3e
       -1.2341582 1.0667956 1.2828923 0.41065612
000130 da 28 ac 3f cb 11 f1 3e da 66 10 40 f3 a8 5a 3f
       1.3449967 0.47083887 2.2562776 0.85414046
000140 90 d8 1b c0 8c 10 88 3e 75 e7 a5 bf 48 0b 08 40
       -2.435093 0.26575124 -1.296126 2.1256886
000150 31 46 23 c0 db 2a 0b 3f f3 8e 28 c0 aa 01 21 3f
       -2.5511591 0.5436227 -2.633725 0.62893164
000160 e6 0c 84 bf 0e a7 4a bf 89 cc 7d 3f 3a 02 10 40
       -1.0316436 -0.79161155 0.9914022 2.250136
000170 74 c6 d3 be 5a d5 6f bf 89 44 50 bd 38 23 2f be
       -0.41362345 -0.93684924 -0.05084661 -0.17103279
000180 3d 44 38 bf f7 7a 5a bf c4 96 cb 3f 3d 98 88 bf
       -0.71979123 -0.8534388 1.5905385 -1.067146
000190 4f c3 80 bf 34 e7 1b 40 55 ef 44 3f 97 7d 10 3f
       -1.0059603 2.4359865 0.7692769 0.56441635
0001a0 ab 5a 36 40 c1 c6 cc 3f 98 8b dc bc da b1 32 bf
       2.849284 1.5998155 -0.026922032 -0.6980263
0001b0 22 a1 33 3d 39 a2 b6 3c e8 cb 33 3f c1 8c 04 40
       0.04385484 0.02229415 0.7023301 2.071091
0001c0 55 9f 2d bf 9c eb 91 3f 85 c2 3a bf 5f bf 59 bf
       -0.67821246 1.1400027 -0.72953063 -0.85057634
0001d0 25 f1 a8 3f 64 e0 8c 3f 87 ca 73 bf 21 d6 53 3e
       1.3198591 1.1005979 -0.9523091 0.20687152
0001e0 97 aa 61 40 7f ad 02 bf a3 f1 56 bf a9 dd de be
       3.526037 -0.51045984 -0.8396246 -0.43528488
0001f0 37 91 1e be 25 6d 36 3f b4 79 8d 3e 43 ba a6 3f
       -0.15485083 0.7126029 0.27631915 1.3025593
000200 f0 32 90 3f bd cf d3 3f c5 82 88 3e 22 73 9f bc
       1.1265545 1.6547772 0.2666227 -0.01946408
000210 c5 ba 89 3e 3d c1 29 40 bb 5f ff be 6f 9d a0 40
       0.26900306 2.6524193 -0.49877724 5.019218
000220 bf 5d c2 40 b2 95 b4 bf b7 2a 03 3f 37 5c ea 3e
       6.0739436 -1.4108183 0.5123705 0.4577348
000230 0d 24 b4 3f 15 4d f3 be 22 92 b5 be 0e 34 1a c0
       1.4073502 -0.47519746 -0.35463053 -2.4094272
000240 4d e4 23 be 87 13 8c 40 c3 30 31 bd de 7d 0a 40
       -0.16005059 4.3773837 -0.043259393 2.1639323
000250 4f 39 15 c0 06 23 49 c0 83 97 2c c0 06 e6 35 3e
       -2.3316228 -3.1427627 -2.6967475 0.17763528
000260 9e 64 c5 c0 7c ec ac 3f 8d 2a ff 3f 1e 37 20 3f
       -6.1685324 1.3509669 1.993486 0.625841
000270 c1 62 64 3e f0 1a 55 40 01 45 e0 3f dd e3 d5 bf
       0.22303297 3.3297691 1.7521058 -1.6710163
000280 4d 43 0b c0 f6 f4 bf bf c1 19 8b 40 cc c3 9a 40
       -2.1759827 -1.4996631 4.346894 4.836401
000290 48 35 90 bf 15 81 42 40 e0 23 6e 3f c3 cd 75 3f
       -1.126626 3.0391285 0.9302349 0.9601709
0002a0 09 2a 27 bd bf 7f c0 3d 32 34 35 c0 01 56 95 be
       -0.040811572 0.09399366 -2.8313107 -0.29167178
0002b0 e4 00 4d 40 a6 e2 ed be 0b ca 29 40 67 68 a5 bf
       3.2031794 -0.46461982 2.6529567 -1.2922486
0002c0 61 1e fa bf ac 4b 2d c0 10 4a 5f 3f dd 33 9d c0
       -1.9540521 -2.7077436 0.87222385 -4.912581
0002d0 73 aa 53 40 42 26 a5 3f 89 be a8 3f dd db d9 bd
       3.3072784 1.29023 1.3183147 -0.10637639
0002e0 38 ec 3c 40 f5 69 d0 3f 56 64 9b bf 22 a4 39 c0
       2.9519176 1.6282336 -1.2139995 -2.9006429
0002f0 5a 34 eb be 88 a8 17 3f 86 8c 10 40 a8 67 7a bf
       -0.4593838 0.59241533 2.2585769 -0.97814417
000300 0b f9 82 3e 55 45 11 3f 1b 0c 98 bf c1 ea 4e bf
       0.2558063 0.5674642 -1.1878694 -0.80826956
000310 23 6f 43 bf 50 1d 9c bf a6 6f db bf a9 d9 9a 3f
       -0.76341456 -1.2196445 -1.7143447 1.2097675
000320 ab e0 40 be f2 15 ba 3f 24 4b 93 3f fa 53 08 c0
       -0.18835704 1.4537947 1.1507306 -2.1301255
000330 e2 73 b7 bf 1d 3c 5b 3f 00 81 1d bf d1 01 1f 3d
       -1.433224 0.856386 -0.61524963 0.03882009
000340 be e7 41 3f 99 42 fb bd 2e 47 2a 3f 47 62 c1 3f
       0.75744236 -0.12268562 0.6651486 1.5108117
000350 f5 9a c8 3f d1 65 cd bf a5 69 88 bf d3 c2 e8 bf
       1.5672289 -1.6046697 -1.065724 -1.8184456
000360 91 b6 7b 40 e1 62 05 3f 58 db 62 bf 04 a7 b1 3e
       3.933018 0.52104 -0.8861594 0.34697735
000370 e3 79 7a bd 47 c2 0f bf cb f0 84 3f 91 8e a7 be
       -0.061151396 -0.5615582 1.0385984 -0.32725957
000380 d3 68 02 c0 a8 01 3a bf 31 78 e4 3f eb 9b 32 bf
       -2.037648 -0.7265878 1.784918 -0.6976916
000390 94 a5 63 3f c6 02 50 be a4 b7 89 be 68 00 ca bf
       0.8892453 -0.20313558 -0.2689792 -1.5781374
0003a0 94 64 fa 3e 79 d1 2e 3f 1d cf d8 3e 31 39 b2 3f
       0.4890486 0.6828838 0.42345515 1.3923703
0003b0 1f 00 c5 bf 51 67 63 be 4b f5 03 40 ee 65 66 bf
       -1.5390662 -0.22207381 2.0618465 -0.8999928
0003c0 9f 5d bb 3e 52 57 ac be 34 a6 90 3e 5a c3 16 3f
       0.36594865 -0.3366037 0.28251803 0.5889183
0003d0 99 9a 4c 40 99 cc 46 3f fe 39 ca 3f 27 7d 03 40
       3.196936 0.7765594 1.5798948 2.0545137
0003e0 c0 11 5c c0 b4 e0 45 3f 99 b7 b8 bf 0f 6a cc bf
       -3.4385834 0.77295995 -1.443103 -1.5969867
0003f0 ab 03 8f 3f f5 d6 1a 40 ce be 36 3f 30 d0 f0 3d
       1.1172994 2.41937 0.71384895 0.117584586
