hw4/tests/hw4_extra/data/test_transformer_layer-4-11-27-8-32-64-False-0.1-cpu().npy (npy, 4880 bytes, 1 tensors)

array f4 [4, 11, 27]
000000 ca 7b 8b 40 80 71 34 be e8 57 0a 40 78 15 d9 be
       4.358861 -0.17621422 2.1616154 -0.42399192
000010 6e dc 6f 3f e4 9e 4b 40 65 5c 93 3f aa 0e 81 c0
       0.93695724 3.181573 1.1512572 -4.03304
000020 2e e8 80 bf c0 67 82 3d 49 17 27 bf 56 5b 2c 40
       -1.0070856 0.06367445 -0.65269905 2.6930747
000030 1f b9 73 c0 16 fa 84 bf 52 79 72 bf fe 4d 42 40
       -3.808174 -1.038882 -0.9471637 3.0360103
000040 f6 94 71 40 77 6b bc bf 80 42 47 3c 8a 32 d7 bf
       3.7747169 -1.4720296 0.012161851 -1.6812298
000050 fc f6 a6 3f 0a 94 b3 3e c8 87 79 bf d7 34 40 c0
       1.3044124 0.35073882 -0.9747281 -3.003225
000060 df c1 2c c0 c2 3f b1 3f 67 9c 8d bf 90 ea 93 40
       -2.699333 1.3847582 -1.1063355 4.622383
000070 15 ce c1 3f 3e bf cb be 40 7a 67 3d 88 c2 cc be
       1.5141016 -0.39794344 0.05651307 -0.39992166
000080 bc 32 a5 40 12 c3 ca 3f d9 5b da 3f 1e fa 05 c0
       5.162443 1.5840781 1.705928 -2.093391
000090 cf 7c 6b c0 a6 46 a1 bf 2f 0e a8 bf 62 32 68 40
       -3.6794927 -1.2599685 -1.3129328 3.6280751
0000a0 e9 e0 84 40 98 c8 09 40 41 c8 49 40 8a 6e 4c 40
       4.152455 2.1528683 3.1528475 3.1942468
0000b0 89 60 77 3f 07 48 96 3f b5 10 cd bf 1e e7 83 be
       0.96631676 1.1740731 -1.6020724 -0.25762266
0000c0 fc 75 14 bf cc 06 ce 3f 62 d4 c9 be 88 6d 99 bd
       -0.5799253 1.6095824 -0.39419848 -0.074915946
0000d0 e8 b3 96 bf e6 cb 82 3f c4 25 ed bd 80 2f 1f bf
       -1.1773653 1.0218475 -0.11579469 -0.62181854
0000e0 80 24 34 c0 ce ca 54 c0 f8 f1 d7 3f f7 a8 04 3f
       -2.8147278 -3.3248782 1.6870718 0.5182032
0000f0 14 29 75 3e ed 6b 12 c0 87 f6 66 40 5e ab 1b 40
       0.23941451 -2.2878373 3.6087968 2.4323344
000100 00 f5 df 3b 8b c8 52 40 0e 84 ee 3f 7d 9a 39 3f
       0.006834626 3.2934902 1.863405 0.72501355
000110 a8 97 5f bf 5c db 82 bf 7a 03 05 40 48 e1 50 40
       -0.87340784 -1.0223193 2.0783372 3.26375
000120 e7 82 6b c0 56 ec 2a 3f 5c 4b 1b 40 e6 2b fb be
       -3.6798646 0.6676687 2.4264746 -0.4905693
000130 ba e1 25 3f ce 3b b8 3e ba 44 06 40 9f 93 a7 3f
       0.64797556 0.35983127 2.0979447 1.3091925
000140 0a 05 68 40 76 5e 0d c0 ec a0 00 be 33 91 56 40
       3.6253076 -2.2088904 -0.12561387 3.3526123
000150 9e 27 ae 3f 8e 6e 50 3f aa 3d 50 bf bf 94 65 c0
       1.360584 0.81418693 -0.8134409 -3.5872037
000160 06 66 4b 3f 60 46 ea bf 5e 07 8b 3f 43 e8 b7 bf
       0.7945255 -1.8302727 1.0861623 -1.4367756
000170 36 c5 24 40 24 2c 1d c0 20 41 c7 3e 90 b3 ab 3f
       2.5745368 -2.4558191 0.38916874 1.3414173
000180 b8 9e 98 3e 9d 1e 44 c0 9c a4 0f 40 a7 d2 d5 be
       0.29808593 -3.0643685 2.244422 -0.41762277
000190 3c c4 50 c0 4e 83 dc be b0 50 be 3f cc 81 33 40
       -3.2619772 -0.43068928 1.4868374 2.8047972
0001a0 24 36 d2 be a6 35 f9 3f bc 2d de be 11 96 32 c0
       -0.4105693 1.9469497 -0.43394268 -2.7904093
0001b0 40 5a 30 3f a4 fa 4e bf 32 db 42 c0 be 10 aa bf
       0.6888771 -0.808512 -3.0446286 -1.3286359
0001c0 e7 d1 0a bf d4 9f 58 3f 76 bd f2 3f 0e b5 81 bf
       -0.54226536 0.8461888 1.8964069 -1.0133379
0001d0 88 d0 32 bf 91 af 23 3f 1a 3e 42 c0 6e c4 a9 bf
       -0.69849443 0.6393977 -3.0350404 -1.326307
0001e0 83 8f ba bf d8 fb 25 bf ba 30 49 c0 5b b7 de bf
       -1.4575046 -0.6483741 -3.143599 -1.7399706
0001f0 fb 3a 81 3f 16 15 26 40 e6 76 e9 be 8c a2 96 c0
       1.0096124 2.595037 -0.45598525 -4.707342
000200 43 1e 57 40 78 73 ec 3e 3a f9 31 c0 dd cf f7 bf
       3.361222 0.46181846 -2.7808366 -1.936031
000210 03 8a bc 3f c4 7d 78 40 5a 13 3a 40 3a 2e f0 3e
       1.4729618 3.8826761 2.9074311 0.46910268
000220 4b d8 bd 3f 50 77 ed 3f b0 72 54 3e 80 d6 8e 3f
       1.4831632 1.8552036 0.20746875 1.115921
000230 d9 af 39 3f b8 45 f6 be 2f 48 88 bf 59 ad 5e bf
       0.7253395 -0.48100066 -1.0647029 -0.8698326
000240 10 8c 51 bf c4 20 22 c0 3c e2 39 be 1f 71 67 c0
       -0.81854343 -2.5332499 -0.18152708 -3.6162794
000250 7e 12 99 3f 39 02 73 3f f4 8b 8e bf 2d 5b f0 3f
       1.1958768 0.94925267 -1.113646 1.8777825
000260 48 f7 2f 40 52 03 d7 bd c7 8b 3a 3f aa 39 29 bf
       2.7494678 -0.1049868 0.72869533 -0.66103613
000270 98 92 6c 3e 60 1f a4 3f 38 14 31 3f f8 f1 06 c0
       0.23102796 1.2822075 0.69171476 -2.1085186
000280 b1 f4 ab 3f f0 c2 44 3e 52 4b 02 3f 80 ba a2 3e
       1.3434049 0.19214988 0.5089618 0.31782913
000290 a0 fe 8f bf bc 55 76 c0 fc 19 a6 be cc 9d 23 3f
       -1.124958 -3.8489828 -0.324417 0.63912654
0002a0 78 12 98 bd a6 d9 63 c0 53 ad 92 3f 62 8c 97 be
       -0.07425398 -3.5601592 1.1459144 -0.2959929
0002b0 d0 f7 00 bf 26 a6 69 40 82 f0 a4 3f 15 33 13 40
       -0.5037813 3.650766 1.2885897 2.2999928
0002c0 e0 f0 7f 3e 7c c5 22 40 5c 07 e4 3f 5a 99 d7 3e
       0.2499423 2.5433035 1.7814746 0.42109185
0002d0 f7 5f bc bf 3e b6 11 c0 d0 aa 6e 40 e0 3c b5 bf
       -1.4716786 -2.2767482 3.7291756 -1.4159203
0002e0 78 d6 9e bf f7 60 f6 bf d8 53 90 40 17 ca 59 bf
       -1.2409201 -1.9248341 4.510235 -0.8507399
0002f0 92 14 74 40 5a 2c 01 40 3f 26 41 c0 00 89 b2 bd
       3.8137555 2.018332 -3.0179594 -0.08717537
000300 02 20 a1 3e e8 20 82 bd fc 73 2d 40 c8 b1 64 3f
       0.31469733 -0.063539326 2.7102041 0.8933377
000310 0a dd 3e bf c0 9f 00 be 69 7e 45 bf b9 43 d5 bf
       -0.7455603 -0.1256094 -0.7714601 -1.6661292
000320 5a 87 1a 3f 38 c3 8d c0 ec a8 7c 3f 66 74 18 3f
       0.6036278 -4.4300804 0.98695254 0.5955261
000330 e8 4d 36 3e 1e 61 ee 3f 98 c9 3b 40 d8 49 b3 3e
       0.17803156 1.8623388 2.9341793 0.35017276
000340 3c 6f 10 c0 76 d1 0f c0 22 d6 38 40 38 9a c3 bf
       -2.2567892 -2.2471595 2.8880696 -1.5281439
000350 e8 63 e1 3e b5 32 7e c0 bc e2 c9 be 8a 9a c8 be
       0.44021535 -3.971845 -0.39430797 -0.39180404
000360 90 33 fc bf fb 01 0d c0 ac fc 4c 3f 27 be 42 c0
       -1.9703236 -2.2032459 0.80073047 -3.042856
000370 10 d6 46 3f 3c f4 08 40 84 48 d6 bf 3b fe 66 bf
       0.77670383 2.139907 -1.674088 -0.90231675
000380 90 e8 8f bf c6 b0 11 3f 15 87 ac bf 96 e0 11 40
       -1.1242847 0.5691036 -1.3478724 2.2793326
000390 42 a7 57 3f 93 57 49 bf 6f 36 0a 40 79 83 46 bf
       0.8423959 -0.7864925 2.1595724 -0.7754436
0003a0 4c 42 ff bf 6d 70 63 3f 64 63 13 c0 b0 84 ba bd
       -1.9942107 0.88843423 -2.3029413 -0.091073394
0003b0 c1 b2 0d 3f a4 af 8e 40 35 72 ed 3f 80 4c 0d c0
       0.5535088 4.4589405 1.8550478 -2.2077942
0003c0 76 85 43 40 e1 4b 3d c0 31 22 c8 bf bc f6 f5 3f
       3.0550208 -2.9577563 -1.5635434 1.9215922
0003d0 d4 af b5 bf 00 a5 07 bc 84 ac e7 bf 74 b7 44 40
       -1.4194283 -0.008279085 -1.8099523 3.073697
0003e0 6b f7 58 40 04 42 55 40 f0 82 e7 bf 1b 89 23 40
       3.3901012 3.3321543 -1.8086834 2.5552433
0003f0 aa 35 ac 40 3a 46 a7 3e 8a fb cb 40 8e c9 e5 bf
       5.381551 0.32670766 6.3744555 -1.7952135
