hw4/tests/hw4_extra/data/test_transformer_layer-2-5-27-8-32-64-True-0.1-cpu().npy (npy, 1208 bytes, 1 tensors)

array f4 [2, 5, 27]
000000 40 88 50 c0 18 e3 b2 c0 da 50 92 40 69 e0 2e 40
       -3.258316 -5.5902214 4.5723696 2.732447
000010 c5 5b 9b 3e d4 82 46 c0 bc 5c 91 bf 9c c0 49 40
       0.30343452 -3.101735 -1.1356425 3.152381
000020 28 e3 4d 3f f7 88 ed bd 8f f2 fa 3f 76 25 ba 40
       0.8042474 -0.115983896 1.9605273 5.817073
000030 ce c2 48 bf 11 71 9e c0 d4 83 c2 c0 6a 8c 01 c0
       -0.7842225 -4.951302 -6.0785923 -2.0241952
000040 f0 b4 2a 40 8d 6f e4 3f 96 1b 83 40 b1 6e 5f 40
       2.6672935 1.7846543 4.0971174 3.491131
000050 6a 3e 11 40 e0 25 49 40 bd f9 63 c0 ca 34 76 3f
       2.2694345 3.1429367 -3.5621178 0.961743
000060 d8 55 ba 40 32 ac a3 3f 10 f5 17 c0 a7 cb 98 c0
       5.822979 1.2786925 -2.3743324 -4.77486
000070 94 fa 16 c0 86 f4 e7 bf 08 7f ca 3d ae 4c 18 40
       -2.359044 -1.8121498 0.098875105 2.3796802
000080 49 d8 3c 40 a8 a5 7c bf f8 da 6c 3f ea 35 1d c0
       2.950701 -0.9869027 0.9252162 -2.4564157
000090 44 44 01 c0 2c 67 20 40 be 3d 9c 3f 8e 4a 35 c0
       -2.0197916 2.506297 1.2206342 -2.8326755
0000a0 20 50 d6 c0 6c d6 74 c0 6c b6 d4 bf 13 68 b7 40
       -6.697281 -3.8255873 -1.6618171 5.7314544
0000b0 6e b9 1e 40 16 e3 9c 3f 9f ee 3e 40 3c e1 09 c0
       2.4800677 1.2256801 2.9833143 -2.1543722
0000c0 48 63 10 40 12 42 71 3e 88 4c 59 3e 6c a6 8e 40
       2.2560596 0.2356036 0.212206 4.457815
0000d0 0f 64 34 40 ee 23 0b c0 b8 20 1d c0 34 ad 22 c0
       2.818607 -2.174068 -2.455122 -2.5418215
0000e0 80 57 8a c0 85 1f 77 bf 6e 88 9d bc 2d 31 c6 c0
       -4.323181 -0.9653247 -0.019230094 -6.193503
0000f0 a0 b8 aa 3e 3e 4e 9c 3f 18 71 fd 3d ed 77 d9 bf
       0.33343983 1.2211378 0.123750865 -1.6989723
000100 c3 7f 75 bf 85 98 f6 3f e8 2f 46 be 4c 8a b1 c0
       -0.95898074 1.9265295 -0.19354212 -5.548132
000110 a1 71 17 c0 e3 63 80 c0 a1 1a 5f 40 74 0e b9 3f
       -2.3663104 -4.012193 3.4860003 1.4457536
000120 ed fb 93 40 ba 12 77 40 53 3b e1 3f ad e6 dc 3f
       4.6245027 3.860518 1.7596229 1.7257897
000130 44 35 10 c0 c0 38 9e 3d 6c 06 9c 40 50 ed ce 3d
       -2.253251 0.07725668 4.875784 0.101038575
000140 11 fb c4 be 64 93 8c 3f 44 94 cf 3e 78 8a 73 bf
       -0.38472798 1.098248 0.40542805 -0.9513316
000150 21 00 34 c0 de 1f df 3f 47 1f 32 40 70 11 0e bf
       -2.8125079 1.74316 2.783159 -0.5549536
000160 26 7d 97 bf a3 55 fa bf 14 07 e7 bf b8 09 95 3e
       -1.1835067 -1.9557384 -1.8049035 0.29108977
000170 b8 58 57 be 40 bb 2c c0 16 d1 26 bf dd e1 09 c0
       -0.21029937 -2.6989288 -0.6516279 -2.1544106
000180 d2 2e a0 bf 04 a2 c1 be 30 90 45 3f 08 11 f1 3f
       -1.2514288 -0.3781892 0.7717314 1.8833323
000190 4c 9b 22 40 b8 71 9b 3f 86 d5 dc 3f 6c a0 10 bf
       2.5407286 1.2144079 1.7252662 -0.56494784
0001a0 00 50 46 40 8d e1 9c bf 23 c5 55 40 7a 27 62 bf
       3.0986328 -1.2256333 3.3401573 -0.88341486
0001b0 22 89 18 c0 00 64 2a 3f 48 03 f4 bf fe 77 32 c0
       -2.38337 0.6655884 -1.9063501 -2.7885737
0001c0 d7 f1 49 40 44 37 5e c0 fa dd e1 be 4e a3 25 40
       3.1553857 -3.4721231 -0.44114667 2.5880923
0001d0 dc d2 f4 bf 69 1a 7e c0 9e e0 f4 be 37 2e 8c 3f
       -1.9126849 -3.970362 -0.4782762 1.0951604
0001e0 b0 1c cf 3f cc ff c0 c0 9c 79 8d c0 88 cc aa bf
       1.618063 -6.031225 -4.421095 -1.3343668
0001f0 a1 85 e4 3f 5a 45 91 3f f4 57 5d 3f da 64 d3 3f
       1.785328 1.134929 0.8646233 1.6515152
000200 99 c7 be 3f 75 78 aa 3f be 25 23 c0 9c 47 b6 3e
       1.4904662 1.331801 -2.5491786 0.3560151
000210 7b d6 e4 3f a1 ac d4 3f 80 ef 90 bc 1e 3e 36 c0
       1.7877954 1.6615182 -0.017692327 -2.8475413
000220 7a 25 21 3f 74 85 15 bf 28 17 12 3f 42 42 cc 40
       0.6294781 -0.5840676 0.57066584 6.383088
000230 41 f9 8c c0 eb f4 c7 be 33 cc 95 3f b8 00 24 40
       -4.4054265 -0.39054045 1.1702942 2.5625439
000240 9f a9 37 c0 e4 f1 82 bf 8d 95 11 40 46 bc da bf
       -2.8697278 -1.0230069 2.2747529 -1.7088706
000250 e0 9c 14 3f e0 f3 64 c0 c0 82 5d bf cc 55 c4 3f
       0.5805187 -3.577385 -0.86527634 1.5338683
000260 9e 10 00 40 aa 23 34 3f f0 8b 8a 3f 74 28 fc be
       2.0010142 0.7036692 1.0823956 -0.49249613
000270 c3 c0 87 bc 8e 00 03 c0 1e fb 48 c0 25 6b 81 40
       -0.016571408 -2.0469089 -3.140327 4.044329
000280 ec c6 83 3f d8 9e dd bf c9 ec 44 40 15 53 ee 3f
       1.0295081 -1.73141 3.0769522 1.8619105
000290 ac 94 19 bf 34 57 c6 3f ff f5 43 40 94 32 11 c0
       -0.5999248 1.5495362 3.0618894 -2.268712
0002a0 1e 3f 8e 3f f9 6c ca 3f c3 1b 02 c0 7c 3b 5a 3f
       1.1113012 1.5814506 -2.0329444 0.85247016
0002b0 3b 7c 33 c0 74 08 a7 3f d6 d0 69 40 e2 88 4a c0
       -2.8044574 1.3049455 3.6533713 -3.1646047
0002c0 c6 12 15 c1 c9 28 83 3f 94 c4 b6 bf 62 e0 f5 bf
       -9.317083 1.0246822 -1.4278741 -1.9209101
0002d0 b0 62 91 40 54 64 9f be 80 32 6c 3c e4 fe 8e 3f
       4.543297 -0.31131232 0.014416337 1.1171536
0002e0 56 95 b2 3f 69 5c 4f c0 21 ff bd 40 b3 39 2c 40
       1.3951824 -3.2400153 5.9373937 2.6910217
0002f0 e5 3b 99 bf ac 58 b9 bf de 69 1d c0 30 24 7f 40
       -1.1971403 -1.4480186 -2.4595866 3.9865837
000300 32 96 cb 3f cc e5 15 40 04 98 10 c0 83 57 89 3f
       1.5905211 2.3421507 -2.2592783 1.0729831
000310 dd 53 46 be f2 5e b9 3e 14 cc 23 40 be d2 ef bf
       -0.19367929 0.3620525 2.559331 -1.8736188
000320 4e cb 0e 3f 5d ac 48 bf 38 93 12 be 28 f7 97 40
       0.5577897 -0.78388005 -0.14313972 4.7489204
000330 59 8b 8f 40 75 31 a1 c0 a8 a8 83 3f c0 71 56 40
       4.48576 -5.037287 1.0285845 3.3506927
000340 93 e8 f9 3f 54 1d cb 3f 1c 68 c5 bf 20 c0 80 bf
       1.9524101 1.5868325 -1.5422397 -1.0058632
000350 24 8c b5 bf 0c c4 2f be 5d fb 64 3f db 53 41 c0
       -1.4183393 -0.1716463 0.8944605 -3.0207431
000360 9c f1 1d 40 70 b1 79 bf f0 85 d5 bf 00 8f 45 c0
       2.4678717 -0.97536373 -1.66815 -3.086853
000370 4e b3 90 bf 64 5c 54 40 18 81 07 c0 a8 a0 93 3f
       -1.130472 3.318139 -2.1172543 1.1533403
000380 80 f8 9a c0 34 3e cb 3f 37 e0 17 c0 b8 6d 9e 3f
       -4.8428345 1.5878358 -2.37306 1.2377234
000390 24 a2 c5 3f 82 22 20 40 02 bf 24 bf 0d ed ee 3f
       1.5440106 2.5021062 -0.64353955 1.8666092
0003a0 b1 d1 60 c0 a8 8e ed bf 10 24 94 40 01 21 89 40
       -3.5127985 -1.855916 4.629402 4.285279
0003b0 1c d8 0f 3d 76 7a e7 3f bc 37 2c 40 73 90 50 c0
       0.035118207 1.8084247 2.6909018 -3.2588165
0003c0 ad e4 1b c0 f9 79 2d 40 00 dc 4d 3a 70 f1 63 be
       -2.4358323 2.7105696 0.0007852912 -0.2226007
0003d0 62 0f 40 bf 00 40 6e 39 18 26 36 bf 78 52 36 3f
       -0.7502347 0.0002272129 -0.71151876 0.7121959
0003e0 a6 e6 5a bf 06 a4 5a bf 88 00 0e bf 2e 4e 2e c0
       -0.8550819 -0.8540653 -0.5546956 -2.7235217
0003f0 b0 c2 b5 be e2 d2 8a 3f 50 e0 cb 40 df 8f bf 3f
       -0.35500097 1.0845606 6.371132 1.4965781
