hw4/tests/hw4_extra/data/test_attention_layer-4-11-27-8-32-True-0.0-cuda().npy (npy, 4880 bytes, 1 tensors)

array f4 [4, 11, 27]
0	0xc04ecc12	-3.2312055
1	0x401f38d7	2.4878442
2	0xbf3336bf	-0.7000541
3	0x3d05e840	0.032692194
4	0x3fa04e59	1.252391
5	0x3f66160e	0.898774
6	0x3fa44d0f	1.2836016
7	0x3f4ed2a2	0.8079015
8	0xbf98f095	-1.194842
9	0x3fe01ca2	1.7508738
10	0x3efcbf45	0.49364677
11	0xc02a8e26	-2.664926
12	0x4007d87c	2.1225882
13	0xbfe8300e	-1.8139665
14	0x3fe2b0e2	1.771023
15	0x3ff174b8	1.8863745
16	0xbe048ae0	-0.12943602
17	0xc00583df	-2.0861738
18	0x3f6b6ab0	0.9195967
19	0xc02a3b04	-2.659852
20	0x3f5fbcf0	0.8739767
21	0x4032cf8f	2.7939184
22	0xbf98ec59	-1.1947128
23	0x3daa6a73	0.08321085
24	0xc0353a20	-2.8316727
25	0x40641233	3.5636108
26	0x3f6a4c8b	0.91523045
27	0xc00b49b1	-2.1763728
28	0x407ca5df	3.947624
29	0xbfedf470	-1.8590221
30	0xbe49903b	-0.19683926
31	0x3fc64808	1.5490732
32	0xbe049664	-0.12947994
33	0x3f390ddf	0.7228679
34	0x3d91a9bf	0.071124546
35	0xbfcabbd0	-1.5838566
36	0x3ffa141a	1.9537385
37	0xbdf2dd8c	-0.11858663
38	0xbff2a040	-1.8955154
39	0x3ff99fa1	1.950184
40	0xbf1c5e2b	-0.6108119
41	0x3fbf016d	1.492231
42	0x3fc69000	1.5512695
43	0x3fba24fa	1.4542534
44	0xbfcbad94	-1.5912347
45	0x3f5c0ecf	0.85960096
46	0xc007da70	-2.1227074
47	0x40146113	2.318425
48	0x3fb3f5fe	1.4059446
49	0xbee0f5e2	-0.43937594
50	0xbea594fe	-0.32340235
51	0xc02fffb1	-2.7499812
52	0x405e710e	3.4756503
53	0x3fbb83c0	1.4649582
54	0x3f15443e	0.58307254
55	0x4042b4aa	3.0422769
56	0xbe1ad36d	-0.15119715
57	0x3cfa4830	0.030552
58	0x3fe92248	1.8213587
59	0xbd53d34b	-0.051715177
60	0xbee717a2	-0.45135218
61	0x3d6b1cf4	0.05740066
62	0xbfa82d2b	-1.3138784
63	0x4028738c	2.6320524
64	0xbd5bc579	-0.05365512
65	0xbf07bb49	-0.5302015
66	0x3fc4d0e9	1.5376254
67	0x3f042af9	0.5162807
68	0xbe9f1f28	-0.31078458
69	0x3ce21309	0.027596967
70	0xbdcd7b81	-0.10033322
71	0xbfc71abc	-1.5555034
72	0x3ff7c051	1.9355565
73	0xbed1ad90	-0.4095273
74	0xbf998099	-1.199237
75	0xc0119ef0	-2.2753258
76	0x3f3bd725	0.7337516
77	0xbe38177c	-0.17977709
78	0x3f0738c4	0.5282099
79	0x3f925774	1.1432939
80	0x4002304f	2.0341985
81	0xbf93dd73	-1.1551956
82	0x3f501897	0.8128752
83	0xbfda77ec	-1.7067847
84	0xc010f1e7	-2.2647645
85	0xbe405546	-0.18782529
86	0x402a63c3	2.662339
87	0xbf7d7310	-0.99003696
88	0x3e0ae3e0	0.1356349
89	0xbebf2f06	-0.37340564
90	0x3ff24239	1.892646
91	0xbf3d5de5	-0.73971397
92	0xc04913a0	-3.1418228
93	0x3d8c2e79	0.068448015
94	0xbfb9cbe6	-1.451535
95	0x3fe94bb3	1.8226227
96	0xbf2420ef	-0.6411275
97	0xbfbe4232	-1.4863951
98	0x3f186d9e	0.5954226
99	0x4033f48f	2.8118017
100	0x3fbdd12a	1.4829457
101	0xbe47cb7c	-0.19511217
102	0xbfa63276	-1.298415
103	0xbf98218f	-1.1885241
104	0x3f62b5a2	0.885584
105	0xc01b7497	-2.428991
106	0x3fdcc051	1.724619
107	0xbe762e2f	-0.24041055
108	0x4029aaa3	2.6510398
109	0x3fc2ea3e	1.5227735
110	0xbf555f1f	-0.8334827
111	0xbd902959	-0.070391364
112	0xbe6c9401	-0.23103334
113	0x3f34c444	0.7061198
114	0xbf17dd1b	-0.59321755
115	0xbee5ee7e	-0.44908518
116	0xbf43fe1c	-0.76559615
117	0x3fa488c1	1.2854234
118	0xbf4523a4	-0.7700751
119	0x3d55a054	0.052154854
120	0x402107b2	2.5160947
121	0x3ef8c283	0.485859
122	0xbf17f5de	-0.5935954
123	0x3f0ecb8a	0.55779326
124	0xbf7b7e59	-0.98239666
125	0xbddceff4	-0.10787955
126	0x3fe7bd0e	1.810457
127	0x3fa1c47c	1.2638087
128	0xbfae487d	-1.3615872
129	0x3e56d3b8	0.20979202
130	0x3fb18272	1.3867934
131	0xbeb70069	-0.357425
132	0x3f0465d7	0.51717895
133	0xbf4d8a20	-0.8028889
134	0xbe47945d	-0.1949019
135	0x3ed5d11b	0.41761097
136	0xbd953be7	-0.07286816
137	0xbf9db907	-1.2322091
138	0xbf67cabb	-0.9054372
139	0xbf1d8a72	-0.61539376
140	0x3f8a1e82	1.079056
141	0x3f2f4d08	0.68476915
142	0x3eaa4f34	0.33263552
143	0xc018355a	-2.3782563
144	0x3f5c9486	0.8616413
145	0xbf04a4d5	-0.51814014
146	0xbfa9a2f4	-1.3252854
147	0x3fe93fe9	1.8222629
148	0x3f73b8bf	0.95203775
149	0x3f35276e	0.7076329
150	0x3e92c792	0.28667885
151	0x3e217a44	0.15769297
152	0xc00bed36	-2.1863532
153	0x3f5d35df	0.86410326
154	0xbfc1843b	-1.5118479
155	0xbedd819e	-0.43262953
156	0xbf4ddbac	-0.8041332
157	0xbee3b666	-0.44475096
158	0x3f3efac3	0.7460138
159	0xbf8296af	-1.0202235
160	0xbf3515e1	-0.7073651
161	0x3f148346	0.5801281
162	0x40197e99	2.398352
163	0x3f4f5e09	0.8100286
164	0xbf8f4b77	-1.1194905
165	0xbf280e37	-0.6564669
166	0xbe2514dd	-0.1612124
167	0x3fcb25de	1.5870931
168	0xbfb90a15	-1.4456202
169	0x3dfd52d4	0.12369314
170	0xbffa5a4c	-1.9558806
171	0x40052d70	2.0808983
172	0x3ee4410b	0.44580874
173	0xbff344c2	-1.9005358
174	0xbe8598d5	-0.26093164
175	0xbf464209	-0.7744451
176	0xbdbfe5b5	-0.09369985
177	0xbfecc293	-1.8496879
178	0xbec47f32	-0.38378292
179	0x3e12d96e	0.14340755
180	0xbef1709f	-0.47156236
181	0x3f64f542	0.89436734
182	0xbf0cdc6a	-0.55023825
183	0xbe978827	-0.29596063
184	0x3dda3b09	0.10655791
185	0x3ecbcfef	0.39807078
186	0xbe32177d	-0.17391773
187	0xbf1f527d	-0.6223524
188	0x3ce28061	0.027649106
189	0x3f5381c1	0.82619864
190	0x3f83a2e9	1.0284091
191	0xc00712a8	-2.1105137
192	0x3ee3d6de	0.44499868
193	0x3f9ab2db	1.2085832
194	0xbfd2abc1	-1.6458665
195	0x3f2ed8d0	0.6829958
196	0xbf58902d	-0.84594995
197	0xbf4f11d8	-0.808866
198	0x4030c386	2.7619338
199	0x3eb0e596	0.3455016
200	0x3fa603df	1.2969931
201	0xbf87ae04	-1.059998
202	0x3f3fcb6b	0.74919766
203	0xbf10ac55	-0.5651296
204	0xbf9956ab	-1.1979574
205	0xbfccaaf5	-1.5989672
206	0x3eb5ba58	0.35493731
207	0x3faa2800	1.3293457
208	0x4027cb97	2.6218011
209	0xbf9f68ce	-1.2453859
210	0xbf5afdc2	-0.85543454
211	0xc00ed529	-2.2317603
212	0xbd7d1e05	-0.061796207
213	0x3fa6b264	1.302319
214	0xbf534f54	-0.8254292
215	0xbe6b2475	-0.22963126
216	0x3f549680	0.83042145
217	0xbfa864c3	-1.315575
218	0xbe87fd8c	-0.26560628
219	0xbf315073	-0.6926338
220	0x3fb3ddb9	1.4052039
221	0x3f7515ca	0.9573637
222	0xbf4ce395	-0.8003476
223	0x3d5dfa91	0.054194037
224	0xc01f077f	-2.4848325
225	0x3d9ffc96	0.07811849
226	0xbe8047ae	-0.25054687
227	0xbfb48d8d	-1.4105698
228	0xbe09deb5	-0.13463862
229	0xbf11e79f	-0.5699405
230	0x3fb81e76	1.4384296
231	0xbf747800	-0.95495605
232	0xbeadb9bf	-0.33930776
233	0xbf52b3e6	-0.82305753
234	0xbf8dedf9	-1.1088248
235	0x3eead7ce	0.4586777
236	0xbf599c7c	-0.850044
237	0xbfe11fd2	-1.7587836
238	0xbf04f4e3	-0.5193617
239	0x3d92dd21	0.07171083
240	0xbe521f8e	-0.2051985
241	0xbf9adf3a	-1.2099373
242	0x3db28cb4	0.08718243
243	0x3f6c0fae	0.92211425
244	0x3f9e903d	1.2387768
245	0xc036840a	-2.851809
246	0xbfa2025f	-1.2656974
247	0x3ee76890	0.45196962
248	0x3e387d4e	0.1801655
249	0x3e16b83d	0.14718719
250	0xbfcd1eac	-1.6024985
251	0xbf3f1a48	-0.74649477
252	0x3f927ac7	1.1443719
253	0xbdfca75e	-0.1233661
254	0x3ef9843e	0.48733705
255	0xbfa74b80	-1.3069916
