hw4/tests/hw4_extra/data/test_transformer_layer-2-5-27-8-32-64-False-0.0-cpu().npy (npy, 1208 bytes, 1 tensors)

array f4 [2, 5, 27]
0	0xc03612d0	-2.8448982
1	0xbe873d86	-0.26414126
2	0x4063a53e	3.5569606
3	0x401f45e2	2.4886403
4	0x40892e1a	4.2868776
5	0xbfc0e5fa	-1.5070183
6	0xbf52b145	-0.8230174
7	0x3fef8003	1.8710941
8	0xbe57ad98	-0.21062315
9	0xc03ed89a	-2.9819703
10	0x3ee059e4	0.4381858
11	0x40ce2363	6.4418197
12	0xbe9803a8	-0.2969029
13	0xc06482c1	-3.5704806
14	0xc07b33ee	-3.9250445
15	0xbde6eb70	-0.11275375
16	0x402510c0	2.5791473
17	0x3f92bbd7	1.1463574
18	0x3fd5d6d5	1.6706187
19	0x401a85b0	2.4144096
20	0x400bd2d7	2.1847436
21	0x400d398e	2.2066379
22	0xbf894e8f	-1.0727099
23	0xc0188baa	-2.3835244
24	0x409e7318	4.9515495
25	0x406d1eb8	3.705
26	0xc08b9e62	-4.363084
27	0xc018b0dc	-2.3857946
28	0xbd8f9308	-0.07010466
29	0xbea2b578	-0.31779075
30	0x3fd2282f	1.6418513
31	0xbea3f94b	-0.32026133
32	0x406a93bd	3.6652672
33	0xbe913870	-0.2836337
34	0x3fa0eda0	1.2572517
35	0x406be6c2	3.6859593
36	0xbf8e10f7	-1.1098927
37	0x3f4ce982	0.80043805
38	0x406d9e50	3.7127876
39	0xc0405501	-3.0051882
40	0xc0930fb7	-4.5956683
41	0x400cb12c	2.1983137
42	0xbe84c204	-0.25929272
43	0xbf11ad25	-0.5690482
44	0x403e8017	2.976568
45	0x400c48d0	2.1919441
46	0x401a344c	2.409442
47	0x3f4e7ffc	0.8066404
48	0x3ee5a1ae	0.44849914
49	0xc00b9b0e	-2.1813388
50	0xbff8581d	-1.940189
51	0x40be0568	5.93816
52	0x403276d8	2.7885036
53	0x3fd7c17e	1.6855924
54	0xc02722e4	-2.6115046
55	0xbf14e6ae	-0.5816449
56	0xbff8da38	-1.9441595
57	0xbfdbf24e	-1.718332
58	0x40256e6b	2.5848644
59	0xc04b653e	-3.1780543
60	0xbfe34bda	-1.7757523
61	0x3e492000	0.19641113
62	0xbfdb33a1	-1.7125131
63	0xc02d025e	-2.7032695
64	0x3fc518be	1.5398176
65	0x40178f07	2.3681047
66	0xbded597e	-0.11589335
67	0xc0835f03	-4.105348
68	0xc051fb0c	-3.2809477
69	0xbfc5a493	-1.5440849
70	0x404a7ab1	3.1637385
71	0x3f971e77	1.1806172
72	0x3fe46661	1.7843744
73	0x4047310e	3.112369
74	0x3f577a10	0.8417063
75	0x3eedd64c	0.46452558
76	0xc022aa7e	-2.541656
77	0x3fb974e0	1.4488792
78	0x4030f285	2.7648022
79	0x40536c0e	3.3034701
80	0xbf7b6022	-0.9819356
81	0xbeaa18f4	-0.33222163
82	0x3f82c010	1.0214863
83	0x3ef59fde	0.4797353
84	0xbfe2c5b2	-1.7716582
85	0x3ee16f98	0.44030452
86	0x3fc8784a	1.5661709
87	0x3f081a08	0.5316472
88	0xbed4b921	-0.41547492
89	0xc0462150	-3.0957832
90	0xc027f66c	-2.6244154
91	0x3ef1b49a	0.472081
92	0x403cbb72	2.9489408
93	0xc0380d28	-2.875803
94	0xbfaf83b2	-1.3712065
95	0xbf018c89	-0.50605065
96	0x3d413700	0.047171593
97	0xbf931e08	-1.149354
98	0x3e5f100e	0.21783468
99	0x3fc536f2	1.5407393
100	0x403e6249	2.9747488
101	0x3ff4ec2a	1.9134572
102	0x403027ca	2.7524285
103	0xbf5e152a	-0.86751044
104	0xbc141e80	-0.009040475
105	0x40164456	2.347921
106	0x4013f5f7	2.3118875
107	0xc00ce44e	-2.2014346
108	0xc05a5e5c	-3.4120092
109	0x3f1921e8	0.5981736
110	0xbf7f48df	-0.9972057
111	0xbfc8446d	-1.5645882
112	0x40179d9e	2.3689952
113	0xc03f54ae	-2.9895434
114	0xbf19ca6c	-0.60074496
115	0x40008ad2	2.008473
116	0xbfce129f	-1.6099433
117	0xc028072e	-2.6254382
118	0xbed58d9e	-0.41709608
119	0x40268a8e	2.6022067
120	0x3f07f866	0.531134
121	0xc08b714c	-4.35758
122	0xc049ff07	-3.1561906
123	0xbfd48ee9	-1.6606113
124	0x3fb7b9fa	1.435363
125	0x40244b06	2.567079
126	0x3fe61b0a	1.7977002
127	0x400a3788	2.1596394
128	0x3f60227b	0.87552613
129	0x3fec8960	1.8479424
130	0xc0234950	-2.5513496
131	0xbf54fd17	-0.83198684
132	0x405ed950	3.4820137
133	0x40166cd3	2.350392
134	0xbf0acdd2	-0.54220307
135	0xbebeebd3	-0.37289295
136	0xc092feb5	-4.593592
137	0x3dbdfb80	0.092764854
138	0xc0043334	-2.0656252
139	0x3f91ec0a	1.1400158
140	0xc00deef3	-2.2177093
141	0xbe365980	-0.17807579
142	0x3fbefd3c	1.4921031
143	0xbe58b92a	-0.21164384
144	0x3fe9f0fb	1.8276666
145	0xbff0fba2	-1.8826792
146	0x40419d68	3.0252323
147	0xbe8b349a	-0.2718857
148	0xc004ee8b	-2.0770595
149	0xbf567dde	-0.8378581
150	0x3efb65bc	0.49101055
151	0xbff83dd3	-1.9393867
152	0xbe873bfe	-0.26412958
153	0x3fa7281a	1.3059113
154	0x40476c5a	3.1159883
155	0xbf633329	-0.8874994
156	0x402abc64	2.6677485
157	0xc0079af1	-2.1188319
158	0xc054a054	-3.3222857
159	0x3e864ebe	0.2623195
160	0x3fa0d416	1.2564723
161	0xbfca1478	-1.5787497
162	0x3e0b8cf0	0.13627982
163	0x3f73d7ce	0.95251167
164	0xbf939933	-1.1531128
165	0xbfbb95e4	-1.4655118
166	0x40bf72f2	5.9827814
167	0xbf19e94e	-0.6012162
168	0x3ff8ca5c	1.9436755
169	0x3fcd2492	1.6026785
170	0xbfd0e522	-1.6319926
171	0xbdac2500	-0.08405495
172	0x3efb57d4	0.49090445
173	0xbe290524	-0.16505867
174	0x401fdac7	2.497728
175	0xbfde00f6	-1.7344043
176	0xc0d28c8f	-6.579658
177	0x3fe956ef	1.8229655
178	0x3e9f96d0	0.31169748
179	0x40027a18	2.038702
180	0x40681d78	3.6267986
181	0x40017a6c	2.023097
182	0xbff3f598	-1.9059324
183	0x3f006c39	0.50165135
184	0x3dc22970	0.0948056
185	0xbe48e0e8	-0.19617045
186	0x4095be66	4.679492
187	0x3edaf964	0.42768395
188	0x3ecb95e6	0.397628
189	0xbf82c546	-1.0216453
190	0xc04c08e2	-3.1880422
191	0x40139d2f	2.3064687
192	0x3fc3192a	1.5242054
193	0x40b4fbbe	5.6557302
194	0xc055ae59	-3.3387663
195	0xbdc46d30	-0.09591138
196	0x40269a5d	2.6031716
197	0xbf73aa9b	-0.951822
198	0x3d87ab80	0.06624508
199	0xbfc23196	-1.5171382
200	0x4022315e	2.5342631
201	0x3f8d9fcc	1.1064391
202	0xbf957935	-1.1677614
203	0xbf334120	-0.7002125
204	0x402520b2	2.5801206
205	0x4002b467	2.042261
206	0x3f8c8a4e	1.0979707
207	0xbf4089e8	-0.7521043
208	0x400fe180	2.2481384
209	0xbe9b94c4	-0.30386937
210	0xbf757ffb	-0.9589841
211	0xbfeb4778	-1.8381186
212	0xc067dee6	-3.6229796
213	0x3f906b65	1.1282774
214	0xc01b6f2c	-2.4286604
215	0xbfd4c2ef	-1.6621989
216	0xbdd01a00	-0.10161209
217	0xbd907da0	-0.07055211
218	0xbfd18b00	-1.6370544
219	0xc02b30be	-2.67485
220	0x3ff03254	1.8765359
221	0x40085922	2.1304402
222	0xbf0b4eda	-0.5441719
223	0x3fd134ff	1.6344298
224	0xc037ab60	-2.869835
225	0x3e4361d0	0.19080281
226	0xc0137ed6	-2.3046165
227	0x402b28f8	2.6743755
228	0x401e86c4	2.4769754
229	0x3f62762f	0.88461584
230	0xbeef79c0	-0.46772575
231	0x3fd7a44b	1.6847013
232	0xc032968d	-2.790439
233	0xc02f4e54	-2.7391558
234	0x4073a32c	3.8068342
235	0x40356ca3	2.8347557
236	0xbf9464f0	-1.1593304
237	0x40347cdb	2.8201206
238	0x3f269194	0.65065885
239	0xc005d747	-2.0912645
240	0x3f9b4853	1.2131447
241	0x3fe82e63	1.8139156
242	0xbeeda4e8	-0.46414876
243	0xbdab7f90	-0.0837394
244	0xbf5e7df0	-0.86910915
245	0x3eca551b	0.39518055
246	0xbfa1bf9a	-1.2636597
247	0x3f432d1e	0.7624072
248	0xbf569600	-0.8382263
249	0xbf901bb8	-1.1258459
250	0x3f2eef06	0.6833347
251	0xc002398f	-2.034763
252	0x3eec69d8	0.46174502
253	0xbef5711c	-0.47937858
254	0x40b377f8	5.6083946
255	0x3f9a812c	1.207067
