hw4/tests/hw4_extra/data/test_transformer_model-8-5-27-64-2-8-32-False-0.0-cuda().npy (npy, 4448 bytes, 1 tensors)

array f4 [8, 5, 27]
-0.5594903 -2.1942677 6.1424117 -0.8303158 1.940685 0.35699317 -2.981542 -1.3268124
-0.6616501 3.1355767 4.7206063 -2.6541762 -0.12310994 1.5184206 -1.9760658 1.0715749
5.296967 -4.0993233 0.057756305 0.07806826 2.3679957 -1.8750573 -7.4871287 -1.8700143
2.4950914 -5.096349 0.9564464 -2.8031664 -3.013344 3.7586455 -0.2539673 1.4849117
-0.84698904 -0.47070602 -6.1737394 -6.6100273 -5.330642 4.748492 -1.2981226 3.1077213
2.4538302 -0.98898864 1.8962904 3.004854 -6.9659014 3.2196193 0.51536953 -0.47438097
2.743341 -6.095013 -1.8568772 3.0830855 -8.015076 -0.10121393 -1.896645 0.21513534
1.1025085 0.6352043 1.3450594 1.8607221 -4.766799 -3.2228212 3.1173954 3.6638129
0.34765744 -0.7412993 -0.36294436 3.6547842 2.8011565 -1.1086032 3.5762482 -4.925599
-5.4927664 7.0901613 -1.9384261 0.9180029 -3.4954169 0.3733694 3.2876217 -3.4815764
4.17383 1.0351194 0.19257534 -3.5343895 -0.82171464 -3.974053 3.9997222 -2.619994
-4.118322 -5.3910103 -0.0436337 3.5109205 -3.0025666 -1.2648675 3.390403 0.34316266
1.2956117 0.14037085 0.17032278 -2.2313306 1.0171112 -1.5600836 0.37397742 -5.269104
2.5491595 2.372664 -10.830127 0.71915746 -3.0656722 -3.365367 -1.0219815 -3.8383062
5.272898 2.8549538 -1.5337744 -3.1148248 -2.4045749 -5.4018826 3.532371 -2.6233811
0.7764169 5.05003 0.33534193 2.2899635 3.117885 -5.250248 -0.9233353 4.4660816
-2.7557735 -1.4991411 -4.74245 1.9416357 3.5197115 -4.5381727 -0.5323868 2.7241504
2.422292 -0.27526486 -2.0312362 1.623806 4.1991563 -4.44357 -0.6407205 -2.2037203
0.16190568 7.07561 -0.21043676 0.035923958 3.4550118 -2.6916327 -3.510376 3.26837
-2.5858018 -5.927771 -0.6762159 0.4541173 -0.94460595 -2.7701082 -2.4485722 0.33454362
-3.6922412 -3.824685 -2.8278208 3.0077739 2.4577107 -2.6836767 7.4577923 -1.525144
-1.7214634 -2.8595383 -4.0978813 -2.7864776 5.7064 0.33160168 0.6097199 3.2875464
-0.5805955 0.15783557 0.25860167 -11.29314 -0.21050775 0.7006593 -0.0124976635 -1.9454203
-8.004362 -0.6137973 5.9581337 -0.0076937675 3.9761975 -5.6843324 1.4656796 2.681995
1.5814093 2.6389046 -5.1332936 -0.20591414 -6.647747 -2.9343472 1.7446163 1.7106487
-0.06348574 -1.6634262 0.21790057 4.4264975 -1.7736069 -4.557856 -5.177767 -2.2466757
5.9053516 -4.6710534 -1.0132854 -4.774868 1.8471954 2.2332125 1.2750782 5.041402
3.7466407 2.932126 -1.5254483 -2.377163 2.6162782 3.6239765 -3.566064 -2.0259733
-1.3083351 -0.42988002 6.007928 -0.032150507 2.486421 7.2409263 -2.2779539 -2.9141169
-0.48548865 -0.08769934 -1.4270955 -0.053421855 4.70307 1.2666187 0.41780227 1.0906863
1.4402385 -10.971142 -1.6491313 4.1962514 -1.8948861 0.24718213 -4.03317 6.2074428
1.8667486 -4.0385947 0.6256245 -0.17362332 -0.7348658 2.2572966 2.7205915 -0.81349796
00000000: c23a 0fbf e26e 0cc0 a38e c440 948f 54bf
00000010: 5e68 f83f cfc7 b63e 96d1 3ec0 fdd4 a9bf
00000020: e761 29bf 4aad 4840 350f 9740 06de 29c0
00000030: 1021 fcbd 9b5b c23f b9ef fcbf 5e29 893f
00000040: c180 a940 a82d 83c0 e091 6c3d 40e2 9f3d
00000050: 3e8d 1740 e101 f0bf 8f96 efc0 a15c efbf
00000060: 94af 1f40 4a15 a3c0 acd9 743f 1467 33c0
00000070: a1da 40c0 a68d 7040 0008 82be 9611 be3f
00000080: 46d4 58bf 6100 f1be 468f c5c0 5885 d3c0
00000090: 9f94 aac0 a5f3 9740 e228 a6bf e8e4 4640
000000a0: 8e0b 1d40 5c2e 7dbf a5b9 f23f 874f 4040
000000b0: aae8 dec0 3e0e 4e40 42ef 033f 10e2 f2be
000000c0: e692 2f40 590a c3c0 27ae edbf 4651 4540
000000d0: c03d 00c1 4049 cfbd 43c5 f2bf 704c 5c3e
000000e0: 001f 8d3f c09c 223f e82a ac3f 242c ee3f
000000f0: 9e89 98c0 b442 4ec0 6883 4740 e97b 6a40
00000100: 2800 b23e cac5 3dbf d8d3 b9be fce7 6940
00000110: 2646 3340 b6e6 8dbf 40e1 6440 829e 9dc0
00000120: bec4 afc0 9ae2 e240 591e f8bf 3d02 6b3f
00000130: e9b4 5fc0 462a bf3e 6568 5240 26d2 5ec0
00000140: 0490 8540 cb7e 843f 7832 453e 7033 62c0
00000150: e45b 52bf e256 7ec0 73fb 7f40 fbad 27c0
00000160: 4bc9 83c0 2883 acc0 40b9 32bd ecb2 6040
00000170: 0d2a 40c0 2ee7 a1bf 5dfc 5840 04b3 af3e
00000180: 9bd6 a53f 60bd 0f3e 1869 2e3e 1fce 0ec0
00000190: b330 823f d2b0 c7bf f879 bf3e 809c a8c0
000001a0: 6e25 2340 bad9 1740 3348 2dc1 b41a 383f
000001b0: f933 44c0 2c62 57c0 4ad0 82bf cfa6 75c0
000001c0: 95bb a840 90b7 3640 b852 c4bf 4a59 47c0
000001d0: 8ee4 19c0 39dc acc0 5e12 6240 7ae5 27c0
000001e0: 42c3 463f d999 a140 f0b1 ab3e c38e 1240
000001f0: 6e8b 4740 0802 a8c0 b45f 6cbf 24ea 8e40
00000200: 985e 30c0 dbe3 bfbf 27c2 97c0 8587 f83f
00000210: f442 6140 b638 91c0 804a 08bf 7b58 2e40
00000220: d506 1b40 84ef 8cbe c6ff 01c0 e0d8 cf3f
00000230: 7d5f 8640 ba31 8ec0 4206 24bf c109 0dc0
00000240: 9aca 253e 666b e240 bc7c 57be 0025 133d
00000250: ea1e 5d40 b643 2cc0 00aa 60c0 f92c 5140
00000260: c77d 25c0 4db0 bdc0 7c1c 2dbf 1082 e83e
00000270: b2d1 71bf 7449 31c0 68b5 1cc0 4d49 ab3e
00000280: ae4d 6cc0 a4c7 74c0 04fb 34c0 5e7f 4040
00000290: 224b 1d40 5cc1 2bc0 3ca6 ee40 eb37 c3bf
000002a0: ea58 dcbf ad02 37c0 d821 83c0 a655 32c0
000002b0: d49a b640 b2c7 a93e 9a16 1c3f 2967 5240
000002c0: e8a1 14bf a69f 213e 7067 843e b4b0 34c1
000002d0: 588f 57be 685e 333f 00c3 4cbc 8803 f9bf
000002e0: de11 00c1 d221 1dbf 08a9 be40 001c fcbb
000002f0: 057a 7e40 0de6 b5c0 649b bb3f cea5 2b40
00000300: 9f6b ca3f d0e3 2840 f143 a4c0 28db 52be
00000310: 58ba d4c0 58cc 3bc0 964f df3f 89f6 da3f
00000320: d004 82bd 26eb d4bf 5421 5f3e dea5 8d40
00000330: 8d05 e3bf f5d9 91c0 44b0 a5c0 89c9 0fc0
00000340: a4f8 bc40 4579 95c0 56b3 81bf b8cb 98c0
00000350: e670 ec3f f4ec 0e40 c335 a33f 2a53 a140
00000360: f6c8 6f40 f4a7 3b40 e441 c3bf 7023 18c0
00000370: 1a71 2740 3bef 6740 643a 64c0 8ca9 01c0
00000380: 8677 a7bf 3c19 dcbe f240 c040 40b0 03bd
00000390: 8621 1f40 abb5 e740 ffc9 11c0 e480 3ac0
000003a0: f891 f8be b69b b3bd 11ab b6bf e0d0 5abd
000003b0: 8d7f 9640 9020 a23f 2eea d53e 9c9b 8b3f
000003c0: bc59 b83f cc89 2fc1 bc16 d3bf b147 8640
000003d0: a18b f2bf 501d 7d3e bb0f 81c0 5fa3 c640
000003e0: 9ef1 ee3f 2b3c 81c0 ed28 203f 50ca 31be
000003f0: 2a20 3cbf 8c77 1040 2c1e 2e40 6741 50bf
