hw4/tests/hw4_extra/data/test_transformer_model-8-11-27-64-2-8-32-False-0.1-cuda().npy (npy, 9632 bytes, 1 tensors)

array f4 [8, 11, 27]
00000000: cc72 303f 85fe 88c0 daa6 0141 a359 ab40
00000010: 206b a8c0 da44 2a40 9044 9d3e f75a 0b40
00000020: 4f5f 1840 2807 ad3e d11d e03f 96c5 da3f
00000030: 7515 d3c0 0990 ee3f a653 0dc0 e874 2fc0
00000040: 00a6 10bb 0e1a 3b3f 8021 9cc0 e6ef ce40
00000050: 02e3 0640 9289 95be decc 72be a0e6 dc3f
00000060: 02e2 6b40 c546 bd40 d512 d5c0 c356 b63e
00000070: 3eef 0dc0 437b ad40 1bd9 253f 937b 4c40
00000080: 3f3a 9e40 c202 72c0 acab 5440 546a 2040
00000090: 7c16 dabd 2bbd 8c40 dea3 2440 8eb4 7940
000000a0: 01cf f33f 01af dd40 9e3e a040 4216 3fc0
000000b0: d267 2940 04bb 803f c497 5f40 814c 72bf
000000c0: 808d ccbc 6aba 4e40 0fca cb3f d41c 3540
000000d0: 9b29 0840 02d5 16bf 4420 4240 f495 0fc0
000000e0: 03e5 0640 e0df 2cbf 7fd2 c63f c422 f03f
000000f0: 9cc1 b4bf 6477 693f a27b 2840 8d36 93bf
00000100: eaa0 50bf 2ff9 9dbf b6cb f3be 80d2 9fc0
00000110: d50f c440 4bbc 97bf 291d 33bf 72a8 d240
00000120: da4f 9ec0 ce7e f540 b9b7 d33f 7d96 b440
00000130: 4204 c1bf ce3b 4640 50e9 a63d cba4 a540
00000140: 46e4 d8c0 977c 8dbf 5dab d2c0 009b 1340
00000150: dc4e 5340 09fb acc0 d98e a240 c4ad 92c0
00000160: f416 8c3f 9d3d 4ac0 fcb7 513f 5601 46c0
00000170: 7061 e23d 5443 eb3e 589a 503f 0827 39bf
00000180: 43a4 2a40 0fb4 09c0 f463 2fc0 aac7 edbf
00000190: 635d e3bf 40ef eb3e ee8b 55bf 5f8b 2a40
000001a0: 5f6c 4d40 61e5 e440 c059 d63f 7b47 07c0
000001b0: d63a 31c0 f057 94bf fe32 0d40 5b39 22c0
000001c0: 08d5 ed3e 7971 87c0 e880 ae3f cced 103f
000001d0: 468c b3c0 4c04 e0be 8f84 21c0 1182 c63f
000001e0: 64a0 83c0 0e9b b03f 92f4 50c0 9a8d 08c0
000001f0: 84ca 42bf 306d fd3e b08b d2be 8024 353d
00000200: 9601 9dc0 5fa2 ea3f 60e8 1cc0 de70 88c0
00000210: e994 0940 b212 3240 18a6 b3c0 9585 d7c0
00000220: 2c73 4dc0 1eba 3040 cee7 d93e 5c5d f53f
00000230: c8b7 1a3e d88c 393f a55e 0940 e8ab 6ebf
00000240: 62c3 ce40 04c7 1cbf cb8c 2540 9f34 36c1
00000250: 2008 91bc 9c31 27c0 b866 27bf 958e 9ac0
00000260: bf58 a73f 586d e3c0 d773 ce3f 9ed6 04c0
00000270: 3eac 07bf b8e3 f7c0 766c 36c0 706e 1741
00000280: 7a31 a13f d604 2fc1 aa21 21c0 1a16 423f
00000290: 96b5 0840 12c5 2f40 b45c b4bf cb4c a540
000002a0: 18b8 4ac0 26aa 053e 7db3 45c0 0036 bbbf
000002b0: 626f e8bf e9de 35c0 fdd2 7ac0 e2d2 4d40
000002c0: 0067 0d3e 9d9c 1ac0 506d 64bd d456 84be
000002d0: bc46 abc0 e012 8040 913e e3bf c44c 253f
000002e0: 7427 5040 dc74 3e40 7645 bc3f 3ee1 2e40
000002f0: fc81 73c0 e6ce d6bf 6c54 0d3f 4214 a540
00000300: 4200 1440 d164 3340 ebe4 3340 5ecd 913f
00000310: 92b0 c03f a09f 1e3f be05 2640 3440 4340
00000320: 50b9 5c40 098c a3bf 3b5b fd3e 26fe 5340
00000330: a945 d040 3a02 41c0 65cf 0240 5979 90c0
00000340: 97ac 0fc0 bffb e8bf f4c7 9c3f c4ea b4c0
00000350: 1648 0ec0 0f31 a63e bcc4 823f 7899 60c0
00000360: 1d14 50c0 728d cec0 141f a33f 7e02 f73f
00000370: 9ee6 d5be 8c26 1a40 7c58 32bf ea90 463f
00000380: 8afc a140 0ac3 0440 e866 1c41 76e2 c240
00000390: 40a1 6fbd b1ac 9a40 56ac 9a3f 590c 20c0
000003a0: ae00 b9c0 d0b8 dabf 02e9 48bf 8d37 9dbf
000003b0: ec5b 6c3f 880a f83f e0b5 81bd 2c03 0d40
000003c0: 0e63 0a41 9a79 943e 2df4 c1bf aac1 22bf
000003d0: 9023 9fbe 7a6c ba40 0078 c6ba 02c9 b2bf
000003e0: 9ebe 9240 90ae e13e eeb3 45c0 17ce 1e40
000003f0: 702f 8abf 9046 353f 1cc9 a33e 50ea 03c0
0.68925166 -4.2810693 8.103235 5.354692 -5.263077 2.6604524 0.30716372 2.177427
2.3808172 0.33794522 1.7509099 1.7091548 -6.5963693 1.8637706 -2.2082305 -2.7415104
-0.00220716 0.7308663 -4.8790894 6.4667845 2.1076055 -0.2920652 -0.23710963 1.7257881
3.6856694 5.914889 -6.658549 0.3561307 -2.2177272 5.4212966 0.647844 3.1950424
4.94461 -3.7814183 3.322978 2.5064898 -0.1064882 4.398092 2.5725017 3.9016452
1.9047548 6.927613 5.0076437 -2.9857335 2.6469617 1.0057073 3.493638 -0.94647986
-0.024969816 3.2301278 1.5921038 2.8298845 2.1275394 -0.58918774 3.0332193 -2.2435274
2.1077278 -0.67529106 1.5532988 1.876061 -1.4121585 0.911978 2.632546 -1.1501023
-0.81495535 -1.234167 -0.47616357 -4.994446 6.1269326 -1.1854337 -0.6996637 6.583062
-4.9472475 7.671729 1.6540443 5.64337 -1.5079424 3.0974002 0.081499696 5.1763663
-6.7778654 -1.1053647 -6.5834184 2.3063354 3.3016882 -5.405644 5.0799375 -4.5837116
1.0944505 -3.1600106 0.8192136 -3.0938315 0.11053741 0.45949805 0.8148551 -0.7232518
2.6662757 -2.151615 -2.7404757 -1.8576558 -1.7762874 0.4608097 -0.8341664 2.6647565
3.2097394 7.1530004 1.674614 -2.1137378 -2.769216 -1.1589336 2.2062373 -2.5347507
0.46451592 -4.2326016 1.3633089 0.5661285 -5.610873 -0.43753278 -2.5237157 1.5508443
-4.113329 1.3797319 -3.2649274 -2.1336427 -0.76090264 0.49497366 -0.41122198 0.044224262
-4.9064436 1.8330802 -2.451683 -4.2637777 2.1497138 2.782391 -5.614025 -6.7350564
-3.2101545 2.7613597 0.42559665 1.9169116 0.1510917 0.72480536 2.1464016 -0.9323106
6.4613504 -0.61241174 2.5867183 -11.387847 -0.01770407 -2.612403 -0.6539111 -4.829905
1.3073958 -7.1070976 1.6129102 -2.0755992 -0.52997196 -7.7465477 -2.85037 9.464462
1.2593224 -10.938681 -2.5176797 0.75814974 2.1360831 2.7464032 -1.4090791 5.165624
-3.1674862 0.13053188 -3.08908 -1.4625854 -1.8158991 -2.8417304 -3.9191277 3.2159963
0.13808823 -2.415809 -0.05576831 -0.25847495 -5.3523846 4.002304 -1.7753469 0.6457026
3.252408 2.9758825 1.4708698 2.7324977 -3.8048086 -1.678189 0.5520694 5.158723
2.3125157 2.8030283 2.810847 1.1390798 1.5053885 0.6196232 2.5941005 3.0507936
3.4488106 -1.277711 0.49483666 3.312387 6.5085034 -3.015761 2.0439084 -4.514813
-2.244909 -1.8201827 1.2248521 -5.653658 -2.2231498 0.32459304 1.0216289 -3.509367
-3.2512276 -6.4547663 1.2743859 1.9297636 -0.4177751 2.4086027 -0.69666266 0.7756487
5.0620775 2.0744042 9.775124 6.090144 -0.05850339 4.8335805 1.2083843 -2.5007536
-5.781333 -1.708765 -0.7848054 -1.2282578 0.9232776 1.9378214 -0.06333518 2.2033186
8.649183 0.28999025 -1.5152642 -0.6357676 -0.3108182 5.825742 -0.0015141964 -1.3967593
4.5857687 0.44078493 -3.089107 2.4813287 -1.0795727 0.70810795 0.31989372 -2.0611763
