hw4/tests/hw4_extra/data/test_transformer_model-8-11-27-64-2-8-32-False-0.1-cpu().npy (npy, 9632 bytes, 1 tensors)

array f4 [8, 11, 27]
000000 de 72 30 3f 88 fe 88 c0 d8 a6 01 41 9f 59 ab 40
       0.68925273 -4.2810707 8.103233 5.35469
000010 1f 6b a8 c0 d7 44 2a 40 88 44 9d 3e f4 5a 0b 40
       -5.2630763 2.6604517 0.30716348 2.1774263
000020 52 5f 18 40 5f 07 ad 3e d1 1d e0 3f a2 c5 da 3f
       2.380818 0.33794686 1.7509099 1.7091563
000030 75 15 d3 c0 00 90 ee 3f a0 53 0d c0 e8 74 2f c0
       -6.5963693 1.8637695 -2.208229 -2.7415104
000040 00 b0 10 bb 1c 1a 3b 3f 7e 21 9c c0 e0 ef ce 40
       -0.002207756 0.73086715 -4.8790884 6.4667816
000050 02 e3 06 40 e0 89 95 be 06 cd 72 be ba e6 dc 3f
       2.1076055 -0.29206753 -0.23711023 1.7257912
000060 04 e2 6b 40 c8 46 bd 40 d8 12 d5 c0 aa 56 b6 3e
       3.68567 5.9148903 -6.6585503 0.35612994
000070 3e ef 0d c0 44 7b ad 40 23 d9 25 3f 9d 7b 4c 40
       -2.2177272 5.421297 0.6478445 3.1950448
000080 41 3a 9e 40 b6 02 72 c0 af ab 54 40 54 6a 20 40
       4.944611 -3.7814155 3.3229787 2.5064898
000090 08 17 da bd 2a bd 8c 40 dc a3 24 40 85 b4 79 40
       -0.10648924 4.3980913 2.5725012 3.901643
0000a0 fa ce f3 3f 02 af dd 40 9c 3e a0 40 45 16 3f c0
       1.9047539 6.9276133 5.0076427 -2.9857342
0000b0 d1 67 29 40 03 bb 80 3f c7 97 5f 40 98 4c 72 bf
       2.6469615 1.0057071 3.4936388 -0.9464812
0000c0 60 8f cc bc 6a ba 4e 40 0a ca cb 3f d9 1c 35 40
       -0.02497071 3.2301278 1.5921032 2.8298857
0000d0 a0 29 08 40 00 d5 16 bf 3c 20 42 40 f7 95 0f c0
       2.1275406 -0.5891876 3.0332174 -2.2435281
0000e0 fb e4 06 40 d8 df 2c bf 77 d2 c6 3f bf 22 f0 3f
       2.1077259 -0.6752906 1.5532979 1.8760604
0000f0 9c c1 b4 bf 56 77 69 3f 9e 7b 28 40 91 36 93 bf
       -1.4121585 0.9119772 2.632545 -1.1501027
000100 ea a0 50 bf 32 f9 9d bf 96 cb f3 be 7f d2 9f c0
       -0.81495535 -1.2341673 -0.4761626 -4.9944453
000110 d5 0f c4 40 54 bc 97 bf 0f 1d 33 bf 71 a8 d2 40
       6.1269326 -1.1854348 -0.69966215 6.5830617
000120 db 4f 9e c0 cb 7e f5 40 b0 b7 d3 3f 7c 96 b4 40
       -4.947248 7.6717277 1.6540432 5.6433697
000130 49 04 c1 bf da 3b 46 40 80 e9 a6 3d ce a4 a5 40
       -1.5079433 3.097403 0.08150005 5.1763678
000140 44 e4 d8 c0 8a 7c 8d bf 63 ab d2 c0 fe 9a 13 40
       -6.7778645 -1.1053631 -6.583421 2.306335
000150 dc 4e 53 40 0d fb ac c0 dc 8e a2 40 c2 ad 92 c0
       3.3016882 -5.405646 5.079939 -4.5837107
000160 e8 16 8c 3f a4 3d 4a c0 10 b8 51 3f 55 01 46 c0
       1.094449 -3.1600122 0.8192148 -3.0938313
000170 f0 61 e2 3d 78 43 eb 3e 60 9a 50 3f f5 26 39 bf
       0.11053836 0.45949912 0.8148556 -0.7232507
000180 42 a4 2a 40 0e b4 09 c0 ea 63 2f c0 ae c7 ed bf
       2.6662755 -2.1516147 -2.7404733 -1.8576562
000190 51 5d e3 bf 8c ef eb 3e 1c 8c 55 bf 63 8b 2a 40
       -1.7762853 0.46081197 -0.83416915 2.6647575
0001a0 5f 6c 4d 40 66 e5 e4 40 d1 59 d6 3f 7d 47 07 c0
       3.2097394 7.1530027 1.674616 -2.1137383
0001b0 cc 3a 31 c0 ec 57 94 bf 05 33 0d 40 55 39 22 c0
       -2.7692137 -1.1589332 2.206239 -2.5347493
0001c0 0c d5 ed 3e 78 71 87 c0 e2 80 ae 3f d0 ed 10 3f
       0.46451604 -4.232601 1.3633082 0.56612873
0001d0 44 8c b3 c0 98 04 e0 be 95 84 21 c0 00 82 c6 3f
       -5.6108723 -0.43753505 -2.5237172 1.5508423
0001e0 63 a0 83 c0 10 9b b0 3f 94 f4 50 c0 9d 8d 08 c0
       -4.1133285 1.3797321 -3.2649279 -2.1336434
0001f0 70 ca 42 bf 44 6d fd 3e b0 8b d2 be a0 23 35 3d
       -0.76090145 0.49497426 -0.41122198 0.044223428
000200 9b 01 9d c0 65 a2 ea 3f 64 e8 1c c0 dc 70 88 c0
       -4.906446 1.8330809 -2.451684 -4.263777
000210 e2 94 09 40 b2 12 32 40 19 a6 b3 c0 92 85 d7 c0
       2.149712 2.782391 -5.6140256 -6.735055
000220 22 73 4d c0 22 ba 30 40 f8 e7 d9 3e 61 5d f5 3f
       -3.2101521 2.7613606 0.4255979 1.9169122
000230 d0 b7 1a 3e e0 8c 39 3f 9c 5e 09 40 fa ab 6e bf
       0.15109181 0.72480583 2.1463995 -0.93231165
000240 65 c3 ce 40 fc c6 1c bf ca 8c 25 40 9e 34 36 c1
       6.461352 -0.61241126 2.586718 -11.387846
000250 80 0b 91 bc 98 31 27 c0 a8 66 27 bf 93 8e 9a c0
       -0.017705679 -2.612402 -0.65391016 -4.829904
000260 c8 58 a7 3f 56 6d e3 c0 ce 73 ce 3f 97 d6 04 c0
       1.3073969 -7.1070967 1.6129091 -2.0755975
000270 62 ac 07 bf b8 e3 f7 c0 74 6c 36 c0 6d 6e 17 41
       -0.5299741 -7.7465477 -2.8503695 9.464459
000280 78 31 a1 3f d8 04 2f c1 b5 21 21 c0 28 16 42 3f
       1.2593222 -10.938683 -2.5176823 0.7581506
000290 a6 b5 08 40 10 c5 2f 40 a6 5c b4 bf c9 4c a5 40
       2.136087 2.7464027 -1.4090774 5.165623
0002a0 12 b8 4a c0 3c aa 05 3e 76 b3 45 c0 fe 35 bb bf
       -3.1674848 0.1305322 -3.0890784 -1.4625852
0002b0 60 6f e8 bf e0 de 35 c0 0a d3 7a c0 de d2 4d 40
       -1.8158989 -2.8417282 -3.9191308 3.2159953
0002c0 20 67 0d 3e 9e 9c 1a c0 10 6d 64 bd b8 56 84 be
       0.1380887 -2.4158092 -0.055768073 -0.2584741
0002d0 bc 46 ab c0 e3 12 80 40 89 3e e3 bf be 4c 25 3f
       -5.3523846 4.0023055 -1.7753459 0.64570224
0002e0 75 27 50 40 de 74 3e 40 86 45 bc 3f 3d e1 2e 40
       3.2524083 2.975883 1.4708717 2.7324975
0002f0 fc 81 73 c0 e5 ce d6 bf 58 54 0d 3f 42 14 a5 40
       -3.8048086 -1.6781889 0.55206823 5.158723
000300 3c 00 14 40 cf 64 33 40 e6 e4 33 40 5a cd 91 3f
       2.3125143 2.8030279 2.8108459 1.1390793
000310 74 b0 c0 3f b4 9f 1e 3f bc 05 26 40 35 40 43 40
       1.5053849 0.6196244 2.5941 3.050794
000320 50 b9 5c 40 0e 8c a3 bf 5d 5b fd 3e 25 fe 53 40
       3.4488106 -1.2777116 0.49483767 3.3123868
000330 a9 45 d0 40 2c 02 41 c0 66 cf 02 40 5a 79 90 c0
       6.5085034 -3.0157576 2.0439086 -4.5148134
000340 96 ac 0f c0 d0 fb e8 bf 05 c8 9c 3f c6 ea b4 c0
       -2.2449088 -1.8201847 1.2248541 -5.653659
000350 12 48 0e c0 fc 30 a6 3e c3 c4 82 3f 7d 99 60 c0
       -2.2231488 0.32459247 1.0216297 -3.5093682
000360 19 14 50 c0 72 8d ce c0 1d 1f a3 3f 7c 02 f7 3f
       -3.2512267 -6.4547663 1.274387 1.9297633
000370 c4 e6 d5 be 94 26 1a 40 70 58 32 bf e0 90 46 3f
       -0.41777623 2.4086046 -0.69666195 0.7756481
000380 8a fc a1 40 0c c3 04 40 eb 66 1c 41 77 e2 c2 40
       5.0620775 2.0744047 9.775126 6.0901446
000390 20 a0 6f bd b0 ac 9a 40 5a ac 9a 3f 59 0c 20 c0
       -0.058502316 4.83358 1.2083848 -2.5007536
0003a0 ae 00 b9 c0 ca b8 da bf 10 e9 48 bf 93 37 9d bf
       -5.781333 -1.7087643 -0.78480625 -1.2282585
0003b0 12 5c 6c 3f 86 0a f8 3f c0 b5 81 bd 2e 03 0d 40
       0.9232799 1.9378211 -0.06333494 2.203319
0003c0 11 63 0a 41 90 79 94 3e 39 f4 c1 bf a4 c1 22 bf
       8.649186 0.28998995 -1.5152656 -0.6357672
0003d0 bc 23 9f be 79 6c ba 40 00 bc c6 ba 05 c9 b2 bf
       -0.3108195 5.8257413 -0.001516223 -1.3967596
0003e0 a1 be 92 40 b8 ae e1 3e e9 b3 45 c0 20 ce 1e 40
       4.58577 0.44078612 -3.0891058 2.4813309
0003f0 72 2f 8a bf 7e 46 35 3f 2c c9 a3 3e 50 ea 03 c0
       -1.0795729 0.7081069 0.3198942 -2.0611763
