hw4/tests/hw4_extra/data/test_attention_layer-4-5-27-8-32-False-0.1-cpu().npy (npy, 2288 bytes, 1 tensors)

array f4 [4, 5, 27]
00000000: 1bd1 3b40 502a e63e 7671 2d40 3f6a f9bd
00000010: 74ea 11c0 625e a93f 480f 17be 21c2 68be
00000020: a8ee 6340 7ead c73e a737 1540 56a6 21c0
00000030: ef04 21bf 9a4c 56bf edf6 42c0 05d8 bbbf
00000040: 7896 2cbe b5d6 a23d 3098 acbf 3647 1240
00000050: 0181 00bf dacf 6140 a60e c03f 3203 85bf
00000060: 98ce 2640 4986 d83e e5f1 d03e 7984 9240
00000070: 5cb7 683d 50d9 0440 9e82 2540 669d 73bf
00000080: 9c80 0840 d988 1dbd 889e d83f b13d ef3f
00000090: 4070 aa3f baab 5d40 68ed 5fbf 1e27 8b3f
000000a0: 435f 01c0 e64e 2bc0 5c1a 8b3c 4e24 e1bf
000000b0: a594 7abf 74ac bfbf 3b81 b83f 4e0f e5be
000000c0: fecd 5b40 992c 103e a03c 20bf 0a43 6840
000000d0: 17ec 96bf 3691 1540 2e8a c8be 1c77 6bbd
000000e0: b034 f93f 7b19 c03e 2e36 b03f 8dec 583e
000000f0: 0ad2 0bbf d2e7 02bf 5ca5 c3be b988 d93f
00000100: 3e17 f53e 39fd b7bf e104 5fbe dd17 32be
00000110: 2bbd 01bf 44a8 82bf ff19 2d3e ba6c af3e
00000120: 98fb bfbf 6652 3bbd 58d0 c53f 78e2 263f
00000130: 1690 0740 5065 7dbe af0e 633f dcfb b53f
00000140: 1c1f c7bf 9a99 b53e c3c3 b9be 68d1 4b40
00000150: b536 76be 2a84 0d40 edbe dfbf 6157 69bd
00000160: 8678 ecbf b63b 03bf dfe1 2840 2cba 893f
00000170: 7196 463e dc53 04bf cf29 f9be c7e3 99bf
00000180: 54df dcbf 50c8 1dbf af17 073f de51 e0bf
00000190: 2757 c4bf f3a3 4040 77ca 123f a5f1 2140
000001a0: 9de6 883f 8ceb 653e c34a 9d3f 1e8c a8bc
000001b0: 12a1 333d 59a2 b63c e8cb 333f c18c 0440
000001c0: 559f 2dbf 9ceb 913f 85c2 3abf 5fbf 59bf
000001d0: 23f1 a83f 64e0 8c3f 85ca 73bf 21d6 533e
000001e0: 97aa 6140 7fad 02bf a3f1 56bf a9dd debe
000001f0: 3b91 1ebe 256d 363f b479 8d3e 43ba a63f
00000200: f032 903f bdcf d33f c182 883e 2273 9fbc
00000210: c5ba 893e 3dc1 2940 bb5f ffbe d34e 4140
00000220: be10 f73f 3c66 1b40 f511 3cbf a58e 04c0
00000230: c95d d93e 83e8 56c0 1d10 68bf 84e3 acbf
00000240: 5c54 56bf 2505 dc3f d717 86bf cc33 07bf
00000250: 7412 1abf 9d52 e0bf 98b2 2cc0 677d ccbf
00000260: 316c c33f 392d 9a3f 7567 193e a754 7abe
00000270: a919 de3e 510d 5a40 cbb1 a73e 38b8 94be
00000280: 1910 0abf 3812 13bf 2e96 4940 821d 1440
00000290: 8281 9dbe 8cdd 0940 5209 7c3f 3d55 d9bd
000002a0: 0e3f 623f 21f3 babf 5709 b6bf c538 503f
000002b0: 85b5 3540 7dba e0bf 59f8 783f 1062 14c0
000002c0: 0507 31bf 78e5 08bf d9a4 11c0 a031 14c0
000002d0: 0d08 0140 087c 913f e631 60bf 1b4e 7cbe
000002e0: 8685 0a40 2d57 2a3f 6fe6 b03d 8e4d 12bf
000002f0: def8 003f deb1 aabf cfa9 3740 f697 be3e
00000300: e5b6 603d 569b 743e 2d38 e1bf 5ada 91bf
00000310: bd8d a7be 845d acbf 93a9 b83d de62 b6bf
00000320: 0d4c 9c3f 9a2e 80bd 2192 803e e23b 1cbf
00000330: 9bcf 04be 8a8f 4fbf 7a62 debf 7ad4 ab3f
00000340: a4fd 273e 4062 fa3d f04a 173f 8ffe 5840
00000350: 1968 943e 9cc8 e0bd 3546 60be 9eb1 b3bf
00000360: 00ac 4440 752c 2e3f 53f7 babe c9f0 5c3f
00000370: e54c 2abf 1497 a33f 1401 50bf 3e11 abbf
00000380: ac12 a5bf 7737 e8be 76f1 5f40 8753 3dbe
00000390: 5c5c 043e ae62 6fbf 3bd3 8d3e 223f 24c0
000003a0: e3ac 69bf d4df 9d3f aa3a 8a3f 28b9 2b3f
000003b0: fbf9 f3bf ddf5 89be f3d6 9d3d 4b70 60bf
000003c0: aa1b 603e a213 3e3e 2217 67bf 5ec3 163f
000003d0: 9a9a 4c40 9ccc 463f fe39 ca3f 287d 0340
000003e0: c111 5cc0 b5e0 453f 9bb7 b8bf 0b6a ccbf
000003f0: ac03 8f3f f4d6 1a40 cfbe 363f 03d0 f03d
2.9346378 0.44954157 2.71005 -0.12178468 -2.279935 1.3231928 -0.14751923 -0.22730304
3.5614414 0.38999552 2.3315217 -2.5257773 -0.62898153 -0.83710635 -3.0463212 -1.4675299
-0.16854274 0.07951108 -1.3483944 2.2855964 -0.50196844 3.5283113 1.500447 -1.03916
2.6063595 0.4228995 0.4080955 4.578671 0.05681549 2.0757637 2.5860972 -0.95162046
2.1328497 -0.038460586 1.692338 1.8690702 1.3315506 3.4636064 -0.8747163 1.0871313
-2.0214393 -2.6766906 0.016980343 -1.7589204 -0.97883064 -1.4974504 1.4414438 -0.4473824
3.4344478 0.14079513 -0.62592506 3.6290917 -1.1790799 2.336988 -0.39167923 -0.05748664
1.9469204 0.3751944 1.3766534 0.21183987 -0.5461737 -0.5113498 -0.38212097 1.699485
0.47869295 -1.4374152 -0.21779205 -0.17391916 -0.5067927 -1.02076 0.16904448 0.3426264
-1.4998655 -0.04573288 1.5454206 0.65189314 2.1181693 -0.24745679 0.8869428 1.4217486
-1.5556369 0.3546875 -0.36282167 3.1846561 -0.24044307 2.2111917 -1.7480141 -0.056968097
-1.8474281 -0.51262987 2.638786 1.075994 0.19393326 -0.5169046 -0.4866471 -1.2022637
-1.7255654 -0.6163378 0.52770513 -1.7524984 -1.5339097 3.0100067 0.57340187 2.5303738
1.0695378 0.22453135 1.228844 -0.020574626 0.04385478 0.02229421 0.7023301 2.071091
-0.67821246 1.1400027 -0.72953063 -0.85057634 1.3198589 1.1005979 -0.95230895 0.20687152
3.526037 -0.51045984 -0.8396246 -0.43528488 -0.15485089 0.7126029 0.27631915 1.3025593
1.1265545 1.6547772 0.26662257 -0.01946408 0.26900306 2.6524193 -0.49877724 3.020436
1.9301984 2.428115 -0.734649 -2.0712063 0.42454365 -3.3579414 -0.90649587 -1.3506932
-0.8372247 1.718907 -1.0476025 -0.5281341 -0.6018441 -1.7525212 -2.6984005 -1.597577
1.5267392 1.2045051 0.14980872 -0.24446355 0.43378952 3.4070628 0.32752833 -0.29046798
-0.53930813 -0.57449675 3.1497912 2.314301 -0.3076287 2.1541471 0.9845172 -0.10611961
0.88377464 -1.4605447 -1.42216 0.81336623 2.839204 -1.7556912 0.9725395 -2.3184853
-0.69151336 -0.5347514 -2.2756865 -2.3155289 2.0161164 1.1365976 -0.8757614 -0.2463917
2.1643996 0.6653927 0.08637702 -0.5714959 0.5037974 -1.3335531 2.8697393 0.37225312
0.05486192 0.23887381 -1.7595268 -1.1394761 -0.32725325 -1.3466039 0.09016719 -1.4248922
1.2210709 -0.062588885 0.25111488 -0.61028874 -0.1296982 -0.810784 -1.7373803 1.3424218
0.1640535 0.12225771 0.5909872 3.390537 0.2898567 -0.10975763 -0.21901782 -1.403858
3.072998 0.68036586 -0.36516818 0.8630491 -0.6652358 1.278048 -0.81251645 -1.3364637
-1.2896323 -0.45354816 3.4991126 -0.18488894 0.12925857 -0.9350995 0.2770022 -2.5663533
-0.9127943 1.2333932 1.0799153 0.670794 -1.9060663 -0.2694539 0.07707014 -0.87671345
0.21885553 0.18562177 -0.9026967 0.58891857 3.1969361 0.7765596 1.5798948 2.054514
-3.4385836 0.77296 -1.4431032 -1.5969862 1.1172996 2.4193697 0.713849 0.11758425
