hw4/tests/hw4_extra/data/test_transformer_model-8-5-27-64-2-8-32-True-0.1-cuda().npy (npy, 4448 bytes, 1 tensors)

array f4 [8, 5, 27]
0	0x40626c31	3.5378535
1	0xbf824109	-1.0176097
2	0x40207710	2.507267
3	0xc021e70c	-2.529727
4	0x4034c708	2.824648
5	0x40a4f4a8	5.1548653
6	0xc0376ebd	-2.866134
7	0xc051a7b8	-3.2758617
8	0xc02d6a9a	-2.7096314
9	0xc03514ae	-2.8293872
10	0x3fa4bd75	1.2870318
11	0x3f4ca6c6	0.79941976
12	0xbfdb8a88	-1.7151651
13	0x408ee606	4.465579
14	0xc0ad5d52	-5.4176416
15	0xc019fa6d	-2.4059098
16	0x41046d8e	8.276747
17	0xc0ae5508	-5.44788
18	0xbfab8c23	-1.3402141
19	0x40886deb	4.2634177
20	0x40a554fc	5.166624
21	0xbfd1c648	-1.6388636
22	0xc0a3c8d4	-5.118265
23	0xbe94ed78	-0.29087424
24	0xbe044830	-0.12918162
25	0x3ff85c8c	1.9403243
26	0xbe53d932	-0.20688322
27	0xc12b1b18	-10.694115
28	0xbfc29282	-1.5200961
29	0x409d1660	4.9089813
30	0xbf5b1877	-0.85584205
31	0x3fbee345	1.4913107
32	0x407edf34	3.9823732
33	0xbe906f80	-0.28210068
34	0xc13276b2	-11.153978
35	0xc0e0153f	-7.0025935
36	0xc0b11a92	-5.5344934
37	0x405a5108	3.4111958
38	0xbf929564	-1.145184
39	0x401a5ff6	2.412107
40	0x3fb3544a	1.4010098
41	0xc0134ce7	-2.3015687
42	0xc0010f21	-2.0165484
43	0xbdc62180	-0.09674358
44	0xc04ccce8	-3.2000065
45	0x40563b1d	3.347358
46	0xbf08cc8b	-0.5343711
47	0xc0ba05c4	-5.813204
48	0x40121e84	2.2831125
49	0xc09f7532	-4.983056
50	0x405d49c6	3.4576278
51	0x40153c36	2.3318
52	0xc1031137	-8.191703
53	0xc024213a	-2.564528
54	0xc01340c4	-2.300828
55	0xc08e249f	-4.4419703
56	0x40ba143c	5.81497
57	0x3f9dcd5e	1.2328298
58	0x410874fd	8.528562
59	0x402c902f	2.6963003
60	0xbff6b924	-1.927525
61	0xc0a85b4e	-5.2611456
62	0x400ca943	2.197831
63	0xbf4b895a	-0.79506457
64	0x3f37b9ec	0.7176807
65	0x3fc18674	1.5119157
66	0x4009e372	2.1545072
67	0x40a64a64	5.196581
68	0x3dd09359	0.10184354
69	0x3e10b76c	0.1413247
70	0x41023292	8.137346
71	0xc077810e	-3.8672519
72	0xbd1b49e0	-0.03791225
73	0x408e148d	4.4400086
74	0x3f391de0	0.7231121
75	0x3fa5fbb4	1.2967439
76	0xc00c2a57	-2.1900842
77	0x40086dc2	2.131699
78	0xbfaf1fb0	-1.3681545
79	0xc080e722	-4.0282145
80	0xc0389fc0	-2.8847504
81	0x3fa88ff2	1.3168929
82	0xbe10a860	-0.1412673
83	0xbf1d5e1c	-0.61471725
84	0x3f397108	0.72438097
85	0x3f01d2e0	0.50712395
86	0x4077fd9f	3.8748548
87	0xc062d308	-3.5441303
88	0xc0ab03a0	-5.3441925
89	0xc0cd6b5a	-6.4193544
90	0xc0685e9b	-3.6307743
91	0x3fe26805	1.7687994
92	0xc004fa37	-2.077772
93	0x4035905e	2.8369365
94	0x4105dafd	8.365964
95	0x3fec5ab8	1.8465185
96	0x3f9042a6	1.127034
97	0x40a2e278	5.090145
98	0x3f5e6d86	0.8688587
99	0xbf4bbfa5	-0.795893
100	0xbe3523f0	-0.1768949
101	0xbfc217ca	-1.516351
102	0x407d6eea	3.9598947
103	0xc00c41f9	-2.1915267
104	0x3fbe6394	1.4874139
105	0xc0109117	-2.2588556
106	0xc14bc12a	-12.734659
107	0xc0418445	-3.023698
108	0x3f493937	0.7860293
109	0xbf1bf46e	-0.60919845
110	0xbfe7dd74	-1.8114457
111	0xc02fd08e	-2.7471042
112	0x40982964	4.7550526
113	0x408cfe80	4.406067
114	0x3f858282	1.0430453
115	0xc08c7a7c	-4.3899517
116	0xc08a6428	-4.324726
117	0xc0e78516	-7.234996
118	0xbec684d8	-0.38773227
119	0xc0743f97	-3.8163812
120	0xbf01987a	-0.50623286
121	0x40981d3f	4.75357
122	0x3f0a3c40	0.53998184
123	0x401aa3f6	2.4162574
124	0x40d7083a	6.719754
125	0xc052e3d5	-3.2951558
126	0xbf8a48aa	-1.0803425
127	0x400f59e6	2.239862
128	0xc000db68	-2.0133915
129	0x4036b098	2.8545284
130	0xbf810f88	-1.0082865
131	0x40503bae	3.2536426
132	0x3ffc9be8	1.9735079
133	0xc0e220f0	-7.0665207
134	0xbf8b838b	-1.0899519
135	0xbf905030	-1.1274471
136	0xbe358554	-0.17726642
137	0xbfd02a31	-1.6262876
138	0xc03353c0	-2.8019867
139	0xbe317bf8	-0.17332447
140	0x410f7837	8.966849
141	0x3f43fe1e	0.7655963
142	0xc0b0a0ff	-5.519653
143	0xc0afd066	-5.4941893
144	0xc01c303f	-2.4404447
145	0xbf7cee4c	-0.9880111
146	0x3d73e0e0	0.05954063
147	0xc02429e4	-2.5650568
148	0xbface448	-1.3507166
149	0xc093bf78	-4.6171227
150	0xc091d969	-4.5577893
151	0x3f13422f	0.57522863
152	0x40a0985c	5.0185986
153	0xbfcf2fa0	-1.6186409
154	0xc0cf7828	-6.4834175
155	0xbf7e0c90	-0.9923792
156	0x40b1dac6	5.5579557
157	0xc03a4f29	-2.9110816
158	0x401cd752	2.450642
159	0x4062cdec	3.5438185
160	0xbefe0ddc	-0.4961995
161	0xc04de8a4	-3.2173243
162	0x3f249bf6	0.6430048
163	0x408b377c	4.350523
164	0xbf9cd8b6	-1.2253635
165	0xc03b0f80	-2.922821
166	0x40bfd5d6	5.994853
167	0x406927ba	3.6430497
168	0xbfab6b02	-1.3392031
169	0xc13fbf97	-11.984275
170	0xc0cb46e0	-6.3524017
171	0xc0d24317	-6.5706897
172	0x40a60894	5.188547
173	0xbddf87e0	-0.10914588
174	0x405e40ad	3.4726975
175	0x408baaa0	4.3645782
176	0xbff5766c	-1.9176764
177	0xbf81fec0	-1.0155869
178	0x405fb3aa	3.4953408
179	0xc09c3e47	-4.882602
180	0x40056be6	2.0847106
181	0xbfbb0086	-1.4609535
182	0x3e34c1c0	0.17652035
183	0x3e95f4c8	0.29288316
184	0xc0875ccf	-4.230079
185	0x3f19bc83	0.6005327
186	0x40080cbe	2.1257777
187	0xc0e848f0	-7.2589035
188	0x40091d15	2.1424
189	0xc0c635a2	-6.194047
190	0xc06a0542	-3.656571
191	0x403b8b27	2.9303682
192	0x3fdcbdb4	1.7245393
193	0x3f51c928	0.81947565
194	0xc09157f5	-4.541987
195	0x3f8e90e8	1.1137972
196	0xc1128485	-9.157353
197	0xc05a113a	-3.4073014
198	0xbf2f3778	-0.68444014
199	0x403b75fb	2.929076
200	0xc0e2e992	-7.091012
201	0x3e301590	0.17195725
202	0x3f660f08	0.89866686
203	0x40017452	2.0227246
204	0x40734baa	3.8014932
205	0x3f18ecc8	0.597363
206	0xc002a63c	-2.0413961
207	0xbf10116e	-0.56276596
208	0x4096c81f	4.711929
209	0xc0b78803	-5.735353
210	0x3e165850	0.14682126
211	0xc034d720	-2.8256302
212	0x3fab8495	1.3399836
213	0xbef928b0	-0.48663855
214	0xc0917f6e	-4.5468054
215	0x408ae2f6	4.340205
216	0x4091d047	4.5566745
217	0x3f50af1f	0.81517214
218	0xbe6a0c10	-0.22856164
219	0xc0116824	-2.2719812
220	0x404bf077	3.1865518
221	0x40674e09	3.614138
222	0x3b5c1c00	0.0033586025
223	0xc0724fbe	-3.786117
224	0xc02928d9	-2.6431181
225	0xbfdd72b6	-1.7300632
226	0x40cd0b5d	6.407637
227	0xbf12d538	-0.57356596
228	0x40381fdd	2.8769448
229	0x40c6b0d4	6.2090855
230	0xc01ed03a	-2.4814591
231	0xc02fb3fd	-2.7453606
232	0x3febf526	1.8434188
233	0xc0228108	-2.5391254
234	0xc05ec855	-3.4809773
235	0x3e8d7780	0.27630234
236	0x40975201	4.7287602
237	0x3fc45ead	1.5341393
238	0xbf2d0609	-0.67587334
239	0x401eb678	2.479887
240	0x408db55e	4.4283895
241	0xc13bed9c	-11.74551
242	0xc00ae4da	-2.170218
243	0x40d07135	6.513819
244	0xc085748b	-4.1704764
245	0xbf81f5de	-1.0153158
246	0xc036662f	-2.8499868
247	0x410062d9	8.024133
248	0x408743e0	4.2270355
249	0x3e5b4f06	0.21416864
250	0x3e9da460	0.3078947
251	0x401554d0	2.3333015
252	0xbf267fe2	-0.65038884
253	0xbf8bfee0	-1.0937157
254	0x40a59592	5.174508
255	0x3e96d830	0.29461813
