hw4/tests/hw4_extra/data/test_attention_layer-4-11-27-8-32-False-0.1-cpu().npy (npy, 4880 bytes, 1 tensors)

array f4 [4, 11, 27]
00000000: cd44 913f 0ac2 cabf 92dd 4bc0 e2e7 efbf
00000010: d483 f23e 5446 ca3d fab0 7d3f 276c 85bf
00000020: f0ff e0bf b09e 603f 5eea 763e d270 bebf
00000030: eca7 a4be dd8a dabe 3dd9 a93f 8a51 dfbf
00000040: 6c35 193e c413 e83e 241b 023f 3158 953e
00000050: ea89 10bf fe57 87bf 5bd6 4e3e 6eab 2b3b
00000060: 198e eabf 305c 8abf 0727 4fbf c6db 0040
00000070: 68f2 22c0 7ab6 47bd 81bc ddbe 35ad 1140
00000080: 221f 3cbf b0d6 09bf 3215 cb3e f685 04c0
00000090: 9860 6d3f e78f cbbb 920f eabf 791a 3e3f
000000a0: fcbd e93f f171 133f 888d 28c0 7018 293f
000000b0: 068b c7bd 7294 8abf 89c9 953f 33c5 a4be
000000c0: 82b5 1ac0 a919 0040 248a 69bf fa65 303f
000000d0: 5028 9abf cb1c 3540 71c8 adbf efbb 5cc0
000000e0: 0368 03c0 ec2f dabe 0b1a 9bbf 9a55 90bf
000000f0: 9977 f1be d344 34be ca8a 8abf e0a8 cebb
00000100: 36df 5dbf 5fbd 7ebc 05e5 be3c b16b c4bf
00000110: 3b4e 873f 8ee1 65bf ad04 ae3f df2e 81bf
00000120: c939 b7be ad9c 233e a594 d53f c194 ccbb
00000130: cf4d 0a3e a46a 803f 4dba 4dbf 275c 5abf
00000140: 6239 a0bf 7eeb 93c0 b3da 4ec0 d218 a6bf
00000150: 0397 453e 7c16 95be 3b3a 943e e36c c73f
00000160: 224c 82bf 49a5 d4be 3d17 d03e 0fa8 b5bf
00000170: ed44 64bf cc33 c03f 40d2 e2bf b288 b03f
00000180: 6d42 a5bf 8fbc 8bbe 80b0 8dbf d226 423f
00000190: 221b bf3e 8ba8 b53f 8c41 073f 8778 9ebf
000001a0: 15d7 81bf a2f1 d9bf 9d6f adbe a9a8 ffbf
000001b0: 4bef 313f 9229 20bf 7cf0 59c0 edd3 c73e
000001c0: 387a 9e3f a338 183f 38b4 a83e 5517 a73f
000001d0: 55b2 83bf a229 23bf 31ef 913f e4fe d6bf
000001e0: e3db 2b3f 111e 03be 35e5 d8be 8ae9 acbe
000001f0: 1287 4f40 4901 8f3f 5602 c5bf 94ff 823e
00000200: c6d9 4c40 d0f7 09c0 d10b bb3e d763 20c0
00000210: a821 52bf 6207 6cbf 0e37 353f 0ddb 823f
00000220: 2928 a13e 53dc d3bf 0618 6e3d 4570 db3f
00000230: f12e 96bf 5307 a23e 05ae f43f 7981 57bf
00000240: 6ea8 1fbf 96e1 a4bc 8a08 2fbf 5dea f23e
00000250: f0c1 ad3f 6263 233f 4e1e c23e b5d6 5d40
00000260: 8e96 ecbd 68a1 303f f8d9 1abf 0c12 4c3f
00000270: a5b3 85bf ef9e 24c0 c698 69bf 5055 e3bf
00000280: 2d19 983e b82b 8a3f c752 a13f c66b 8ebf
00000290: 9101 68bf ec9a b63f 3d61 4a3f dda4 993f
000002a0: 743d eabf 9a5a 2e3f edb1 dbbf ea91 09be
000002b0: 2765 bebf 918b 4cc0 a21b e4bf 3289 46c0
000002c0: ba95 5ebf fb7e 473f 07a5 d73f 3141 c53e
000002d0: 56a1 863d e0e7 313f c5c5 0940 b7e1 06c0
000002e0: 4eee 1b3f c9b8 b23e 8f49 cabf 8f05 69c0
000002f0: fe30 883f 2409 093f d81b 973e bbc6 12c0
00000300: ef61 e63e bc15 0240 d277 0ac0 9a3c 213f
00000310: cbfb 28bf 7f5e e2be 77f0 f93f 0380 9abe
00000320: 20f5 e93f 0dc2 e4bf a716 673f a7dd 0ebf
00000330: 03f2 a0bf f329 9cbf 02f7 6c3f 7ef6 7d3f
00000340: 2593 3b40 dffd eabf 552c 97bf 201a b6bf
00000350: 5826 4bbe 3b63 923f c3f4 60bf 503c 5dbf
00000360: e76c 703f c7a9 82be 0721 09c0 4109 78bf
00000370: ab19 2440 d60b 273f d33d 6fbf 60a9 3740
00000380: b9df 17c0 08a3 19c0 e769 4e3f 92a3 92bf
00000390: aa6d b3bf 43f6 ad3f e61b e43f a687 0c3e
000003a0: df95 a63f 28ad 6a3f 032b 36bf e2a9 36bf
000003b0: 8f0d bc3f c503 24c0 a364 2dbf db12 d5bf
000003c0: bc11 e0be c54b 423f d16b cf3e ad14 223f
000003d0: ffdd 0240 b035 18c0 e25c 16bf 83f3 fe3e
000003e0: a7b3 66bf c70f f9bd 71e6 e0bf 3896 a4bd
000003f0: dcde e73f c3dd 0fbf 4cb2 853e 4d1c 93bf
1.1349121 -1.5840466 -3.1853986 -1.874264 0.47366202 0.09876695 0.9909817 -1.042363
-1.7578106 0.8774214 0.24112841 -1.487818 -0.32159364 -0.4268407 1.3269421 -1.7446759
0.14961785 0.4532758 0.50822663 0.29168847 -0.5646044 -1.0573728 0.20198958 0.002619471
-1.8324615 -1.0809383 -0.80918926 2.013414 -2.5460453 -0.048758008 -0.4330788 2.2761967
-0.73485005 -0.5384321 0.39664608 -2.0706763 0.92725515 -0.006212223 -1.8286002 0.74259144
1.8261104 0.57595736 -2.6336384 0.66052914 -0.097433135 -1.0826552 1.1702129 -0.321817
-2.4173284 2.0015662 -0.9122641 0.68905604 -1.2043552 2.8298824 -1.3576795 -3.4489706
-2.0532234 -0.42614686 -1.2117323 -1.1276124 -0.47161558 -0.1760438 -1.0823605 -0.0063067526
-0.8666872 -0.015548079 0.023302564 -1.5345365 1.0570749 -0.89797294 1.3595177 -1.0092429
-0.35786274 0.15977736 1.6685988 -0.006243319 0.13506244 1.0032544 -0.803624 -0.85296863
-1.2517512 -4.6224966 -3.2320983 -1.2976325 0.19295888 -0.29118717 0.28950676 1.5580105
-1.0179484 -0.41532353 0.4064273 -1.4191912 -0.8916767 1.5015807 -1.7720413 1.3791716
-1.2910897 -0.27292296 -1.1069489 0.75840485 0.37325388 1.419206 0.5283439 -1.2380532
-1.0143763 -1.7026865 -0.33874217 -1.9973346 0.6950576 -0.6256343 -3.405303 0.39028874
1.2381048 0.5946142 0.32949996 1.3053995 -1.0288798 -0.637354 1.140112 -1.6796536
0.67132396 -0.12804438 -0.4236237 -0.33771926 3.242619 1.1172267 -1.5391338 0.25585616
3.2007918 -2.1557503 0.36532453 -2.5060937 -0.82082605 -0.92198765 0.7078713 1.0223099
0.31475952 -1.6551613 0.05812838 1.7143637 -1.1733075 0.31646213 1.9115607 -0.84181935
-0.6236638 -0.020127099 -0.68372405 0.4744443 1.357481 0.6382352 0.37913746 3.4662297
-0.115521535 0.68996286 -0.60488844 0.7971504 -1.0445448 -2.5722005 -0.9124874 -1.776041
0.29706708 1.0794592 1.2603387 -1.112664 -0.9062739 1.4266028 0.79054624 1.2003437
-1.8300004 0.68106997 -1.7163674 -0.13434568 -1.4874619 -3.1960185 -1.7820933 -3.1021237
-0.86947215 0.7792813 1.6847237 0.385263 0.06573741 0.6949444 2.152696 -2.1075265
0.609105 0.34906605 -1.5803698 -3.6409643 1.0639951 0.5352957 0.2951343 -2.2933795
0.44996592 2.0325766 -2.1635633 0.62983096 -0.66009206 -0.4421272 1.9526509 -0.3017579
1.8277931 -1.787172 0.9026894 -0.55806965 -1.2573856 -1.2200302 0.92564404 0.9920424
2.930856 -1.8358725 -1.1810404 -1.4226723 -0.19838846 1.1436533 -0.87873477 -0.86420155
0.9391617 -0.25520155 -2.1426408 -0.9688912 2.5640666 0.65252435 -0.9345371 2.8697128
-2.37303 -2.4005756 0.80630344 -1.1456168 -1.4017842 1.3590778 1.7821014 0.13723621
1.3014487 0.91670465 -0.7115938 -0.7135297 1.4691638 -2.56273 -0.67731684 -1.6646379
-0.4376353 0.75896865 0.40511945 0.633128 2.0447996 -2.3782768 -0.5873548 0.4979516
-0.9011788 -0.121612124 -1.7570325 -0.080364645 1.8114886 -0.56197757 0.26112592 -1.1493012
