hw4/tests/hw4_extra/data/test_transformer_model-8-11-27-64-4-8-32-False-0.0-cpu().npy (npy, 9632 bytes, 1 tensors)

array f4 [8, 11, 27]
00000000: 17b7 2cc0 c928 66c0 b60b 2340 6ab4 2140
00000010: 2330 b2c0 518b 1ebf 9c8a b4be 58e4 5040
00000020: eb52 653f eebf 59bf d075 30be 2a35 d23f
00000030: dc99 13c1 cc68 dc3f bed9 7bc0 7ed4 fdbf
00000040: b0ae 08be 6048 d540 72d1 d0c0 193e e040
00000050: 0e7b d540 0801 02c0 37f9 62c0 ea09 60be
00000060: 1035 0941 aa98 af40 5ea7 66bf 1a84 26c0
00000070: 7484 ccc0 8237 fc40 780f 2ebf 0f39 f93e
00000080: 3480 343f 00eb b7bc 1433 bb40 c45d 113f
00000090: 8ede 0840 d5ca b3bf 9c51 0d41 a313 df3f
000000a0: d275 5540 92a5 9140 36fb e73f 25e6 8b40
000000b0: 3d25 a840 97ab 5b40 2d95 c440 45e0 5140
000000c0: 849f 16c0 1cfe c1bf 201c 2f3e 7009 0640
000000d0: 0c51 04c0 8a11 9640 6f17 3ac0 99f6 16c0
000000e0: 0b66 7fc0 2c00 dbbf be44 0ec0 e60d cc3f
000000f0: 5eb8 e1bf 5d06 3240 083a cc3f 344d 67bf
00000100: 4479 a3c0 e0d5 d8be 0994 9fc0 f0d2 98c0
00000110: c45b 6440 2ac3 59c0 76e2 5a40 d2e1 1f41
00000120: 6f5b b7c0 f152 2e41 e4a6 6b40 5415 0040
00000130: 065f 6fc0 cecd 2e40 408f 45bf 39a0 fc40
00000140: 39a7 99c0 7950 6bc0 e790 4cc0 f8f0 05bf
00000150: 744b 6c3f b44a 64c0 73f5 9c40 71c1 b6c0
00000160: 18f7 5d40 a84a 97c0 d69a 843f 69aa c1be
00000170: 9910 2940 7de9 c7c0 3b42 0840 8209 aec0
00000180: b983 bdbf 7407 0dc0 7b1e c23e be35 a33f
00000190: e47b 1ec0 a853 8840 f1f4 0f40 dfdf 0cc0
000001a0: 9c10 803f 5df7 d240 70c8 283f 1be0 8a40
000001b0: 9aa8 ccc0 3882 81c0 a73e 3ec0 e98e aebf
000001c0: 9074 75c0 835f 23c0 9851 d23e e7ee 4840
000001d0: 89af 51c0 1fca b03f 8bfa c8c0 e8b4 1240
000001e0: bf58 eac0 9ef7 5040 7301 2b3e 4e25 10c0
000001f0: 6aac 1f40 6a6c df40 229b ac3f 9232 4640
00000200: 7298 2ac0 b0ca debe 319a 9dc0 1a38 95c0
00000210: 6425 933e 84c4 a440 cdc8 88c0 ca20 d1c0
00000220: 30df d6c0 d79e f9bf 3031 ddbd 682f 5d3f
00000230: e507 c3c0 7ec9 3e3f 4d04 a43f 4d8a b5bf
00000240: 16a0 9340 3acf 35c0 6a8f e03f 8988 09c1
00000250: 36bb a23f 52a5 f7bf 19fa 64c0 9317 15c0
00000260: 2bb6 1541 c69e 0ac1 e4d4 8840 48bc e93e
00000270: e55e f1bf 029f 10c1 3972 b1c0 0649 dc40
00000280: 30c9 55be 8a87 c9c0 a665 a4c0 147b 323f
00000290: daf4 50c0 e6e4 c83f 8287 76c0 5eda 9940
000002a0: 3cf9 02c1 8686 4a40 f214 19c0 22f9 40c0
000002b0: 80a5 0ac0 a229 87c0 5076 00c1 3b3a 1940
000002c0: 5931 553e ab4e 87c0 4fcd 9e40 1c14 2040
000002d0: 2863 53bf 834a 9c40 20ae 8cbe f862 92bf
000002e0: 1aa3 1fc0 3936 6040 ad2e edbf 847a 0a41
000002f0: b0d3 18c0 072f 83c0 7e00 f5c0 5ba7 1640
00000300: c006 a2bd d88c b0bd 1cb4 ebbf 08ef 4c40
00000310: 1480 693f 116c 8740 602d d040 6840 08c0
00000320: 31d4 4840 3b12 68c0 3f34 f63f c511 2d40
00000330: 5ce7 f63f e055 513f fdba 1441 4825 acbf
00000340: ab2f 0bc0 7a8a 1b40 beb8 b03f c37f 16c1
00000350: e026 9fc0 756a bf3f 1c4a 33c0 2329 4040
00000360: acb5 c8bf 9262 38c0 2c52 1cc0 026f 953f
00000370: 8292 51bf 37c9 7440 3eab 2bc0 8f97 973f
00000380: 261e 5940 fbfc 09bf a0c3 c140 9005 5f3d
00000390: f6bc 9bc0 1b73 9240 4003 5dbd ba44 96c0
000003a0: 47fc 98c0 a790 0940 6e45 8fc0 a56d 6c40
000003b0: 9002 cf40 c0f6 12bd 0f7f adbf 3cc0 32c0
000003c0: f049 7940 90a5 d240 8ec7 5540 ec55 6cbf
000003d0: 1c24 5f40 922f 0040 63f8 0d40 6489 d1be
000003e0: 764b 0240 d3b5 25c0 d50c 7140 23ad 9a3f
000003f0: 7ebd a7c0 c2ed 343f 0a50 90bf 47a8 cac0
-2.698675 -3.5962393 2.5475898 2.5266366 -5.568376 -0.6193133 -0.35262 3.263937
0.8957965 -0.85058486 -0.17232442 1.6422474 -9.225063 1.7219481 -3.935165 -1.9830472
-0.13347888 6.665085 -6.525567 7.0075803 6.6712713 -2.031313 -3.5464609 -0.21878782
8.575455 5.4873857 -0.9009913 -2.6018128 -6.3911686 7.881776 -0.67992353 0.48676345
0.7050812 -0.022450924 5.849985 0.567837 2.1385837 -1.4046274 8.832424 1.7427868
3.3353162 4.551461 1.8123538 4.371844 5.2545457 3.432348 6.14321 3.2793133
-2.353486 -1.5155673 0.17100573 2.094326 -2.0674467 4.689641 -2.9076803 -2.3588011
-3.9906032 -1.7109427 -2.2229457 1.5941741 -1.7634389 2.7816384 1.595521 -0.9035218
-5.108553 -0.42350674 -4.9868207 -4.775749 3.568101 -3.4025369 3.420072 9.992632
-5.7299113 10.895249 3.6820612 2.0013018 -3.7401748 2.7313113 -0.7717171 7.8945584
-4.801663 -3.6767867 -3.1963441 -0.52320814 0.9230263 -3.5670595 4.904962 -5.7111135
3.4682064 -4.7278633 1.0359752 -0.37825325 2.641638 -6.247252 2.1290424 -5.4386606
-1.4805824 -2.20358 0.3791388 1.2750776 -2.4763117 4.260212 2.249325 -2.201164
1.0005069 6.5926957 0.65930843 4.3398566 -6.3955812 -4.047146 -2.972574 -1.3637363
-3.8352394 -2.5527046 0.41077876 3.1395814 -3.2763388 1.3811682 -6.280584 2.2922916
-7.3233333 3.2651134 0.16699772 -2.252277 2.4948983 6.981984 1.3484843 3.0968366
-2.6655545 -0.43514013 -4.925072 -4.6630983 0.28739464 5.1489887 -4.274512 -6.5352526
-6.7147446 -1.9501599 -0.108003974 0.8640046 -6.0947137 0.745262 1.2813812 -1.4182831
4.6132917 -2.840773 1.7543766 -8.595834 1.2713382 -1.9347327 -3.5777647 -2.3295639
9.356975 -8.663763 4.2759876 0.4565146 -1.8857085 -9.03882 -5.545193 6.883914
-0.20877528 -6.2977953 -5.1374083 0.6971905 -3.2649446 1.5694854 -3.8520207 4.807906
-8.185848 3.1644607 -2.3919034 -3.0152059 -2.1663513 -4.223832 -8.028885 2.394179
0.20819606 -4.228353 4.962562 2.5012274 -0.82573175 4.8840957 -0.27476597 -1.1436453
-2.49433 3.5033095 -1.8529869 8.654911 -2.3879204 -4.0994906 -7.65631 2.3539646
-0.07911444 -0.08620614 -1.841434 3.2020893 0.91211057 4.2319417 6.505539 -2.128931
3.1379511 -3.6261127 1.9234694 2.7042096 1.9289355 0.8177166 9.295651 -1.3448877
-2.1747844 2.430327 1.3806379 -9.406192 -4.9734955 1.4954363 -2.8013983 3.0025108
-1.5680442 -2.8810163 -2.4425154 1.1674502 -0.8186418 3.8247812 -2.6823268 1.1843127
3.392465 -0.5390164 6.05513 0.054448664 -4.8668165 4.576551 -0.053958178 -4.6958895
-4.7807956 2.1494539 -4.4772253 3.6941922 6.469063 -0.03587985 -1.35544 -2.792983
3.8951378 6.5827103 3.3403049 -0.92318606 3.486579 2.0029035 2.2182853 -0.40925133
2.0358558 -2.5892227 3.7664082 1.2084087 -5.2418814 0.7067529 -1.1274426 -6.3330417
