hw4/tests/hw4_extra/data/test_attention_layer-8-11-27-8-32-False-0.0-cuda().npy (npy, 9632 bytes, 1 tensors)

array f4 [8, 11, 27]
000000 ca 94 0d 40 fe 1e 20 bf e8 a1 97 bf c1 0b 22 40
       2.2122064 -0.6254729 -1.1846285 2.5319674
000010 4c ee 09 c0 2f 6b 49 3e a7 d2 5f 3e 53 dc 1a 40
       -2.1551695 0.19669794 0.21857701 2.4196975
000020 03 bf 31 3f 18 05 90 bf 94 19 5e bf 94 a3 d1 3d
       0.69432086 -1.1251554 -0.8675778 0.10236278
000030 18 dd da 3e 0e 6e e4 bf cb 11 08 c0 db fd 81 3f
       0.42746806 -1.7846086 -2.126086 1.0155596
000040 f5 f5 78 c0 a0 b5 f4 bf 99 f8 2f c0 36 90 78 bf
       -3.890012 -1.9117928 -2.7495482 -0.9709505
000050 eb 54 80 bd 2e 40 20 be 98 52 f9 3f b0 f8 0f c0
       -0.06266197 -0.15649483 1.9478331 -2.2495537
000060 9b 5e e9 be ad 2c 5a 40 99 c1 c0 3f fd 3a cf bf
       -0.4557999 3.4089768 1.5059081 -1.6189877
000070 61 67 ce be c9 20 a3 be 7b b4 76 3f 2d 93 66 bf
       -0.40313247 -0.3186095 0.9636914 -0.9006832
000080 08 7d df 3f 03 2e e2 bd ea 67 a9 3f 44 62 ca 3f
       1.7460032 -0.11043932 1.3234837 1.5811238
000090 cf 85 03 40 25 b4 07 c0 3d 22 44 40 bb 23 a4 3e
       2.055042 -2.1203701 3.0645897 0.3205851
0000a0 2b 82 b6 bc a4 5b 8d 40 b8 c0 f2 bf 75 96 ab bf
       -0.022278866 4.4174366 -1.8965063 -1.3405291
0000b0 9b 8a 0b 3f 92 5c cf 3f 00 50 83 bf f8 0f 84 bf
       0.5450837 1.6200125 -1.0258789 -1.0317373
0000c0 7f c7 c5 bf ad 7f f7 3e e7 95 91 3f ae c4 8e bf
       -1.5451506 0.48339596 1.1373872 -1.1153772
0000d0 56 64 03 40 8b ac 00 40 f4 e7 43 3f 5a 83 87 bf
       2.052999 2.0105312 0.7652581 -1.058696
0000e0 43 73 7c 3e b9 8c df bf f6 cd 17 bf 08 20 1b 3f
       0.24653344 -1.746482 -0.59298646 0.6059575
0000f0 b6 45 38 bb df c7 a9 3e 99 5a 47 bf d7 f4 9f 3e
       -0.0028117723 0.33160302 -0.77872616 0.31241485
000100 33 57 cc bf e1 68 3c 40 41 f4 e9 be 29 e1 6a 3f
       -1.5964111 2.9439013 -0.45694163 0.9174982
000110 43 51 00 40 46 ad bf bf f7 e7 b6 bf 4a a9 cf be
       2.0049598 -1.4974754 -1.428954 -0.40558845
000120 b0 f9 4a 3f 17 49 0b bf c8 59 61 3e 74 a0 4d c0
       0.7928724 -0.544084 0.22006905 -3.2129183
000130 8e 9e 59 3f b0 c2 41 bf 8a 60 0e 3f 46 41 6d 3f
       0.8500756 -0.75687695 0.55616057 0.92677724
000140 6a eb 75 be b7 2d 47 3e 32 1d 1e 3f b9 c7 08 3f
       -0.24015585 0.19451033 0.617633 0.5342975
000150 f4 db 88 be f6 67 34 c0 f1 85 18 40 b2 a2 ca 3e
       -0.2673031 -2.8188453 2.3831751 0.39577252
000160 61 0a 25 bf 12 86 a2 3f 42 29 23 bd 65 54 b6 bf
       -0.6446896 1.2697165 -0.03983427 -1.4244505
000170 21 4e aa bf 7b 47 81 3d 7a 32 c1 3e 11 38 41 3f
       -1.3305093 0.06312462 0.37733823 0.75476176
000180 07 48 97 bf 84 f9 c0 bd c0 8b 87 bf f5 94 3f bf
       -1.1818856 -0.09422591 -1.0589523 -0.74836665
000190 00 41 a4 be c1 70 05 3e 4b 83 8f bf 07 ed 9c 3c
       -0.3208084 0.13031293 -1.1211942 0.019155992
0001a0 46 db a6 3e e8 d4 24 bf ca 76 bd 3f 13 64 89 3f
       0.32589167 -0.6438737 1.4801877 1.0733665
0001b0 48 51 53 3f e0 7b 26 bf 5a 34 08 40 94 67 ae bf
       0.825459 -0.6503277 2.1281953 -1.362536
0001c0 ab e5 8c bf e2 54 f1 3f fb 1c ba bf 79 88 7a 3f
       -1.1007589 1.8854029 -1.4540094 0.9786449
0001d0 53 ce 48 3f cf ef 00 c0 f7 7a 23 be fd d4 3d 3f
       0.78439826 -2.0146368 -0.15964876 0.7415312
0001e0 d0 58 71 3f 8f aa 59 3e 55 f7 11 40 9b 87 f5 3f
       0.9427614 0.21256469 2.280721 1.9182009
0001f0 cd 9e aa bf a0 64 52 3e 9b 1c c6 be 3f 0f 33 bf
       -1.3329712 0.20546198 -0.386937 -0.6994514
000200 af 05 32 c0 6d 9c 6d bf 22 4e 8e be 8b 32 d6 bf
       -2.781597 -0.9281681 -0.27793986 -1.6734174
000210 ba d0 4c 3e 3e 04 75 3e 8d 76 b0 3f 7f f0 a7 3f
       0.20001498 0.239274 1.3786179 1.3120269
000220 91 e0 23 bf e4 e2 77 3f 8e 73 b9 bf 89 8a 40 bf
       -0.64014536 0.9683058 -1.448839 -0.7521139
000230 0a 84 17 3f e8 08 d1 be 51 27 82 bc 31 3d 0f bf
       0.5918585 -0.40827107 -0.015887888 -0.55952746
000240 17 26 0c bd 2f 67 6a bf 66 5b ca 3f ab c2 44 3f
       -0.034216013 -0.91563696 1.5809143 0.7685954
000250 92 76 ff be d4 0b 0d 40 bc 3e 82 3f 5a ca 59 bf
       -0.4989515 2.203847 1.0175395 -0.8507439
000260 1d 4b 1a bf d2 5a 3c bf 59 ff 66 3f 4b 3e 82 bf
       -0.60270864 -0.7357608 0.9023338 -1.017526
000270 e5 b5 a2 bf 8b eb bc 3e 83 ca 03 c0 8f 94 b3 bb
       -1.271176 0.36898455 -2.0592353 -0.005480356
000280 12 77 a1 be 6d 23 96 3f 0a 67 d3 be 74 16 2c be
       -0.31536156 1.1729561 -0.4128955 -0.1680544
000290 74 00 8f 3f fd 6b 6a bf 2a 68 a8 bf 88 95 57 3f
       1.1172013 -0.9157103 -1.3156788 0.8421254
0002a0 c5 66 75 3f 02 ad 71 3f 75 6b c4 3f 44 6f 01 bf
       0.9585994 0.94404614 1.5345293 -0.505604
0002b0 e7 c0 2a bd 47 09 3a 3f bd 14 67 3e b8 5b 46 3f
       -0.041687872 0.72670406 0.22566505 0.774837
0002c0 e2 a8 f1 3e 84 ff ea 3e 58 fe 3b c0 2a ed af be
       0.4719916 0.45898068 -2.937399 -0.3436063
0002d0 d3 3e 3d bf 47 aa 3d bf bb e6 66 bf d8 e7 a3 be
       -0.7392399 -0.7408795 -0.90195817 -0.3201282
0002e0 c3 a7 5c 3f 71 5a 28 3d fd 62 90 bf cf c6 d4 be
       0.86193484 0.041101877 -1.1280209 -0.4155793
0002f0 32 b1 ce 3f b3 11 47 bf dd 97 8a bb 4e 9d 9c bf
       1.6147826 -0.7776138 -0.0042295293 -1.2235506
000300 33 35 98 bf d2 7e 0a c0 a9 b1 6a bf 45 98 6e 3f
       -1.1891235 -2.1639905 -0.9167734 0.93201095
000310 2c 99 43 3e 39 05 53 3f 3e b4 1c bf ef 0d 43 bf
       0.19101399 0.82429844 -0.6121253 -0.76193136
000320 f3 bb 44 3f 1a c7 84 bd 93 39 06 c0 00 28 1e 3f
       0.7684929 -0.06483288 -2.097264 0.61779785
000330 d0 52 ac 3f 44 a6 6e 3f 74 76 92 bf 56 f2 89 bf
       1.3462772 0.9322245 -1.1442399 -1.077708
000340 fb d2 96 3d ae 86 c4 bf 43 7a 00 3f 12 1e 86 3f
       0.0736446 -1.5353601 0.50186557 1.0477927
000350 d6 28 6a be e2 3d 21 bf 9d 63 a2 3d 07 33 56 3f
       -0.2286714 -0.6298505 0.07929156 0.8367161
000360 89 a7 15 bf f1 f8 a3 be a6 c6 17 bf c3 3b 2d 3f
       -0.58458763 -0.32025865 -0.5928749 0.67669314
000370 82 17 9c bf a0 c2 5e 3f 1a e0 73 3f 8e 80 e2 3f
       -1.2194674 0.87015724 0.95263827 1.7695482
000380 8e 22 4a 3f fe 78 47 3f eb 58 0a c0 92 7a 30 40
       0.78958976 0.77918994 -2.1616771 2.757481
000390 3a 1c 14 bf 0e fe af bf fa e0 26 3f 4c 73 a0 3f
       -0.5785557 -1.3749406 0.65187037 1.2535186
0003a0 ef a2 8e bf ca e2 49 bf 7d 9d 8c 3f 75 93 08 40
       -1.1143473 -0.7886168 1.0985562 2.134
0003b0 d8 bd 03 c0 d8 48 52 bf 4e 87 02 40 24 d6 af bf
       -2.0584621 -0.821424 2.0395083 -1.3737226
0003c0 4a d8 b0 bf 60 8e 05 40 d3 a1 47 40 43 49 d7 3d
       -1.3816006 2.0868149 3.119252 0.105120204
0003d0 b3 13 f3 3f c1 c7 2b bd 0a 8b b2 3f f6 10 15 c0
       1.8990387 -0.041938547 1.3948681 -2.3291602
0003e0 82 0c 35 3f d3 67 a2 3f 08 35 bf 3f f7 51 2e 40
       0.7072221 1.2687935 1.4938059 2.7237527
0003f0 9c 7a 03 3d 22 11 6b c0 5b 55 04 3f 2e 70 bd bf
       0.03209935 -3.6729207 0.5169274 -1.479986
