hw4/tests/hw4_extra/data/test_attention_layer-4-11-27-8-32-False-0.0-cuda().npy (npy, 4880 bytes, 1 tensors)

array f4 [4, 11, 27]
0.9588864 -0.98108953 -2.4749508 -2.092543 0.43904 0.50774544 0.8583212 -1.0791775
-1.2532446 0.89526075 0.5007859 -1.112096 -0.027366722 -0.6297159 1.7517592 -1.4424764
0.18069397 0.15277483 -0.12197558 0.041566625 -0.34388202 -0.73456365 0.2688597 -0.111305304
-1.4079578 -0.5512265 -0.8794156 -0.026665838 -2.6391814 -1.1623776 -1.3873941 2.0585432
-0.11949901 -1.5883154 -0.6010873 -2.206887 0.63901454 -1.1445203 -1.8634877 0.9243481
1.81735 0.38565883 -2.9245093 0.7353675 -0.6912379 -1.4027524 0.15609744 -1.7555841
-2.608457 1.6291296 -0.8321048 0.3191786 -0.15018202 2.7293286 -0.6794253 -2.6465292
-1.1888008 -0.74249303 -0.18653262 -0.7724245 -0.8020186 -0.27570847 -1.881432 -0.49262497
-0.68681735 -0.1417772 0.07136229 -1.868078 0.93041486 -0.9581534 1.2627795 -0.46014866
-0.9068256 -0.20809762 0.7315793 -0.8758026 -0.10391416 1.10502 -1.4126389 -0.53682125
-1.1336608 -4.076389 -3.0863066 -1.2470287 0.18332368 0.02876005 0.36471707 1.2463514
-0.8900758 -0.4716897 0.54619884 -1.1979314 -0.90588206 1.1169727 -1.4549574 1.5037138
-1.2947062 -0.1670764 -0.8490455 0.5512417 0.2684542 1.2857547 0.4183213 -1.2859422
-0.78751445 -1.5664649 -0.30855665 -1.5281583 0.65458584 -0.79038227 -2.853746 0.3234916
0.9323908 0.30970964 0.29589668 1.090504 -0.37369663 -0.4190716 1.361951 -1.9464941
0.5840382 0.110825196 -0.30530483 -0.083997555 2.9955866 1.1818502 -1.4774659 0.10935949
2.7927122 -1.8774008 -0.10035914 -2.3765874 -0.79981077 -1.1639944 0.97217 0.93167007
0.33814073 -1.449955 -0.031569056 1.4706742 -1.0025023 0.27161598 1.7814618 -0.6893633
-0.6252895 0.03864002 -0.6557704 0.40939534 1.1409583 0.59461087 0.44238982 3.1358285
-0.17034711 0.58928406 -0.5291802 0.79262674 -0.8694954 -2.353505 -0.7863616 -1.6367638
0.31543422 0.8766792 1.0967335 -1.0608585 -0.76621395 1.2843778 0.7479141 1.1134121
-1.6542044 0.6033089 -1.5607482 -0.24415758 -1.2618822 -2.9194825 -1.6023753 -2.7807355
-0.7517 0.65568656 1.5625672 0.32124606 -0.04063231 0.5585602 1.9734799 -1.956433
0.485968 0.25996423 -1.4258143 -3.3243449 0.9255911 0.10211523 -0.9953267 -2.0568473
0.43431365 0.54991156 -1.7143557 1.7829733 -1.9561094 -0.8752918 2.500025 -0.16845343
1.5497186 -1.0543603 0.48090234 -0.4796204 -0.7943198 -1.0969505 0.58792955 -0.018507546
2.4029374 -1.2946527 -0.6770442 -2.0392103 -0.48197895 -0.32064167 -0.3242123 -0.64424074
0.5451498 0.08439196 -1.6917048 -1.1762382 2.8514047 0.82147616 -0.7889589 2.2067523
-1.8178167 -1.787004 0.6454953 -1.135738 -0.8727297 0.86544293 1.8422749 0.3507884
1.8328043 0.9288511 -0.58236486 -1.0877506 1.1585673 -2.0696332 -1.1769999 -1.5440055
-0.13387534 0.78983563 0.45580944 0.74718434 1.2810259 -2.8271408 -1.2026923 0.11981927
0.18464209 0.12575926 -1.3474339 -0.50972146 1.2195177 0.065811045 0.34155452 -1.1453677
00000000: 9479 753f af28 7bbf 9865 1ec0 39ec 05c0
00000010: dac9 e03e 9bfb 013f f0ba 5b3f 7d22 8abf
00000020: 526a a0bf cf2f 653f 8133 003f 2959 8ebf
00000030: 2d30 e0bc 1035 21bf a539 e03f 11a3 b8bf
00000040: d707 393e 0171 1c3e 55ce f9bd c441 2a3d
00000050: 4e11 b0be 5d0c 3cbf fba7 893e 09f4 e3bd
00000060: f637 b4bf 2e1d 0dbf 6121 61bf 5172 dabc
00000070: 59e8 28c0 cac8 94bf 2196 b1bf 2cbf 0340
00000080: e6bb f4bd eb4d cbbf dbe0 19bf a33d 0dc0
00000090: 7596 233f a47f 92bf c486 eebf 14a2 6c3f
000000a0: ed9e e83f 1375 c53e 292b 3bc0 0b41 3c3f
000000b0: f8f4 30bf 648d b3bf 02d8 1f3e fbb6 e0bf
000000c0: f6f0 26c0 5287 d03f d204 55bf 616b a33e
000000d0: 51c9 19be 52ad 2e40 d1ee 2dbf bc60 29c0
000000e0: a02a 98bf 0614 3ebf 6802 3fbe 9dbd 45bf
000000f0: 1751 4dbf a929 8dbe c4d2 f0bf 5739 fcbe
00000100: 43d3 2fbf 0b2e 11be 6426 923d 2e1d efbf
00000110: ab2f 6e3f 8b49 75bf c2a2 a13f 9b98 ebbe
00000120: b925 68bf 8b17 55be c848 3b3f 9934 60bf
00000130: f2d0 d4bd 4c71 8d3f 5ad1 b4bf 1e6d 09bf
00000140: cc1b 91bf c771 82c0 0c86 45c0 a39e 9fbf
00000150: 34b9 3b3e 329a eb3c 32bc ba3e 7188 9f3f
00000160: 02dc 63bf 5081 f1be b0d3 0b3f d155 99bf
00000170: e3e7 67bf f6f8 8e3f 0b3c babf b279 c03f
00000180: efb8 a5bf 1316 2bbe 0c5b 59bf 2d1e 0d3f
00000190: d472 893e 9c93 a43f 362e d63e c199 a4bf
000001a0: 8c9a 49bf ec81 c8bf 23fb 9dbe b19a c3bf
000001b0: f092 273f 7e56 4abf c6a3 36c0 b1a0 a53e
000001c0: 2ab1 6e3f 4392 9e3e c57f 973e a395 8b3f
000001d0: 2a55 bfbe 8e90 d6be 6954 ae3f b826 f9bf
000001e0: 8783 153f 52f8 e23d ea50 9cbe e906 acbd
000001f0: b1b7 3f40 de46 973f 9a1d bdbf def7 df3d
00000200: ccbb 3240 ab4e f0bf 1889 cdbd 021a 18c0
00000210: 66c0 4cbf c5fd 94bf 22e0 783f ee81 6e3f
00000220: c820 ad3e 2098 b9bf 8e4e 01bd 0d3f bc3f
00000230: ff51 80bf 4011 8b3e f106 e43f 1d7a 30bf
00000240: f912 20bf ff44 1e3d 92e0 27bf 449c d13e
00000250: ec0a 923f 6b38 183f eb80 e23e 6ab1 4840
00000260: 796f 2ebe 52db 163f 5b78 07bf 96e9 4a3f
00000270: 4097 5ebf d39f 16c0 fe4e 49bf 7a81 d1bf
00000280: 9880 a13e 0c6e 603f c361 8c3f 36ca 87bf
00000290: 9926 44bf 7e66 a43f 4c77 3f3f 4a84 8e3f
000002a0: f8bc d3bf 7472 1a3f 99c6 c7bf 7204 7abe
000002b0: 5b85 a1bf cdd8 3ac0 a21a cdbf 92f7 31c0
000002c0: 696f 40bf 13db 273f 3402 c83f 5d7a a43e
000002d0: 116e 26bd cdfd 0e3f fd9a fc3f 666c fabf
000002e0: ccd0 f83e 081a 853e 1581 b6bf 11c2 54c0
000002f0: 8af3 6c3f ca21 d13d bbcd 7ebf 63a3 03c0
00000300: 5c5e de3e 01c7 0c3f 0270 dbbf 7838 e43f
00000310: cb61 fabf 2013 60bf 6900 2040 0e7f 2cbe
00000320: 2e5d c63f 47f5 86bf d538 f63e ce90 f5be
00000330: 8b58 4bbf e068 8cbf 8d82 163f 239d 97bc
00000340: bac9 1940 2eb7 a5bf c552 2dbf 6c82 02c0
00000350: f2c5 f6be 252b a4be 28ff a5be f6ec 24bf
00000360: f08e 0b3f b1d5 ac3d c889 d8bf f98e 96bf
00000370: 6a7d 3640 434c 523f 36f9 49bf 6e3b 0d40
00000380: 38ae e8bf 8cbc e4bf 2e3f 253f dd5f 91bf
00000390: 376b 5fbf ab8d 5d3f aacf eb3f 8a9a b33e
000003a0: 5599 ea3f 30c9 6d3f dd15 15bf 693b 8bbf
000003b0: ef4b 943f df74 04c0 efa7 96bf f9a1 c5bf
000003c0: 9e16 09be ab32 4a3f db5f e93e 7947 3f3f
000003d0: a8f8 a33f e0ef 34c0 d2f1 99bf ce63 f53d
000003e0: d112 3d3e 09c7 003e b778 acbf 1b7d 02bf
000003f0: 2819 9c3f f1c7 863d 3ce0 ae3e 699b 92bf
