hw4/tests/hw4_extra/data/test_transformer_model-8-5-27-64-2-8-32-False-0.1-cuda().npy (npy, 4448 bytes, 1 tensors)

array f4 [8, 5, 27]
0	0x3f2de3b6	0.67925584
1	0xc08fbcc8	-4.4917946
2	0x40d4c254	6.6487217
3	0xbf7fafe2	-0.9987775
4	0x4070c7ea	3.7622018
5	0x3fece60f	1.8507708
6	0xc0ba1bdf	-5.815902
7	0xbf97e9ea	-1.186826
8	0xbe2dd6a8	-0.16976416
9	0x40b621b4	5.691614
10	0x409957a0	4.7919464
11	0xc008e7d4	-2.1391497
12	0x40540c38	3.3132458
13	0x40389e2b	2.8846538
14	0xc07fc8ef	-3.996639
15	0xbf0d5155	-0.5520223
16	0x4117dd9a	9.491602
17	0xc090d76d	-4.526297
18	0x3e124c86	0.14287004
19	0x40394248	2.8946705
20	0x40348e94	2.8212023
21	0xbf08bd49	-0.53413826
22	0xc126b3c4	-10.418888
23	0xc0458182	-3.0860295
24	0xbfb6a4f3	-1.4269089
25	0xc0b79cb2	-5.737878
26	0x3e832950	0.25617456
27	0xc0a09d7e	-5.019225
28	0xc01771a8	-2.366312
29	0x40b66c0e	5.7006903
30	0xbefef214	-0.49794066
31	0x40873271	4.2249074
32	0x3f253bf5	0.6454461
33	0xbf1bd38e	-0.6086968
34	0xc0c8255e	-6.2545614
35	0xc0d29128	-6.5802193
36	0xc0585258	-3.3800259
37	0x40a0989c	5.018629
38	0xbfad5d20	-1.3544044
39	0x40a6b0c9	5.20908
40	0x4093eb70	4.62249
41	0xbfc9c276	-1.576247
42	0x4055b1aa	3.3389688
43	0x401433ac	2.3156538
44	0xc02e5fbd	-2.7245934
45	0x40c05fac	6.0116787
46	0x401e0ca2	2.469521
47	0xbed3b3d0	-0.41348124
48	0x4024751e	2.5696483
49	0xc09f2858	-4.973675
50	0x3e2180ac	0.1577174
51	0x3f8e02d0	1.1094608
52	0xc0adb970	-5.4288864
53	0xbfbab92a	-1.4587758
54	0xbfe1ac0e	-1.7630632
55	0xc00e4346	-2.222856
56	0x4074a7e7	3.822748
57	0x404fee9e	3.248939
58	0x401e5421	2.4738848
59	0x400d0beb	2.2038524
60	0xc0aac5c4	-5.3366413
61	0xc05e7d1f	-3.4763868
62	0xbcdf3740	-0.027248025
63	0x4088165b	4.252729
64	0x3f143964	0.5790007
65	0x3f1f482e	0.6221951
66	0x3faaa840	1.3332596
67	0x4030b842	2.7612462
68	0xbebf9174	-0.3741566
69	0x3e8f1ef4	0.27953303
70	0x40b9a224	5.8010426
71	0xc0cf27a5	-6.4735894
72	0xc0cdbd44	-6.4293537
73	0x40eb1670	7.346489
74	0xc00b84bb	-2.1799762
75	0x3f8f2ce2	1.1185572
76	0xc0b3fd4a	-5.624669
77	0x3ff66bd1	1.9251653
78	0xbe87ab2c	-0.2649778
79	0xc08247a1	-4.071244
80	0x4052a2c4	3.2911844
81	0x3f902beb	1.1263403
82	0x3fa45ace	1.2840211
83	0xc012ad1c	-2.2918158
84	0x3e875fc8	0.26440263
85	0xc0b3a77e	-5.614196
86	0x40dd4051	6.914101
87	0xc0973ad9	-4.7259336
88	0xc08aef55	-4.3417153
89	0xc050dffd	-3.2636712
90	0xbf0b0b00	-0.5431366
91	0x4058813e	3.3828883
92	0x3d8aa640	0.06769991
93	0xbf0e9fad	-0.55712396
94	0x40a82ce9	5.255482
95	0x4011ab8a	2.276095
96	0x3fb552fe	1.4165952
97	0x3f8ee714	1.116427
98	0x3fde5c4c	1.7371917
99	0xbfbe34f2	-1.4859908
100	0x3f8297ac	1.0202537
101	0xc04b39ce	-3.175403
102	0x4003c6a2	2.0589986
103	0xc0608342	-3.5080113
104	0x3fe7a2fc	1.8096614
105	0x3f98ab6a	1.1927311
106	0xc115e4b7	-9.368339
107	0xbebd8f48	-0.37023377
108	0x40481ebc	3.1268759
109	0x3e3d08b0	0.18460345
110	0xbf9294b5	-1.1451632
111	0xbf991d02	-1.1961977
112	0x406ab29f	3.6671522
113	0x4086b1e2	4.209214
114	0x3ff7850e	1.933748
115	0xbfd9cbd9	-1.7015334
116	0xc03d9b36	-2.9625983
117	0xc0c5f831	-6.186547
118	0x403e9772	2.9779935
119	0xbfd85f0e	-1.6904008
120	0xbfa50ab4	-1.2893891
121	0x40934a74	4.6028385
122	0x3f63f7d6	0.8905004
123	0x3f50f052	0.816167
124	0x4100e238	8.055229
125	0xc0a6dc03	-5.214357
126	0xc02c5bc4	-2.693101
127	0x406a0f68	3.6571903
128	0xbf1caa18	-0.6119704
129	0x40322e02	2.784058
130	0xbf532b58	-0.8248801
131	0x4019331e	2.393745
132	0x3fb73dcf	1.4315737
133	0xc09d3a54	-4.91337
134	0x3e6e4b12	0.23270825
135	0x3f67aaa8	0.90494776
136	0x40abb048	5.3652687
137	0x3fe938be	1.8220441
138	0xbfb05961	-1.3777276
139	0x3effa10c	0.49927557
140	0x408d3324	4.4124928
141	0xc0c21f48	-6.0663185
142	0xbf830fac	-1.0239158
143	0xc08ec54c	-4.461584
144	0x40939543	4.6119704
145	0x40dd1824	6.909197
146	0xbff531ca	-1.915582
147	0xc02839ef	-2.628536
148	0x3f25b3ae	0.64727294
149	0xbf9f3ba5	-1.2440077
150	0xc061e038	-3.5293102
151	0x3fc343d2	1.5255072
152	0xc0a361fd	-5.1057115
153	0xc10824c1	-8.508973
154	0xbe6f68b0	-0.23379779
155	0xbf70c229	-0.94046265
156	0xbfc0234e	-1.5010774
157	0xc0edc90e	-7.430793
158	0xbeebd0b8	-0.46057677
159	0x3fa97c8c	1.3241134
160	0xbedee824	-0.43536484
161	0xc0128427	-2.289316
162	0xbf69190a	-0.9105383
163	0x406a1bf9	3.6579573
164	0x3fc28be8	1.5198946
165	0xc00f0640	-2.2347565
166	0x4039e3e6	2.9045348
167	0x3cfd6dc0	0.030936122
168	0xc093501d	-4.6035295
169	0xc0b2096a	-5.563649
170	0xc0398de5	-2.8992856
171	0xbf930a33	-1.1487488
172	0x4090c74b	4.5243278
173	0x40435490	3.0520363
174	0xbffed36e	-1.9908273
175	0x406db005	3.7138684
176	0xc005ddec	-2.09167
177	0xc02a6639	-2.6624892
178	0xbf8d3861	-1.103283
179	0xc0b45763	-5.6356673
180	0x4058a203	3.3848884
181	0xbf819b0a	-1.0125439
182	0xbff92506	-1.9464424
183	0xc08f1693	-4.4715056
184	0xc05c8666	-3.445703
185	0x3fb4b5de	1.4118001
186	0x409dcc6a	4.931203
187	0xc01b4203	-2.425904
188	0x408e6bbf	4.4506526
189	0xc08ac3e5	-4.336413
190	0x3f56cb19	0.8390365
191	0x4004e814	2.076665
192	0x402a76be	2.6634974
193	0xbf06b7cc	-0.526242
194	0xc0ca4d84	-6.3219624
195	0xbec0e230	-0.37672567
196	0xc0f38bf8	-7.610836
197	0xbfa0cee6	-1.256314
198	0x3f8e00ce	1.1093996
199	0x3fb27620	1.3942299
200	0x3f184472	0.5947944
201	0xc0688d4c	-3.633624
202	0x3fdf7f06	1.746064
203	0x4019df9c	2.404273
204	0xbf8902e3	-1.0704006
205	0xc0b60b0c	-5.6888485
206	0xc0733ad2	-3.800465
207	0xbbffe0c0	-0.0078087747
208	0x409d0425	4.906756
209	0xc0d56cd8	-6.6695366
210	0x3fb15158	1.3852949
211	0xc0658cc8	-3.5867176
212	0x40213390	2.5187721
213	0x3fb44327	1.4082993
214	0xbf4e57d2	-0.80602753
215	0x40d8bfd3	6.773416
216	0x40822079	4.066464
217	0xbf342ac9	-0.70377785
218	0x3f28987c	0.6585767
219	0xbf9dc994	-1.2327142
220	0x404466ee	3.0687823
221	0x405572e1	3.3351367
222	0xc04285a8	-3.0394077
223	0xc026b56e	-2.6048236
224	0xbe234142	-0.15942863
225	0xbfa68a8e	-1.3011034
226	0x40b7e248	5.746372
227	0x3f964cd6	1.1742198
228	0x3ffe5a5e	1.9871328
229	0x40f7a058	7.738323
230	0xbfe3abe3	-1.7786831
231	0xc099a282	-4.8010874
232	0x3e524b30	0.20536494
233	0xc050d356	-3.262899
234	0xc08b547b	-4.3540626
235	0x3e3f2240	0.18665409
236	0x40a4da52	5.1516504
237	0xbf864802	-1.0490725
238	0x3f08414a	0.53224623
239	0x406fb57c	3.745452
240	0x40b8f094	5.7793674
241	0xc10c3622	-8.763216
242	0xc022d36a	-2.5441537
243	0x40b26cdc	5.5757885
244	0xc08fc847	-4.493198
245	0xbd839bf0	-0.06426227
246	0xc03873bc	-2.8820639
247	0x40d82b2a	6.755269
248	0x4072f23a	3.7960343
249	0xbd05a708	-0.032629997
250	0xbf18ea54	-0.59732556
251	0x40474a7c	3.1139212
252	0xbfd5b815	-1.6696802
253	0xbf243e91	-0.6415797
254	0x40bdfb99	5.9369626
255	0x3e8f27a4	0.2795993
