hw4/tests/hw4_extra/data/test_transformer_model-8-5-27-64-4-8-32-True-0.0-cuda().npy (npy, 4448 bytes, 1 tensors)

array f4 [8, 5, 27]
000000 4f c4 e8 40 8a e5 2b 40 a2 1c c4 40 6f 4a 3b c1
       7.2739635 2.685885 6.128495 -11.705672
000010 aa 76 2d 3f a7 1c 60 40 b0 20 ee 40 6a aa 75 40
       0.6775919 3.5017488 7.44149 3.8385262
000020 04 30 81 40 98 e8 22 c1 1d f6 70 3f bc e2 9c c0
       4.0371113 -10.181786 0.9412554 -4.9026775
000030 68 90 ac c0 aa cf 83 40 c3 d0 c0 c0 66 33 9f bf
       -5.3926277 4.1190996 -6.0254836 -1.243756
000040 2f d3 08 41 8a 08 10 c1 9e d9 0c 3f 01 ae 0f 40
       8.5515585 -9.002085 0.5501956 2.2449954
000050 40 70 22 bd 9f 22 5b c0 af ff 61 c0 8b ee 93 c0
       -0.03965783 -3.423988 -3.5312307 -4.622869
000060 f8 46 5f 40 55 7a e9 3f 84 d0 30 3f 96 4b 4b 40
       3.4887066 1.8240458 0.6906817 3.1764884
000070 11 f5 94 40 2c 0f ec 40 49 a5 13 c1 00 e6 18 bf
       4.6549153 7.376852 -9.227853 -0.5972595
000080 74 5e b9 bf 6a 67 e6 40 a0 6e 8c be d8 d6 e2 bf
       -1.448195 7.200124 -0.2742815 -1.7721815
000090 d3 7f 15 c1 5d ee c8 3f f5 cb 07 c1 20 c4 3a 40
       -9.343707 1.5697743 -8.487294 2.9182205
0000a0 ec 66 9d 40 1d e9 c1 bf 7c 38 f3 bf 52 90 f2 40
       4.9188137 -1.5149266 -1.9001613 7.580117
0000b0 72 6a 0a c1 70 60 c9 3f b8 5f e4 be 2c 64 8e c0
       -8.650988 1.5732555 -0.44604278 -4.449728
0000c0 10 4a f3 bd 7c 72 75 c0 a4 27 1d c0 53 be ad 40
       -0.11879361 -3.8351126 -2.4555445 5.429483
0000d0 5c f9 d2 c0 1b c8 93 c0 9c c0 1b 40 b5 a9 e5 3f
       -6.5929394 -4.618177 2.433631 1.7942415
0000e0 d6 ae 3f 40 6c 10 ac c0 41 76 2f 40 15 0c 95 3f
       2.9950461 -5.3770046 2.7415926 1.1644312
0000f0 4c bf d4 3e 88 95 eb 3f 7a 34 00 41 10 37 ee c0
       0.41552198 1.8405008 8.012812 -7.4442215
000100 b4 70 31 c0 18 ad cf c0 d3 e0 d8 bf 4c cd f4 40
       -2.7725039 -6.4898796 -1.6943611 7.6500607
000110 a8 85 56 3e 60 22 8a 3d 17 cf 39 41 37 a9 05 c1
       0.20949423 0.06744838 11.613059 -8.353812
000120 fe 11 89 c0 dd 03 e1 40 01 6f 4f bf 18 27 88 bf
       -4.2834463 7.0317216 -0.81028754 -1.063693
000130 f4 f2 73 3f 44 d5 c6 c0 30 b9 a1 40 93 ed df bf
       0.9529259 -6.2135334 5.053856 -1.7494377
000140 4c 0f dd 3e 72 da e4 40 20 98 23 40 b8 d1 68 bf
       0.43175733 7.1516657 2.55616 -0.90945005
000150 4c 8d 88 c0 6c b8 5c c0 c1 43 98 be 23 28 30 40
       -4.267248 -3.4487562 -0.29739192 2.7524498
000160 a0 f4 3d 40 72 e9 12 c0 5e 7e da c0 b8 bd 10 c0
       2.9680557 -2.2954984 -6.8279257 -2.2615795
000170 57 b6 ef c0 16 d3 68 40 12 54 d8 40 54 b1 b9 bf
       -7.4910083 3.6378837 6.7602625 -1.4507241
000180 30 20 1e be ed c5 f4 40 dc 45 56 be 12 5b 15 3f
       -0.15441966 7.649161 -0.20925087 0.5834209
000190 e6 5b 89 3f 7e 13 2c c0 9f 82 06 c0 a8 b2 99 3e
       1.073117 -2.6886897 -2.1017225 0.30019116
0001a0 94 e1 5c 3f 92 a7 82 40 8b 45 38 c1 00 48 e6 bd
       0.86281705 4.0829554 -11.516978 -0.11244202
0001b0 c8 26 8d 3f 12 e7 04 40 9e 30 69 be ce 51 0f c1
       1.102746 2.0766034 -0.22772452 -8.957472
0001c0 77 d8 13 40 b8 c8 3d be 9c e9 70 40 d8 7a 90 40
       2.310087 -0.185336 3.7642584 4.5149956
0001d0 ae cb 53 40 f0 74 39 c1 c4 c0 9e bf 8e 6a 1b c1
       3.3093066 -11.591049 -1.2402577 -9.713514
0001e0 3c 27 3f 40 4e 0a 1e 41 0c 7b 01 40 d4 d4 31 3f
       2.9867697 9.877516 2.0231352 0.69465375
0001f0 c2 57 07 41 ce 74 b6 c0 9c fe 85 3e 14 92 6f 40
       8.458925 -5.7017584 0.26170814 3.743291
000200 70 60 1d c0 26 94 9d c0 c8 0d 73 be a0 0a 55 bf
       -2.459011 -4.9243345 -0.23735726 -0.8321934
000210 fe 4b 77 40 b4 eb 19 c0 19 6c f4 3f 63 e9 4a 40
       3.8640132 -2.4050112 1.9095489 3.1704948
000220 0c ee 87 bf 85 62 a6 3f c8 d7 05 c1 f2 50 08 c0
       -1.0619521 1.2998816 -8.365181 -2.1299405
000230 ff a2 ea 40 f7 f0 d3 3f 4f d5 d6 3f 26 40 20 bf
       7.332397 1.6557912 1.6783847 -0.6259788
000240 a3 c4 09 c1 3a 62 75 c0 6b af 4c c0 ac 3d 09 3f
       -8.610507 -3.8341203 -3.1982067 0.5360973
000250 e9 cf e0 40 90 d4 48 be b9 e3 01 c1 f6 24 cb 40
       7.0253797 -0.19612336 -8.118096 6.348262
000260 46 d7 16 40 2c ad cc be ec e6 0b bf e6 ce d7 be
       2.3568892 -0.3997587 -0.54649234 -0.42150038
000270 60 2d 61 c0 92 c4 57 c0 fa 9e 34 40 a4 09 5a 40
       -3.5183945 -3.3713727 2.8222032 3.4068384
000280 c4 e0 67 bf 84 91 12 c0 b2 c1 ca 40 f6 19 eb 40
       -0.9057734 -2.2901316 6.3361444 7.346919
000290 c0 d4 c0 3e 53 ee 9f c0 ba 1f 20 40 4e a2 b0 3f
       0.37662315 -4.9978423 2.5019364 1.3799531
0002a0 3c 63 ba 3e a0 e2 0b bf 0f d9 19 c0 d0 bd 1d c1
       0.36403835 -0.5464268 -2.4038732 -9.858841
0002b0 60 72 c2 be b7 8e 45 c0 b2 42 81 40 44 bb 33 41
       -0.37977886 -3.0868356 4.0393915 11.233219
0002c0 b1 74 38 c0 b0 89 8b be be 61 2a 40 e3 30 10 c1
       -2.8821223 -0.27253485 2.6622157 -9.011935
0002d0 94 a7 5d 40 7d e9 b4 c0 5f 79 3f 40 a8 88 81 40
       3.4633532 -5.653502 2.991783 4.0479317
0002e0 50 bc 96 bf 6f a1 dc bf ff 33 9a 40 81 0a a4 c0
       -1.1776218 -1.7236766 4.818847 -5.126282
0002f0 33 b9 80 c0 9e fa 47 c0 c8 03 02 bf 47 a5 bb 3f
       -4.0226073 -3.1246715 -0.5078702 1.4659814
000300 f2 71 21 c0 7a 2f 79 c0 44 fa dc c0 10 40 68 40
       -2.5225797 -3.8935227 -6.90555 3.62891
000310 84 a5 4a bf 17 20 b4 c0 ac d7 f6 c0 56 cc 1d 3f
       -0.79158807 -5.628917 -7.713827 0.61639917
000320 14 c2 1d c1 b7 08 a3 40 cf a5 8c 40 19 82 6e 40
       -9.859882 5.094814 4.3952403 3.7266905
000330 f4 24 46 3f 68 94 d7 be 72 68 e7 c0 4e 47 52 c0
       0.77400136 -0.42105412 -7.2314997 -3.285602
000340 25 8b 7e 40 fa 3b 56 3f e1 da e0 bf f8 78 43 c0
       3.9772427 0.83685267 -1.7566797 -3.0542583
000350 eb 65 05 c0 46 03 a5 40 8f 4e 62 40 d8 87 55 40
       -2.0843456 5.1566496 3.5360448 3.3364162
000360 9a 38 fa 40 c2 06 d9 40 b7 e0 66 c0 cf db 11 c1
       7.8194094 6.782075 -3.6074655 -9.116164
000370 3c 79 b9 be 98 26 ee 3f 96 65 bd bf 17 82 45 40
       -0.36225307 1.8605528 -1.4796627 3.086065
000380 7f b2 50 c0 8c 9c b9 c0 8e 4a 11 40 a0 6b 15 bf
       -3.2608945 -5.8003597 2.2701755 -0.5836735
000390 1c a0 db 3f 95 84 40 41 cb 69 44 c0 98 ea 58 c0
       1.7158237 12.032369 -3.068957 -3.3893185
0003a0 ad ab 69 40 4c 6c 9e bf 80 ff da 3e f2 94 37 c0
       3.6511033 -1.23768 0.42773056 -2.868466
0003b0 83 2c 10 41 5e 25 00 c0 be 30 a7 3e 0e b4 16 40
       9.010867 -2.0022807 0.32654375 2.3547397
0003c0 22 68 3b 40 c2 f7 06 c1 02 9c bb c0 ce 66 0c 41
       2.9282308 -8.435488 -5.862794 8.775099
0003d0 ec 90 4f 3f fc 81 67 bf 84 e9 20 c1 9f 25 ab 40
       0.8108051 -0.90432715 -10.057011 5.3483424
0003e0 93 1c 8b 40 a6 b2 f4 3f 3b b5 13 41 fc 33 7d 40
       4.347238 1.9117019 9.231746 3.9562979
0003f0 52 dd ce c0 f8 03 ac bf 38 21 d9 bf 40 f0 2f 3d
       -6.4645166 -1.3438711 -1.6963263 0.04295373
