hw4/tests/hw4_extra/data/test_attention_layer-8-5-27-8-32-True-0.1-cpu().npy (npy, 4448 bytes, 1 tensors)

array f4 [8, 5, 27]
000000 6f 82 15 bf 14 fb 6d 3c 6d f2 52 c0 27 37 b9 bf
       -0.5840215 0.014525194 -3.2960465 -1.4469956
000010 ea 1a d5 bd d5 a4 36 c0 8b 3b 2d 40 b0 52 7a 3e
       -0.10405524 -2.8538105 2.7067592 0.24445605
000020 33 d8 0f c0 6b d6 64 c0 8a 2a 86 3e d3 c6 be c0
       -2.2475708 -3.575587 0.2620433 -5.9617705
000030 6b d7 e2 3e c8 04 f2 bf 7f f1 e4 3e 0a f2 31 bf
       0.44304976 -1.8907709 0.44715497 -0.6950995
000040 ae 58 09 c0 b3 05 02 3a ff 1b c0 bf 36 c2 86 bf
       -2.1460376 0.00049599557 -1.5008544 -1.0528018
000050 9d 8c 2d 40 06 2c 4b be 82 40 7b 3f 2d cb 44 3f
       2.7117074 -0.19841012 0.98145306 0.7687252
000060 de 51 67 c0 ab 84 85 3f 60 ab b7 be 45 fe 7f bf
       -3.6143718 1.0431112 -0.35872936 -0.9999736
000070 7b 0b 46 3f 94 03 39 bf 32 03 94 bf 15 c2 03 3f
       0.7736127 -0.72271085 -1.1563475 0.5146802
000080 01 a0 7f c0 39 3c 38 bf 18 fc 88 3e af 33 c5 bf
       -3.9941409 -0.7196689 0.26754832 -1.5406398
000090 4e fa a8 3d ef a2 0a bf f8 3a dd bf 66 4e 0f 40
       0.08250867 -0.54154867 -1.7283621 2.23916
0000a0 20 af d4 bf 6d 60 39 bf 0b cf 05 40 ee 32 d2 bf
       -1.6615944 -0.7241276 2.090762 -1.6421793
0000b0 63 0c 03 40 da 12 01 c0 8a 34 57 3f bb 59 c1 3e
       2.047631 -2.0167756 0.84064543 0.3776377
0000c0 d2 10 70 bf 55 66 9d bf fc a1 cb bf ce c4 57 c0
       -0.93775666 -1.2296854 -1.5908809 -3.371387
0000d0 2e c2 da 3f 3a bf 3c bf 93 e1 d3 3f ed db 30 be
       1.7090509 -0.7372929 1.6553215 -0.17271395
0000e0 ea 09 01 c0 a5 4c 3b c0 a5 1c 0a 3f 1c 2a 7b c0
       -2.01623 -2.926553 0.5394996 -3.9244452
0000f0 2a 18 30 3d 3d 85 19 3f 3b 0a 29 40 06 fe f1 bd
       0.042991795 0.5996893 2.6412494 -0.11816029
000100 ae b0 c7 3e ac ad 49 bf 82 97 04 3e 64 50 e7 3e
       0.39001983 -0.7878063 0.1294842 0.4517852
000110 0b f6 92 c0 ee 50 ed 3f b3 16 2a c0 2a b6 cf bf
       -4.5925345 1.8540323 -2.6576355 -1.6227467
000120 81 0e ce 3f 6a f9 11 c0 c2 14 78 bf 9f 99 3f bf
       1.6098176 -2.280848 -0.96906674 -0.7484378
000130 1b b2 63 bf 56 bf 0d bf 26 af 9d bf 8a 7c 9b 3f
       -0.8894364 -0.5537008 -1.2319076 1.2147381
000140 f9 3a bb 3f 0a 0b f4 bf a1 d3 4f bd be f3 a3 be
       1.4627372 -1.9065869 -0.050738934 -0.32021898
000150 f1 df e7 be 94 37 d0 bf 42 d0 4b c0 df b6 72 c0
       -0.4528804 -1.6266961 -3.184586 -3.7924116
000160 80 b9 4d 3f 70 4e 57 3f 7b 58 2f bf c9 e0 c7 3b
       0.80361176 0.8410406 -0.68494385 0.0060997945
000170 84 50 18 c0 71 69 38 3f 66 24 52 40 2e 27 cc bf
       -2.3799143 0.7203589 3.2834716 -1.5949457
000180 0e c7 97 40 38 d7 79 c0 12 a3 74 40 31 7b 2a 3f
       4.7430487 -3.903761 3.822453 0.66594225
000190 8a e6 e5 3f b8 d9 1f 3e d1 ab aa 3e 7e 1b 0b c0
       1.796098 0.15610397 0.3333421 -2.173553
0001a0 40 f7 18 c0 9b 45 66 c0 85 28 de 3f 33 6d 86 3f
       -2.390091 -3.5979984 1.7356116 1.0502075
0001b0 6a 59 89 3f 01 fc c7 bf df f4 2f 3f 68 6f 88 bf
       1.0730412 -1.562378 0.6873302 -1.0658998
0001c0 ff ac 27 40 90 3a 23 3c e3 b7 60 3f c5 6f 4b 3f
       2.6199338 0.009962693 0.8778059 0.7946742
0001d0 11 f6 60 40 e6 7b d8 3f 05 3f d4 3f ab 18 90 3f
       3.5150187 1.6912811 1.6581732 1.1257528
0001e0 31 f2 2c bf 0d d1 31 bf d0 36 ad c0 8b 14 79 be
       -0.67557055 -0.6945961 -5.412941 -0.24324243
0001f0 c3 79 2a c0 df 4c 81 bf 77 fa 18 3e 21 80 0f c0
       -2.6636817 -1.0101584 0.14939295 -2.2421954
000200 71 be 77 3d 6a 31 36 3f de 4a b6 3e bc 71 90 be
       0.060484353 0.7116915 0.35603994 -0.28211772
000210 f9 8b 84 bf fe d3 20 40 e0 0c 8e bf 7d f5 47 c0
       -1.0355216 2.512939 -1.1097679 -3.1243584
000220 86 1f 51 be bf 45 06 3f 8b b6 22 c0 5a 50 92 bf
       -0.20422181 0.52450174 -2.5423915 -1.1430771
000230 1c 99 f1 be 12 d3 e6 3f f0 e5 2e 40 96 f9 19 c0
       -0.47187126 1.8033164 2.7327843 -2.4058585
000240 59 a1 43 bd 8e 5d bb bf f7 53 bb bf 72 7f a5 c0
       -0.047761295 -1.4637926 -1.4634999 -5.1718073
000250 11 bd 8e 40 0f cc 45 3f 7b f8 f3 3f 20 e9 b4 bd
       4.4605794 0.77264494 1.9060205 -0.088335276
000260 fc 9e d3 40 75 5f 81 3e ea 17 2b 40 6c df 36 3f
       6.6131573 0.2526814 2.6733346 0.71434665
000270 2a 53 19 bd de ed 29 40 60 88 1a 40 40 a4 77 3f
       -0.037432827 2.6551433 2.4145737 0.96735
000280 41 d2 16 bf b9 f8 d0 bf cb c9 b6 bf e8 11 89 bf
       -0.5891457 -1.6325904 -1.4280332 -1.070859
000290 ef 56 e2 3d 38 2d bb bf 2b 36 c0 3f 28 ed 45 c0
       0.110517375 -1.4623175 1.5016531 -3.0925999
0002a0 0a 07 03 40 ac 2d 2f bf db 14 dc bf b7 46 2a 40
       2.0473046 -0.68429065 -1.7193865 2.660566
0002b0 2f 4d fd 3e bb 41 06 c0 46 f1 3e c0 49 57 f5 3e
       0.4947295 -2.0977619 -2.9834762 0.47918156
0002c0 43 ba 97 bf c1 af ea 3e db 8a 97 3c 3d 72 c2 3f
       -1.1853718 0.45837215 0.018498829 1.5191113
0002d0 41 f4 96 3f c6 a0 55 bf a4 b3 b6 3e 05 e7 06 be
       1.179329 -0.83448446 0.3568393 -0.13174064
0002e0 30 30 a6 3f 84 bc a4 3d 04 0c 20 bf 7f 60 8c be
       1.2983456 0.08043769 -0.62518334 -0.2741737
0002f0 96 34 77 be 5b c1 0e bf 8f 4d 4a 3f 6e 8f 81 3f
       -0.24141154 -0.5576379 0.79024595 1.0121896
000300 ed 3e 42 3f 56 a1 32 3f b8 15 ff bf 9b 40 c3 3f
       0.7587727 0.6977743 -1.9928503 1.5254091
000310 ce c3 9a 3f be 42 f7 3d 6c 99 e4 3f ef e3 9d 3f
       1.2091005 0.12073277 1.7859321 1.2335185
000320 27 f9 c5 bd ac 61 7f 3f 44 a6 de bf cf f9 7a bf
       -0.09666663 0.9975841 -1.739449 -0.9803743
000330 58 6a a0 be 7d f7 63 3f 07 7b 53 bf 34 d6 72 be
       -0.31331134 0.8904951 -0.826096 -0.23714525
000340 59 90 09 bf 40 d6 d9 3e 31 59 04 3f 62 92 99 be
       -0.5373588 0.42546272 0.51698595 -0.29994494
000350 7b f3 4d c0 c0 9d f6 bd 12 73 0f 40 0e f1 41 c0
       -3.2179859 -0.12041807 2.2413983 -3.0303378
000360 e6 3e 4c bf 37 d5 22 bf 8b 5e 29 3f 65 5c 30 3f
       -0.79783475 -0.6360659 0.66159886 0.6889098
000370 16 33 ef bd ff 81 73 bf ab 56 66 bf 97 5d 7b bf
       -0.11679666 -0.95120233 -0.89975995 -0.9818968
000380 f1 f4 f4 be 98 8c 2c bf ef f0 2d 40 44 7e 06 3f
       -0.47843125 -0.6740203 2.7178304 0.52536416
000390 00 e4 20 40 83 7d a0 3f a5 c3 f9 bf cf 17 2e bf
       2.513916 1.2538303 -1.9512831 -0.6800508
0003a0 c7 95 7d bf 26 07 ea 3f 4f 7d c9 bd ce 66 ee bf
       -0.9905667 1.8283432 -0.09838354 -1.8625124
0003b0 31 31 a3 3f 8e b0 00 3e 89 dd f1 3e a2 fe e7 bf
       1.2749387 0.1256735 0.4723933 -1.8124583
0003c0 48 2a 74 be 59 e0 06 3f b9 94 ba be b0 63 28 bf
       -0.23844254 0.5268608 -0.3644159 -0.6577711
0003d0 43 58 7e 3f 60 40 f0 3f bb bb b5 3f e6 a9 ce be
       0.99353427 1.8769646 1.4197916 -0.40363997
0003e0 b5 6d 62 bf 64 98 37 3f db 49 8f 3d fc ea 33 3f
       -0.8844865 0.71716905 0.06996509 0.7028043
0003f0 b7 7f 5f bf 89 5a 63 40 de ea 5b 3e cd 48 fb 3f
       -0.8730425 3.5524008 0.21476313 1.9631592
