hw4/tests/hw4_extra/data/test_transformer_layer-4-11-27-8-32-64-False-0.0-cuda().npy (npy, 4880 bytes, 1 tensors)

array f4 [4, 11, 27]
000000 ee 63 91 40 e4 04 52 be 48 4d 72 3f c4 cc df bf
       4.5434484 -0.20509678 0.9464917 -1.7484365
000010 ae 54 eb bf 3d 26 83 40 04 5a 21 3e 2c b8 59 c0
       -1.8385217 4.0984178 0.15756994 -3.401866
000020 6f 01 06 3f 00 4c c9 3f 84 0b 03 c0 6d f4 06 40
       0.5234594 1.5726318 -2.0475779 2.1086686
000030 a3 ca 4f c0 72 d1 4c 3f 6c 52 ab bf 36 27 6d 40
       -3.246743 0.8000709 -1.3384528 3.7055182
000040 f0 6a 19 40 98 fd 86 bf fe 98 ad bf 4a fa 63 bf
       2.397152 -1.0546141 -1.3562315 -0.89053786
000050 bc 7e 12 40 50 1b 69 be aa 49 4d be 4f 30 13 c0
       2.2889853 -0.22764325 -0.20047632 -2.2998235
000060 6c d7 cf bf 0c d2 d3 3f 60 89 58 bf 82 c7 83 40
       -1.6237617 1.6548476 -0.8458462 4.118104
000070 8d cd 97 3f 2c 4c 3b be ed e0 14 3f 66 bb 82 bf
       1.1859604 -0.18290776 0.5815571 -1.021344
000080 a3 06 8b 40 82 55 88 3f 06 79 b4 3f a5 ef aa bf
       4.34456 1.0651095 1.4099433 -1.3354384
000090 1c 4b 47 c0 3c 9e 84 bf 94 64 bb bf 6e 9f 0f 40
       -3.1139593 -1.0360789 -1.4640069 2.2441058
0000a0 f0 8c 6c 40 39 53 f1 3f b8 bb 26 40 12 5c 3f 40
       3.6961021 1.8853523 2.6052074 2.9899945
0000b0 60 04 86 3f 07 67 ca 3f 95 94 96 bf 20 f0 fc 3d
       1.0470085 1.5812691 -1.1764094 0.12350488
0000c0 a4 99 c2 be 28 ac 84 3f d3 37 32 3e c4 a6 d5 be
       -0.38007843 1.0365038 0.17404108 -0.41728795
0000d0 18 9c 8f bf f2 70 3b 3f 5f b2 bc 3f af 4f a9 bf
       -1.1219511 0.73219216 1.4741935 -1.3227443
0000e0 35 5c d3 bf 55 f9 50 c0 c8 d4 f4 3d 00 5e b1 3c
       -1.6512514 -3.265218 0.11954647 0.021651268
0000f0 48 55 00 3f 9b ee ee bf 56 ea 1d 40 70 a6 ea 3f
       0.5013013 -1.8666567 2.4674277 1.8332043
000100 1d e9 44 bf 9e 45 67 40 14 dd 0e 40 7d 9a 9c 3f
       -0.769182 3.613624 2.2322435 1.2234646
000110 4a 9a e2 bf 5a 2e 29 bf bc 4c 2f 40 67 bd b1 3f
       -1.7703335 -0.6608635 2.7390585 1.3885926
000120 1a 1e 6e c0 e4 ac e1 be 28 97 23 40 3e 14 a1 be
       -3.7205873 -0.44077218 2.5561008 -0.31460756
000130 f8 4e a1 3e e0 21 18 3f 65 82 3e 3f 3f a4 c6 3e
       0.3150556 0.5942669 0.74417716 0.38797185
000140 bc 9e 34 40 5a c0 01 c0 ae f2 75 3e 42 f2 c6 3f
       2.8221884 -2.0273652 0.24018356 1.5542681
000150 c6 32 09 3f 7c b3 20 3e e0 f5 5f bd 5e ce 58 c0
       0.535931 0.15693468 -0.054677844 -3.3875957
000160 88 83 a7 3e 76 6a bf bf 2c 02 ee 3f f9 16 58 bf
       0.32717538 -1.4954364 1.8594413 -0.84410053
000170 f5 cc 6b 40 28 1c c5 bf 69 cc 83 be cb f2 a8 3f
       3.6843846 -1.5399218 -0.2574189 1.3199095
000180 7d 51 b8 bf 41 a7 09 c0 3f c7 d8 3f 1c b3 27 bf
       -1.4399868 -2.1508334 1.6935805 -0.65507674
000190 98 f1 df bf f6 b5 3e bf 08 db b6 be 60 57 0e 40
       -1.7495604 -0.744964 -0.35713983 2.224083
0001a0 18 5a 64 bf 80 e3 c6 3f 30 ac 04 bf 23 12 c0 bf
       -0.8919997 1.5538177 -0.5182524 -1.5005535
0001b0 2d bf d3 3f 58 f5 80 3e f3 b7 26 c0 ee 96 6f bf
       1.6542717 0.25187182 -2.6049774 -0.93589675
0001c0 6e 21 8b be ec f8 a4 3f 3a 61 cf 3f 7f 3f 70 bf
       -0.27173942 1.2888465 1.6201546 -0.9384689
0001d0 bc 8f 20 3f 3c 03 20 3f 44 89 0c c0 24 86 9c bf
       0.6271932 0.62504935 -2.195878 -1.2228436
0001e0 df 94 ba bf da f5 4d 3f df d3 c1 bf f8 f5 bb bf
       -1.4576682 0.80453265 -1.5142783 -1.4684439
0001f0 d8 85 16 3f 13 8e 99 3f 4a 6b 8c bf 1a 80 24 c0
       0.5879798 1.1996483 -1.0970242 -2.5703187
000200 22 75 05 40 1e a3 5e 3f a4 6a 20 c0 f0 d8 7d bf
       2.0852742 0.8696765 -2.5065088 -0.99159145
000210 88 1f 57 3f 36 51 8f 40 b3 17 07 40 32 c3 62 be
       0.8403249 4.4786634 2.1108215 -0.22144774
000220 f6 54 40 3f c6 cd ce 3f 19 1c e6 be f6 5d a3 3f
       0.7512964 1.6156547 -0.44943312 1.276305
000230 50 dd c0 bc 80 61 b6 bb c1 c4 9b bf be 58 e5 be
       -0.02354303 -0.005565822 -1.216942 -0.44794267
000240 b6 1b 21 bf f0 31 17 c0 3f 38 07 3e 2f 1e 52 c0
       -0.6293291 -2.362423 0.1320505 -3.2830923
000250 c2 b4 05 3f 69 60 05 3f fb 60 13 bf 61 1d ba 3f
       0.5222894 0.52100235 -0.57569855 1.4540216
000260 75 51 de 3f e0 51 82 be 40 5e 06 bf 4c f9 a3 3d
       1.7368609 -0.2545309 -0.52487564 0.08006534
000270 ee 1d 00 3f b6 c1 19 3f 5c 55 12 bf 68 e4 00 c0
       0.5004567 0.60061204 -0.571615 -2.0139408
000280 b8 61 94 3f 0c 0f f0 be 3c 02 d7 3f 87 6a 05 c0
       1.1592321 -0.4688648 1.6797557 -2.084627
000290 ce 0f 5f c0 a8 61 8d c0 fa 50 70 bf 88 88 f8 3e
       -3.4853396 -4.418171 -0.9387356 0.48541665
0002a0 73 2c 26 bf c6 6b 1f c0 68 59 dd 3f a2 64 59 3f
       -0.64911574 -2.490953 1.729291 0.8491918
0002b0 24 1a 90 3e 5c ce 32 40 b8 e9 bd 3d 01 72 cc 3f
       0.28144944 2.7938452 0.09273094 1.5972291
0002c0 6c b2 55 3f e5 1f b7 3f 38 ac 34 40 76 b9 29 3f
       0.83475375 1.4306608 2.8230114 0.66298616
0002d0 30 e6 84 bf 8a 5b 27 c0 0e 28 2d 40 be e2 0e c0
       -1.0382748 -2.614962 2.7055697 -2.2325892
0002e0 df 93 89 bf 2b 0b de bf 62 c5 57 40 98 5c 0d 3f
       -1.0748252 -1.7347158 3.3714223 0.5521941
0002f0 7c 90 58 40 c8 2b 5a 3f eb 48 59 c0 62 1d db 3e
       3.3838186 0.85223055 -3.3950756 0.42795855
000300 58 8a 63 3e fd 19 79 3f 7c 02 29 40 60 4c 17 40
       0.22220743 0.9730528 2.6407766 2.3640366
000310 78 9c 27 3d aa 75 b9 bf f2 a7 08 bf 8d f5 47 bf
       0.040920705 -1.4489033 -0.53381264 -0.78109056
000320 07 a3 be be 3c f6 7c c0 f4 42 e1 3e 00 c2 61 3e
       -0.37233755 -3.952529 0.43996394 0.22046661
000330 56 bb 12 bf ec 77 02 40 72 82 4a 40 c1 08 d0 be
       -0.573171 2.0385695 3.1642118 -0.4063168
000340 3d a1 b6 bf b8 a8 a2 bf 52 b9 e2 3f 04 c0 78 bf
       -1.4267956 -1.2707739 1.7712805 -0.9716799
000350 e0 c4 67 3e 34 a8 1e c0 01 04 cb 3e 3d 48 bc 3f
       0.22633696 -2.4790163 0.39651492 1.4709545
000360 ea 31 b4 bf d0 3c 25 c0 e5 ab 30 3f 4e 06 03 c0
       -1.4077733 -2.5818367 0.6901229 -2.0472598
000370 ec ad 43 3f 53 5c e1 3f d8 fa 21 3e 2d ac fd be
       0.7643726 1.76063 0.15818346 -0.49545422
000380 78 6b 11 bf c4 60 cf 3e c2 6a 79 bf f3 a0 ab 3f
       -0.5680461 0.40503514 -0.97428524 1.3408493
000390 14 82 90 3f 92 4a 34 3e 88 8c a2 3e 56 a4 e0 bf
       1.1289697 0.17606571 0.31747842 -1.7550151
0003a0 5a 59 01 c0 0e fd 3a 3f 31 43 8e bf e0 3d de bd
       -2.0210786 0.7304238 -1.1114255 -0.108516455
0003b0 c4 c4 bb 3e 5c a6 44 40 3b f0 00 40 4a c5 b7 bf
       0.36673558 3.0726538 2.0146625 -1.4357083
0003c0 e1 da 22 40 fb 03 e8 bf f9 65 d6 bf 5e dc 6f 3f
       2.5446093 -1.8126215 -1.674987 0.9369563
0003d0 89 7e 71 bf af 49 24 bf 78 d5 86 bf bf 33 34 40
       -0.943337 -0.6417493 -1.0533895 2.8156583
0003e0 39 dc 24 40 fa c6 32 40 57 87 dc bf 81 a3 e6 3f
       2.5759413 2.7933946 -1.7228802 1.8018647
0003f0 73 1a 9c 40 1f 1d dc be 02 67 c8 40 1f 6c a8 bf
       4.8782287 -0.42990968 6.262574 -1.3157996
