hw4/tests/hw4_extra/data/test_transformer_layer-2-5-27-8-32-64-False-0.0-cuda().npy (npy, 1208 bytes, 1 tensors)

array f4 [2, 5, 27]
-2.844898 -0.26414174 3.5569608 2.4886403 4.2868776 -1.5070189 -0.82301736 1.8710951
-0.21062195 -2.9819705 0.43818688 6.441819 -0.29690266 -3.570481 -3.9250445 -0.11275363
2.5791492 1.146358 1.6706187 2.4144096 2.1847446 2.2066374 -1.0727093 -2.3835244
4.9515495 3.7050004 -4.3630834 -2.3857946 -0.07010418 -0.31779075 1.6418517 -0.32026157
3.6652675 -0.28363335 1.2572529 3.6859596 -1.1098931 0.80043817 3.7127876 -3.005189
-4.5956693 2.1983135 -0.25929296 -0.5690488 2.976568 2.1919444 2.4094422 0.8066418
0.44849938 -2.1813393 -1.9401894 5.9381595 2.7885041 1.6855925 -2.611505 -0.5816448
-1.9441597 -1.7183316 2.5848641 -3.1780548 -1.7757521 0.19641137 -1.7125142 -2.7032695
1.5398173 2.3681045 -0.1158931 -4.1053486 -3.2809482 -1.5440854 3.163738 1.1806177
1.7843751 3.1123686 0.8417063 0.464526 -2.541656 1.4488785 2.7648025 3.3034701
-0.9819355 -0.33222103 1.0214866 0.47973508 -1.7716589 0.44030464 1.5661709 0.5316472
-0.41547444 -3.0957837 -2.624416 0.47208124 2.9489412 -2.8758028 -1.371207 -0.506051
0.047171712 -1.1493541 0.21783438 1.5407386 2.9747493 1.9134576 2.752429 -0.8675102
-0.009040594 2.347921 2.3118873 -2.2014349 -3.4120092 0.59817386 -0.99720544 -1.5645883
2.3689957 -2.9895434 -0.6007452 2.008473 -1.6099432 -2.6254387 -0.41709602 2.602207
0.5311334 -4.35758 -3.1561897 -1.6606117 1.4353628 2.567079 1.7976999 2.1596394
0.8755264 1.8479431 -2.5513494 -0.8319876 3.4820132 2.3503923 -0.5422045 -0.37289295
-4.5935926 0.09276521 -2.0656252 1.1400154 -2.217709 -0.17807579 1.492102 -0.21164441
1.827666 -1.882679 3.0252323 -0.2718848 -2.0770597 -0.8378583 0.49101043 -1.9393873
-0.26413047 1.3059096 3.1159878 -0.8874988 2.6677482 -2.118832 -3.3222842 0.2623197
1.2564723 -1.5787508 0.13627934 0.95251167 -1.153113 -1.4655108 5.9827824 -0.6012161
1.9436743 1.6026785 -1.6319922 -0.084055424 0.4909053 -0.16505873 2.4977274 -1.7344041
-6.5796585 1.8229648 0.31169796 2.0387025 3.6267986 2.0230975 -1.9059321 0.5016514
0.09480536 -0.19617057 4.6794915 0.42768383 0.39762825 -1.0216441 -3.1880429 2.3064702
1.524205 5.6557302 -3.3387668 -0.09591019 2.6031713 -0.95182306 0.0662446 -1.517139
2.5342622 1.1064391 -1.1677606 -0.70021296 2.5801208 2.042261 1.0979706 -0.75210404
2.2481403 -0.303869 -0.95898426 -1.8381176 -3.6229804 1.1282771 -2.428661 -1.6621988
-0.10161114 -0.07055354 -1.6370535 -2.6748497 1.8765343 2.1304407 -0.54417086 1.63443
-2.869835 0.19080377 -2.3046172 2.6743772 2.476975 0.88461685 -0.46772516 1.6847005
-2.79044 -2.739156 3.8068357 2.8347564 -1.1593293 2.8201208 0.65065837 -2.0912638
1.213143 1.8139155 -0.46414888 -0.08373876 -0.86910987 0.3951805 -1.2636591 0.76240695
-0.838227 -1.1258464 0.6833335 -2.0347633 0.46174645 -0.47937855 5.6083946 1.2070673
00000000: cf12 36c0 963d 87be 3fa5 6340 e245 1f40
00000010: 1a2e 8940 ffe5 c0bf 44b1 52bf 0b80 ef3f
00000020: 48ad 57be 9bd8 3ec0 085a e03e 6223 ce40
00000030: a003 98be c382 64c0 ee33 7bc0 60eb e6bd
00000040: c810 2540 dcbb 923f d5d6 d53f b085 1a40
00000050: dbd2 0b40 8c39 0d40 8a4e 89bf aa8b 18c0
00000060: 1873 9e40 ba1e 6d40 619e 8bc0 dcb0 18c0
00000070: c892 8fbd 78b5 a2be 3228 d23f 53f9 a3be
00000080: be93 6a40 6438 91be aaed a03f c3e6 6b40
00000090: fa10 8ebf 84e9 4c3f 509e 6d40 0455 40c0
000000a0: b90f 93c0 2bb1 0c40 0cc2 84be 2fad 11bf
000000b0: 1780 3e40 d148 0c40 4d34 1a40 1480 4e3f
000000c0: b6a1 e53e 109b 0bc0 2058 f8bf 6705 be40
000000d0: da76 3240 7fc1 d73f e622 27c0 ace6 14bf
000000e0: 3ada f8bf 4af2 dbbf 6a6e 2540 4065 4bc0
000000f0: d84b e3bf 1020 493e aa33 dbbf 5e02 2dc0
00000100: bc18 c53f 068f 1740 5d59 edbd 045f 83c0
00000110: 0efb 51c0 97a4 c5bf af7a 4a40 7b1e 973f
00000120: 6766 e43f 0c31 4740 107a 573f 5ad6 ed3e
00000130: 7eaa 22c0 da74 b93f 86f2 3040 0e6c 5340
00000140: 2060 7bbf e018 aabe 13c0 823f d69f f53e
00000150: b8c5 e2bf 9c6f e13e 4a78 c83f 081a 083f
00000160: 11b9 d4be 5221 46c0 6ff6 27c0 a2b4 f13e
00000170: 74bb 3c40 270d 38c0 b683 afbf 8f8c 01bf
00000180: 2037 413d 091e 93bf fa0f 5f3e ec36 c53f
00000190: 4b62 3e40 2eec f43f cc27 3040 2615 5ebf
000001a0: 001f 14bc 5644 1640 f6f5 1340 4fe4 0cc0
000001b0: 5c5e 5ac0 ec21 193f db48 7fbf 6e44 c8bf
000001c0: a09d 1740 ae54 3fc0 70ca 19bf d28a 0040
000001d0: 9e12 cebf 3007 28c0 9c8d d5be 8f8a 2640
000001e0: 5cf8 073f 4c71 8bc0 03ff 49c0 ed8e d4bf
000001f0: f8b9 b73f 064b 2440 081b e63f 8837 0a40
00000200: 8022 603f 6689 ec3f 4f49 23c0 24fd 54bf
00000210: 4ed9 5e40 d46c 1640 eacd 0abf d3eb bebe
00000220: b6fe 92c0 b0fb bd3d 3433 04c0 06ec 913f
00000230: f2ee 0dc0 8059 36be 33fd be3f 50b9 58be
00000240: f6f0 e93f a0fb f0bf 689d 4140 7c34 8bbe
00000250: 8cee 04c0 e27d 56bf b865 fb3e d83d f8bf
00000260: 1c3c 87be 0c28 a73f 586c 4740 1f33 63bf
00000270: 63bc 2a40 f29a 07c0 4ea0 54c0 c54e 863e
00000280: 16d4 a03f 8214 cabf d08c 0b3e ced7 733f
00000290: 3599 93bf dc95 bbbf f472 bf40 4ce9 19bf
000002a0: 52ca f83f 9224 cd3f 1fe5 d0bf 4025 acbd
000002b0: f157 fb3e 2805 29be c4da 1f40 f400 debf
000002c0: 908c d2c0 e956 e93f e096 9f3e 1a7a 0240
000002d0: 781d 6840 6e7a 0140 95f5 f3bf 3a6c 003f
000002e0: 5029 c23d f0e0 48be 65be 9540 60f9 da3e
000002f0: ee95 cb3e 3cc5 82bf e508 4cc0 359d 1340
00000300: 2619 c33f befb b440 5bae 55c0 906c c4bd
00000310: 5c9a 2640 adaa 73bf 40ab 873d 9c31 c2bf
00000320: 5a31 2240 cc9f 8d3f 2e79 95bf 2841 33bf
00000330: b320 2540 67b4 0240 4d8a 8c3f e489 40bf
00000340: 88e1 0f40 b894 9bbe fe7f 75bf 7047 ebbf
00000350: e9de 67c0 626b 903f 2f6f 1bc0 eec2 d4bf
00000360: 8019 d0bd 607e 90bd f88a d1bf bd30 2bc0
00000370: 4732 f03f 2459 0840 c84e 0bbf 0135 d13f
00000380: 60ab 37c0 1062 433e d97e 13c0 ff28 2b40
00000390: c286 1e40 4076 623f ac79 efbe 44a4 d73f
000003a0: 9296 32c0 554e 2fc0 32a3 7340 a66c 3540
000003b0: e764 94bf dc7c 3440 8c91 263f 44d7 05c0
000003c0: 4548 9b3f 622e e83f eca4 edbe 3a7f abbd
000003d0: fc7d 5ebf 1955 ca3e 95bf a1bf 1a2d 433f
000003e0: 0b96 56bf bc1b 90bf f2ee 2e3f 9039 02c0
000003f0: 086a ec3e 1b71 f5be f877 b340 2e81 9a3f
