hw4/tests/hw4_extra/data/test_attention_layer-8-11-27-8-32-True-0.0-cuda().npy (npy, 9632 bytes, 1 tensors)

array f4 [8, 11, 27]
00000000: 9073 44bf 20fb a03f 2a84 8240 2e82 df3f
00000010: ce43 1ec0 935f acbf a9cc e23f 9eb1 2640
00000020: 09f5 ed3f e948 973f 46d3 b1bf 1862 8a40
00000030: fbd7 ffbf d25b 7b3f 5599 4540 d4af 183f
00000040: 608e cc3f c32e 8dbf 0978 973f 8265 f03f
00000050: 031e 733f a8e2 873f ee84 353f 2f31 0bbe
00000060: 1312 aebe 7e70 e93e 3928 b83e 7a8c d5bf
00000070: eba7 4b3f cf3a 4e40 b821 82bf de32 1cc0
00000080: a09c 1dbf 2ab6 823f 1d7f 6b3f 0757 153d
00000090: b3d6 a6bf b6c8 7b3f dc7c 833f 6141 1bc0
000000a0: 4c80 d73f 5578 3140 5747 81be 31eb 233f
000000b0: c9eb 823e 8ddf 1240 4170 6cbf af85 0cc0
000000c0: b189 c13f 0c9f 1540 6340 dd3f 46fc 05bf
000000d0: 2e94 6f3f c2bc 1cbf 770a 1dc0 7b93 0f3f
000000e0: 3153 973f 07f4 ef3f 99d1 4bc0 3a53 363f
000000f0: 153a 3d40 54ff 5b3f ad52 af3f 7ae5 6c3f
00000100: 080d 57c0 a0b9 fcbe 64b9 16c0 47a1 79bf
00000110: c10a d53f ec25 87be 0c5c 6dc0 0f35 8bbf
00000120: 916f 6f3f 9912 2ebf 476a 24c0 3fda 58bf
00000130: b4e8 b73e f2e5 5e40 e1e5 04c0 ceec a43f
00000140: 79a3 1c40 2c59 39bf 43d0 b33f 41ae 783f
00000150: 2539 963f a34b 91c0 c8fe 333f 59cd ee3f
00000160: e0d0 92bd 0c42 d43f 6e2f 6b3e be35 0dc0
00000170: adfc a9bf fd20 893d f040 1dbf 8aee debe
00000180: 0297 febf 1d6a f6bf 4ea2 50bf 90de aebf
00000190: 71a5 f7bf 9416 0840 1036 033d 63dd 1940
000001a0: a3b6 fb3f b800 0cc0 35ec 0a40 9e45 de3f
000001b0: 5f6c 903f f6c6 b5bf 328e 0240 46af 93bf
000001c0: 2079 91bf cf6d 383f 3ae1 88bf 4808 71bf
000001d0: f09d 93bc bb32 04be d6f9 503f 464d ec3e
000001e0: 4a92 a13f 5a53 4a3f 86a3 a240 3145 3b3e
000001f0: 17af 24bf e24c 0e3f 1916 41bf 8c06 78be
00000200: c89e 5dc0 fec6 31c0 d59f a2bf 7cb0 2ac0
00000210: 7145 fb3f 7622 adbe 6699 05be b9d4 41be
00000220: c553 f0bf e481 0340 30b2 1ac0 fc7b cfbf
00000230: 744c 84bd 04ab debe f5bb 9cbf 6760 363e
00000240: 666e 523f 213e 9ebe e194 ea3e a28e a5be
00000250: ab94 933f 0d04 7140 968f 773f 99a0 573f
00000260: 594a 69bf c7a0 55be 2d91 dc3e a8ae 9abf
00000270: d7c7 79bf becf 39be 8f75 4ebe 9b5b cd3f
00000280: 07c9 91bf 1529 453f 9cfd 51bf 8136 2d3e
00000290: 1562 843e 0eb5 11bf 1d71 4dbf bcf1 3abe
000002a0: 90e4 403f 86bd 503e 13b6 a73f cce8 2b3f
000002b0: 8b4b 7dbf 3f86 303f 6f83 563d de56 2b3f
000002c0: 4201 8d3f 2a16 823f 4146 24c0 66b5 c63d
000002d0: 7eb8 10bf b956 e3be ad6c 2cbf c140 b0bf
000002e0: 4525 2a3f 10cf c7bf 6fee a7bf 90d1 2dbf
000002f0: 0cab f13f 096d b8bf e21b 4dbe 6b95 b2bf
00000300: 304c d7bf 561f 23c0 6f19 d3bf 10c9 7f3f
00000310: 0c88 c5bd 70bc 983f a7fe a3be d1c9 7fbf
00000320: 0910 aa3e 5636 2cbb c47c d3bf f38a 833e
00000330: 5449 c13f 4dc7 e93f 0472 a9bf 9d20 83bf
00000340: 83c2 b23e 6dfa 8abf a880 953e 32cc 0140
00000350: f64a 00bf 40bf 22be e449 19bf 0cb3 4b3f
00000360: 0fbe 7dbf e07c 8dbf f721 a9be c3e8 0e3f
00000370: 4b8d 1cbf a874 503f 2dd8 873f 3235 2640
00000380: 1159 803f 661e a93f 2d52 dcbf 4707 1a40
00000390: e0a8 99bf 06fe c1bf ba15 9c3f f4e6 f03f
000003a0: 57ee 9fbe d39d 5fbf ff4c 9b3f 75c1 1540
000003b0: 480b 34c0 753a a4bd c276 f23f 8a24 f7be
000003c0: 73be 9dbf 1cfa 1740 2aca 4040 1494 b13d
000003d0: ca73 213f 7868 98be 5ab2 b03f f21a 01c0
000003e0: 5f45 0a3f c955 c13f e53c db3f 10d9 2d40
000003f0: b25f 523f fd57 65c0 2aa8 973d b17a fbbf
-0.76738834 1.2576637 4.0786333 1.7461603 -2.4728885 -1.3466667 1.7718707 2.604591
1.8590404 1.1819125 -1.38926 4.3244743 -1.9987787 0.9818698 3.0874836 0.5964329
1.5980949 -1.1029896 1.1833507 1.8780978 0.9496767 1.0616045 0.7090596 -0.13592981
-0.33998165 0.45593637 0.35968187 -1.6683495 0.795531 3.2223394 -1.016654 -2.4406047
-0.61567116 1.0211842 0.91990834 0.03645995 -1.3034271 0.98353136 1.0272479 -2.4258654
1.6836028 2.7729695 -0.2524974 0.6403075 0.25570515 2.2948945 -0.92358786 -2.1956594
1.5120145 2.3378325 1.7285274 -0.52338064 0.9358548 -0.6122552 -2.4537637 0.5608441
1.1822263 1.8746346 -3.1846678 0.71220744 2.95667 0.85936475 1.3697106 0.92537653
-3.3601704 -0.4936037 -2.3550653 -0.97511715 1.6643907 -0.2639612 -3.708743 -1.0875567
0.9352961 -0.6799713 -2.5689867 -0.8470802 0.35919726 3.4827847 -2.0765307 1.2884767
2.4474776 -0.7240169 1.4047931 0.9714089 1.1736189 -4.540483 0.7031064 1.8656417
-0.07168746 1.6582656 0.22967312 -2.2064052 -1.3280236 0.06695745 -0.6142721 -0.43541366
-1.9889834 -1.9251133 -0.8149766 -1.3661671 -1.9347364 2.126378 0.03203398 2.4041374
1.9665111 -2.1875439 2.170667 1.7364995 1.1283072 -1.4201343 2.039929 -1.1537864
-1.136509 0.72042555 -1.0693734 -0.9415326 -0.018019646 -0.12909977 0.8163122 0.46152705
1.2622769 0.79033434 5.0824614 0.18288113 -0.64329666 0.55586064 -0.75424343 -0.24221247
-3.4628162 -2.7777705 -1.2705027 -2.6670218 1.9630567 -0.33815354 -0.13046798 -0.18928804
-1.8775564 2.054803 -2.4171257 -1.6209712 -0.06459895 -0.4348985 -1.224486 0.17810212
0.82199705 -0.30906776 0.4581671 -0.32335383 1.1529745 3.7658722 0.9670347 0.8422943
-0.9112907 -0.20862113 0.4307951 -1.2084551 -0.97570556 -0.18145654 -0.20162033 1.6043581
-1.1389474 0.7701581 -0.820276 0.16915323 0.2585608 -0.5691689 -0.8025072 -0.18256277
0.7534876 0.20384797 1.310244 0.67152095 -0.98943394 0.68954843 0.05237144 0.66929424
1.1016009 1.0163014 -2.566788 0.09702568 -0.5653151 -0.44402102 -0.67353326 -1.3769761
0.6646312 -1.5610065 -1.3119639 -0.6789789 1.8880324 -1.4408275 -0.20030168 -1.3951849
-1.6820126 -2.5487876 -1.6492137 0.9991617 -0.096450895 1.1932507 -0.32030222 -0.9991732
0.3321536 -0.0026277504 -1.652245 0.25691947 1.5100503 1.8263947 -1.323792 -1.0244328
0.34914026 -1.0857674 0.2919972 2.028088 -0.5011438 -0.15893269 -0.59878373 0.7957008
-0.9911813 -1.1053734 -0.33033726 0.55823916 -0.61153096 0.81428003 1.0612847 2.5969968
1.0027181 1.3212402 -1.7212578 2.4066942 -1.2004662 -1.5155647 1.219413 1.8820481
-0.31236526 -0.87350196 1.2132872 2.3399327 -2.8131886 -0.08018962 1.8942492 -0.48270065
-1.2323745 2.3746405 3.012339 0.08670822 0.63067305 -0.29767203 1.3804429 -2.0172696
0.540121 1.5104305 1.7127959 2.7163734 0.8217727 -3.5834954 0.074051216 -1.9646817
