hw4/tests/hw4_extra/data/test_attention_layer-8-11-27-8-32-False-0.0-cpu().npy (npy, 9632 bytes, 1 tensors)

array f4 [8, 11, 27]
0	0x400d94cb	2.2122066
1	0xbf201f02	-0.62547314
2	0xbf97a1eb	-1.1846288
3	0x40220bc1	2.5319674
4	0xc009ee50	-2.1551704
5	0x3e496b4e	0.1966984
6	0x3e5fd2a7	0.21857701
7	0x401adc51	2.419697
8	0x3f31befc	0.69432044
9	0xbf900519	-1.1251556
10	0xbf5e199c	-0.86757827
11	0x3dd1a37d	0.10236261
12	0x3edadd10	0.42746782
13	0xbfe46e12	-1.7846091
14	0xc00811c8	-2.1260853
15	0x3f81fdda	1.0155594
16	0xc078f5f3	-3.8900115
17	0xbff4b5a0	-1.9117928
18	0xc02ff89a	-2.7495484
19	0xbf78903d	-0.9709509
20	0xbd8054c4	-0.06266168
21	0xbe204030	-0.15649486
22	0x3ff95298	1.9478331
23	0xc00ff8b2	-2.2495542
24	0xbee95e9a	-0.45579988
25	0x405a2caf	3.4089773
26	0x3fc0c199	1.5059081
27	0xbfcf3afb	-1.6189874
28	0xbece6772	-0.40313298
29	0xbea320c8	-0.31860948
30	0x3f76b47d	0.96369153
31	0xbf669331	-0.90068346
32	0x3fdf7d0b	1.7460035
33	0xbde22e0a	-0.110439375
34	0x3fa967e9	1.3234836
35	0x3fca6246	1.5811241
36	0x400385cf	2.055042
37	0xc007b427	-2.1203706
38	0x4044223f	3.0645902
39	0x3ea423c2	0.3205853
40	0xbcb6824e	-0.022278931
41	0x408d5ba5	4.417437
42	0xbff2c0c0	-1.8965073
43	0xbfab967a	-1.3405297
44	0x3f0b8a99	0.5450836
45	0x3fcf5c90	1.6200123
46	0xbf834fff	-1.0258788
47	0xbf840ff8	-1.0317373
48	0xbfc5c780	-1.5451508
49	0x3ef77faf	0.48339602
50	0x3f9195e9	1.1373874
51	0xbf8ec4af	-1.1153773
52	0x40036457	2.0529993
53	0x4000ac8b	2.0105312
54	0x3f43e7f1	0.7652579
55	0xbf87835c	-1.0586963
56	0x3e7c7357	0.24653374
57	0xbfdf8cb6	-1.7464817
58	0xbf17cdf5	-0.5929864
59	0x3f1b200e	0.60595787
60	0xbb383923	-0.0028110228
61	0x3ea9c7d2	0.33160263
62	0xbf475a97	-0.77872604
63	0x3e9ff4ca	0.31241447
64	0xbfcc572c	-1.5964103
65	0x403c68de	2.9439006
66	0xbee9f43b	-0.45694146
67	0x3f6ae12d	0.9174984
68	0x4000513f	2.0049589
69	0xbfbfad4a	-1.4974759
70	0xbfb6e7f8	-1.4289541
71	0xbecfa942	-0.4055882
72	0x3f4af9aa	0.7928721
73	0xbf0b491a	-0.5440842
74	0x3e6159df	0.2200694
75	0xc04da074	-3.2129183
76	0x3f599e95	0.850076
77	0xbf41c2b8	-0.7568774
78	0x3f0e6088	0.55616045
79	0x3f6d4146	0.92677724
80	0xbe75eb69	-0.24015583
81	0x3e472dad	0.19451018
82	0x3f1e1d2e	0.61763275
83	0x3f08c7ac	0.53429675
84	0xbe88dbeb	-0.26730284
85	0xc03467f7	-2.8188455
86	0x401885ef	2.3831747
87	0x3ecaa2ae	0.3957724
88	0xbf250a60	-0.64468956
89	0x3fa2860f	1.2697161
90	0xbd232971	-0.039834443
91	0xbfb65466	-1.4244506
92	0xbfaa4e22	-1.3305094
93	0x3d814757	0.06312435
94	0x3ec13287	0.37733862
95	0x3f41380f	0.75476164
96	0xbf974808	-1.1818857
97	0xbdc0f9c1	-0.09422637
98	0xbf878bc3	-1.0589527
99	0xbf3f94fb	-0.748367
100	0xbea44108	-0.32080865
101	0x3e0570e5	0.13031347
102	0xbf8f834b	-1.1211942
103	0x3c9cecfb	0.01915597
104	0x3ea6db47	0.3258917
105	0xbf24d4e3	-0.6438734
106	0x3fbd76ca	1.4801877
107	0x3f896419	1.0733672
108	0x3f53514b	0.8254592
109	0xbf267bda	-0.6503273
110	0x40083459	2.128195
111	0xbfae6797	-1.3625363
112	0xbf8ce5ad	-1.1007591
113	0x3ff154e3	1.885403
114	0xbfba1cfa	-1.4540093
115	0x3f7a8873	0.97864455
116	0x3f48ce4f	0.784398
117	0xc000efd0	-2.014637
118	0xbe237b05	-0.15964897
119	0x3f3dd4ff	0.7415313
120	0x3f7158d0	0.9427614
121	0x3e59aaad	0.21256514
122	0x4011f756	2.2807212
123	0x3ff58799	1.9182006
124	0xbfaa9ece	-1.3329713
125	0x3e5264af	0.2054622
126	0xbec61cab	-0.38693747
127	0xbf330f3b	-0.69945115
128	0xc03205b1	-2.7815974
129	0xbf6d9c6f	-0.92816824
130	0xbe8e4e19	-0.2779396
131	0xbfd63291	-1.6734182
132	0x3e4cd0b5	0.2000149
133	0x3e750431	0.2392738
134	0x3fb07687	1.3786172
135	0x3fa7f083	1.3120273
136	0xbf23e095	-0.6401456
137	0x3f77e2e4	0.9683058
138	0xbfb9738c	-1.4488387
139	0xbf408a89	-0.7521139
140	0x3f178408	0.5918584
141	0xbed108d8	-0.4082706
142	0xbc82277f	-0.015887974
143	0xbf0f3d34	-0.55952764
144	0xbd0c25bf	-0.034215685
145	0xbf6a6726	-0.9156364
146	0x3fca5b63	1.5809139
147	0x3f44c2ad	0.7685955
148	0xbeff7687	-0.49895117
149	0x400d0bd5	2.2038472
150	0x3f823ebb	1.0175394
151	0xbf59ca5d	-0.85074407
152	0xbf1a4b1a	-0.60270846
153	0xbf3c5ace	-0.73576057
154	0x3f66ff5b	0.9023339
155	0xbf823e4b	-1.017526
156	0xbfa2b5e5	-1.271176
157	0x3ebceb7e	0.36898416
158	0xc003ca85	-2.0592358
159	0xbbb396c7	-0.0054806205
160	0xbea17707	-0.31536123
161	0x3f96236c	1.172956
162	0xbed3670d	-0.4128956
163	0xbe2c1681	-0.1680546
164	0x3f8f006f	1.1172007
165	0xbf6a6bf3	-0.9157097
166	0xbfa8682c	-1.3156791
167	0x3f57957c	0.8421247
168	0x3f7566c6	0.95859945
169	0x3f71acf9	0.9440456
170	0x3fc46b75	1.5345293
171	0xbf016f3f	-0.50560373
172	0xbd2ac137	-0.04168817
173	0x3f3a0953	0.7267048
174	0x3e6714cc	0.22566527
175	0x3f465bb8	0.774837
176	0x3ef1a8e7	0.47199175
177	0x3eeaff7e	0.4589805
178	0xc03bfe57	-2.9373987
179	0xbeafed1d	-0.3436059
180	0xbf3d3ed2	-0.7392398
181	0xbf3daa3d	-0.7408789
182	0xbf66e6b9	-0.90195805
183	0xbea3e7d8	-0.3201282
184	0x3f5ca7c3	0.86193484
185	0x3d285909	0.041100536
186	0xbf9062f8	-1.1280203
187	0xbed4c6dc	-0.41557968
188	0x3fceb12e	1.6147821
189	0xbf4711b7	-0.77761406
190	0xbb8a9947	-0.004229698
191	0xbf9c9d52	-1.223551
192	0xbf983529	-1.1891223
193	0xc00a7ed3	-2.1639907
194	0xbf6ab1a8	-0.9167733
195	0x3f6e9848	0.9320111
196	0x3e43992f	0.19101404
197	0x3f530538	0.8242984
198	0xbf1cb443	-0.6121256
199	0xbf430de1	-0.7619305
200	0x3f44bbfd	0.7684935
201	0xbd84c6d6	-0.064832374
202	0xc0063995	-2.0972645
203	0x3f1e27f5	0.6177972
204	0x3fac52d0	1.3462772
205	0x3f6ea643	0.93222445
206	0xbf927675	-1.14424
207	0xbf89f25b	-1.0777086
208	0x3d96d329	0.07364494
209	0xbfc486a7	-1.5353593
210	0x3f007a45	0.5018657
211	0x3f861e0f	1.0477923
212	0xbe6a28d7	-0.22867142
213	0xbf213de1	-0.62985045
214	0x3da26418	0.079292476
215	0x3f5632fb	0.8367154
216	0xbf15a78f	-0.584588
217	0xbea3f8fb	-0.32025895
218	0xbf17c6aa	-0.5928751
219	0x3f2d3bc3	0.67669314
220	0xbf9c177f	-1.219467
221	0x3f5ec2a6	0.8701576
222	0x3f73e018	0.95263815
223	0x3fe2808c	1.7695479
224	0x3f4a228f	0.7895898
225	0x3f477908	0.77919054
226	0xc00a58e4	-2.1616755
227	0x40307a93	2.7574813
228	0xbf141c38	-0.5785556
229	0xbfaffe14	-1.3749413
230	0x3f26e103	0.6518709
231	0x3fa07344	1.2535176
232	0xbf8ea2f7	-1.1143483
233	0xbf49e2d0	-0.78861713
234	0x3f8c9d7a	1.0985558
235	0x40089375	2.134
236	0xc003bdd7	-2.058462
237	0xbf5248da	-0.8214241
238	0x40028749	2.0395072
239	0xbfafd623	-1.3737224
240	0xbfb0d846	-1.3816001
241	0x40058e5e	2.0868144
242	0x4047a1cf	3.119251
243	0x3dd74923	0.105119966
244	0x3ff313b8	1.8990393
245	0xbd2bc76f	-0.04193824
246	0x3fb28b0c	1.3948684
247	0xc01510f6	-2.3291602
248	0x3f350c7a	0.7072216
249	0x3fa267ce	1.2687929
250	0x3fbf350a	1.4938061
251	0x402e51f6	2.7237525
252	0x3d037a1d	0.03209888
253	0xc06b111e	-3.6729198
254	0x3f045550	0.51692677
255	0xbfbd7028	-1.4799852
