hw4/tests/hw4_extra/data/test_transformer_model-8-5-27-64-4-8-32-True-0.1-cuda().npy (npy, 4448 bytes, 1 tensors)

array f4 [8, 5, 27]
0	0x413d31f4	11.824696
1	0x3f10827e	0.56449115
2	0x410e4a18	8.893089
3	0xc13e7dea	-11.905741
4	0x40a590ea	5.1739397
5	0x403988ec	2.898982
6	0x410b5b76	8.709829
7	0x402a943c	2.6652975
8	0x408cab4a	4.3959093
9	0xc146a2ba	-12.414728
10	0x403c348c	2.9407072
11	0xc0c719b4	-6.2218876
12	0xbf8ac4b0	-1.0841274
13	0x406ef35c	3.7336035
14	0xc0428772	-3.039517
15	0x4050254c	3.2522764
16	0x40b00eeb	5.501821
17	0xc139bb67	-11.608253
18	0x40347242	2.8194737
19	0x407f5597	3.989599
20	0xbdc5b1c0	-0.09653044
21	0xbfc8cdda	-1.5687821
22	0xc09e946f	-4.9556193
23	0xc09de2f0	-4.9339523
24	0x40ac71b6	5.3888807
25	0xbf23119e	-0.63698757
26	0xbf5b9678	-0.8577647
27	0x411596cb	9.349315
28	0x4038fd36	2.8904548
29	0x40d2b7db	6.5849433
30	0xc0ec0062	-7.3750467
31	0xbfa6ad9b	-1.302173
32	0xc00bac20	-2.1823807
33	0x409b4f16	4.853404
34	0xbeeb8330	-0.45998526
35	0xbf8c9322	-1.0982401
36	0xc1218852	-10.095781
37	0xbee5d118	-0.44886088
38	0xc101bccc	-8.108593
39	0x40f9f6d9	7.811383
40	0x40c7e2eb	6.24645
41	0xc03ae3e6	-2.9201598
42	0xbf50ec6c	-0.8161075
43	0x40de5de5	6.9489617
44	0xc12978e2	-10.592012
45	0x40c84113	6.2579436
46	0x3fc970fe	1.5737607
47	0xc073c4e4	-3.8088923
48	0x40167757	2.351034
49	0xc0e2c5bb	-7.086637
50	0xbebd9395	-0.3702666
51	0x408cb776	4.397395
52	0xc0ab1edc	-5.347517
53	0xc06d2326	-3.7052703
54	0x40bf3f21	5.976456
55	0xc044061c	-3.062873
56	0x4055feac	3.343669
57	0xc0cf2e36	-6.474391
58	0x402ec794	2.7309313
59	0xbfd95175	-1.6977984
60	0x40240fb7	2.5634592
61	0xbd897620	-0.06711984
62	0x412f9095	10.972798
63	0xbee5e72a	-0.44902927
64	0xc0031f03	-2.0487678
65	0xc0ea9d1d	-7.331679
66	0xbeafcb18	-0.34334636
67	0x410311b0	8.191818
68	0x402fc278	2.7462444
69	0x3d9d1d20	0.07671571
70	0x4131c270	11.10997
71	0xc0fc35f5	-7.8815866
72	0xbf6123f8	-0.8794551
73	0x4121d5e7	10.114722
74	0x40311bd2	2.767323
75	0xbf72311a	-0.94606173
76	0x4002f275	2.0460484
77	0xc0f25fd6	-7.5741987
78	0x407d6f1b	3.9599063
79	0xc091659a	-4.5436525
80	0x4094f34c	4.6546993
81	0x40a52227	5.160419
82	0xc0241f3e	-2.5644069
83	0xc0b457d8	-5.635723
84	0x3fd32d9e	1.6498296
85	0xbf710e22	-0.9416219
86	0xbf830e3a	-1.0238717
87	0xbf9a61a0	-1.2061043
88	0x4055bdfa	3.3397202
89	0xc002d544	-2.0442667
90	0xc0d9b26c	-6.80303
91	0x4021f559	2.5305998
92	0xc10f66f8	-8.962639
93	0x4101be72	8.108995
94	0x40833c58	4.101116
95	0x3fcf8839	1.6213447
96	0xc0565243	-3.3487709
97	0x405b30f3	3.4248626
98	0x3ea47eac	0.32127893
99	0x3fbc9093	1.473162
100	0xc050aea1	-3.2606585
101	0x40146250	2.3185005
102	0x3f20c738	0.62803984
103	0xbe15a668	-0.1461426
104	0x3fe7a678	1.8097677
105	0x401171d2	2.272572
106	0xc10b36b5	-8.700856
107	0xc0b61f60	-5.69133
108	0x3f70dee2	0.9409009
109	0xc06cd4d5	-3.7004902
110	0x400251b6	2.0362372
111	0xc0ae6cfb	-5.4508033
112	0x40294cd0	2.6453133
113	0xbf4cd6c0	-0.8001518
114	0x40895398	4.2914543
115	0x40f6c5ea	7.7116594
116	0xbf2d5e0c	-0.6772163
117	0xc12d6023	-10.835971
118	0xbf13e777	-0.5777506
119	0xc0e981e3	-7.2971053
120	0x3e2e5430	0.17024302
121	0x40ef5c99	7.4800534
122	0x4010d98e	2.2632785
123	0x3f7b10c4	0.9807246
124	0x413cd3f0	11.801743
125	0xc120d9ae	-10.053144
126	0xbf9bf6dc	-1.218471
127	0x40c225d8	6.0671196
128	0xc06c93cf	-3.6965215
129	0xc0853274	-4.162409
130	0xbf08f430	-0.534976
131	0xc001a574	-2.0257235
132	0x40df2f54	6.9745274
133	0x3f80e99c	1.0071292
134	0x3fd5ed78	1.6713095
135	0x403ba382	2.9318547
136	0xbda91200	-0.08255386
137	0xc0292e4e	-2.6434512
138	0xc0a5d716	-5.1825056
139	0xbf05db90	-0.5228815
140	0x3f2239e2	0.6336957
141	0x406ab0d9	3.667044
142	0x3fcbdf13	1.5927452
143	0xc12879a4	-10.529697
144	0xc0149d48	-2.3220997
145	0x3fd2cd13	1.6468834
146	0xc05feeac	-3.4989424
147	0x4139c6ca	11.6110325
148	0x40973107	4.724735
149	0x4087cd9f	4.24385
150	0xc0d8378d	-6.756781
151	0x3d2dd7c8	0.042442113
152	0xc02932d0	-2.6437263
153	0x40d23c88	6.569889
154	0xc0899ed9	-4.3006406
155	0x40285198	2.62998
156	0xc070c230	-3.7618523
157	0xc104ac52	-8.29207
158	0x3f4dff24	0.8046744
159	0x3ff460d1	1.9092046
160	0xbee0b5d8	-0.43888736
161	0xc0628e90	-3.5399513
162	0x4015c1ba	2.3399491
163	0x409e1aac	4.940756
164	0x3e0ef8c8	0.1396209
165	0xc0c64eb9	-6.1971097
166	0x40cdce91	6.4314656
167	0xc08306b4	-4.0945683
168	0x3e787624	0.24263817
169	0xc017ec06	-2.3737807
170	0xc0af4c01	-5.478028
171	0xc0d0b6be	-6.5223074
172	0x3e9aed88	0.30259347
173	0xc0b6ed14	-5.71644
174	0x41317747	11.09162
175	0x414c87f1	12.783189
176	0xc00ed1d8	-2.2315578
177	0xc0781724	-3.8764124
178	0x3fe4867e	1.7853544
179	0xc0ff587e	-7.9795523
180	0x403af885	2.9214184
181	0xc0f4e932	-7.653466
182	0x40862171	4.191582
183	0x4039e813	2.9047897
184	0xc0ba1558	-5.8151054
185	0xc0349dfa	-2.8221421
186	0x3f8611ff	1.0474242
187	0xc0d48715	-6.6414895
188	0xc05ffe06	-3.4998794
189	0xc0a1bdee	-5.054435
190	0xc05d4c1e	-3.4577708
191	0xbfc838d0	-1.5642338
192	0xc0525171	-3.2862208
193	0xc10ee344	-8.930485
194	0xc0be339a	-5.943799
195	0x402a71b8	2.6631908
196	0x3fd6c867	1.6779908
197	0xc0b1376d	-5.538016
198	0xc0e20f63	-7.0643783
199	0xbe522518	-0.20521963
200	0xc0f83215	-7.7561135
201	0x40bb5f0e	5.8553534
202	0xbf145deb	-0.5795581
203	0x4125391b	10.326442
204	0x3effde68	0.4997437
205	0x3f5d7b34	0.8651612
206	0xc0bc7156	-5.888835
207	0x3fb7f5c4	1.4371877
208	0x409c2e6b	4.8806663
209	0xbf125eb2	-0.57175744
210	0xc0e8a4bb	-7.2701087
211	0x3e151bd8	0.14561403
212	0xc03e6a17	-2.9752252
213	0xc04dd386	-3.2160354
214	0x404ea349	3.2287161
215	0x40d539b1	6.6632924
216	0x4127d9e5	10.490697
217	0xbf1c7048	-0.6110883
218	0xc0281512	-2.626286
219	0xc1421b35	-12.131642
220	0x40b68613	5.7038665
221	0xc098efb6	-4.7792616
222	0xbea156f8	-0.31511664
223	0x40a16a6e	5.044242
224	0xc08293f8	-4.0805626
225	0xc076f886	-3.8589187
226	0x3ee93212	0.45546013
227	0xc08233d9	-4.068829
228	0x40960134	4.687647
229	0x4158867e	13.532835
230	0xc070e2b3	-3.7638366
231	0xc0a6c4f2	-5.211541
232	0x409d075e	4.9071493
233	0xc0e2dc36	-7.089381
234	0xbf81d7ca	-1.0143979
235	0xbf96a92e	-1.177038
236	0x411d3d31	9.827439
237	0x40283df6	2.6287818
238	0xc0c5dec6	-6.183444
239	0x403cadd3	2.9481094
240	0x3f8b5d5c	1.0887866
241	0xc0189d09	-2.3845847
242	0xc0efe423	-7.4965987
243	0x40dc82d2	6.8909693
244	0xbfae3728	-1.3610582
245	0x3e886eec	0.26647127
246	0xc1312992	-11.072649
247	0x40b13508	5.5377235
248	0x40491acc	3.1422606
249	0x3ffa4877	1.9553365
250	0x4058d345	3.3878949
251	0x3fda435c	1.7051806
252	0xc10e4abf	-8.893249
253	0xbfe26504	-1.7687078
254	0x3fd0d7bc	1.6315837
255	0xc0240302	-2.5626836
