hw4/tests/hw4_extra/data/test_transformer_layer-2-11-27-8-32-64-True-0.0-cuda().npy (npy, 2504 bytes, 1 tensors)

array f4 [2, 11, 27]
0	0xc0da760f	-6.8269114
1	0x3eadfefe	0.33983606
2	0x40833f8f	4.1015086
3	0xc00ca012	-2.19727
4	0x3fa242a8	1.2676592
5	0xc0ceee52	-6.466592
6	0x3fcdd81a	1.6081574
7	0x402bb2fa	2.6827989
8	0xc0392582	-2.8929143
9	0xc03a67c5	-2.9125836
10	0x4059004a	3.3906426
11	0x408817ed	4.2529206
12	0xc025c43a	-2.5901017
13	0x3fa02140	1.2510147
14	0x405ffe9c	3.4999151
15	0x4070d684	3.763093
16	0xbef66889	-0.4812663
17	0xbffb7ebb	-1.964805
18	0x401b775a	2.4291596
19	0x402e277e	2.7211604
20	0x40279718	2.618597
21	0xc0be30b9	-5.9434476
22	0xc0a49110	-5.142708
23	0xbeabfba2	-0.33590418
24	0xc0633f0e	-3.5507236
25	0x402751a8	2.614359
26	0x3f43e5ea	0.76522696
27	0xbf473907	-0.7782139
28	0xc0175a0b	-2.3648708
29	0x3d1378e0	0.036003947
30	0xbf05aa0a	-0.52212584
31	0xbf7ccea8	-0.9875283
32	0xc012d371	-2.2941554
33	0x3f7155c9	0.9427152
34	0x3f19f665	0.60141593
35	0xbfad1c1a	-1.3524201
36	0xc097d004	-4.7441425
37	0x402c9662	2.6966786
38	0x3f87ebfe	1.0618894
39	0x3fb68cf6	1.4261768
40	0xc04f9e6b	-3.244044
41	0x3fc0e0d9	1.5068618
42	0x40cae3aa	6.340291
43	0xbf34c166	-0.706076
44	0xc0154da9	-2.332865
45	0x40af0fb2	5.470666
46	0x3eafa5c5	0.3430616
47	0x3f8bdbd4	1.0926461
48	0xc0b946cc	-5.789892
49	0xc09b8132	-4.859521
50	0x40080abe	2.1256557
51	0xbfcb88a7	-1.5901078
52	0x3e2291e0	0.1587596
53	0xbfa68eea	-1.3012364
54	0xc05f56fc	-3.489684
55	0xc01f4712	-2.4887128
56	0xbfa8611e	-1.3154638
57	0xc0178d88	-2.3680134
58	0xbd72cf30	-0.05927962
59	0xc02803e3	-2.6252372
60	0xbfccac74	-1.5990129
61	0x3f1e07fe	0.61730945
62	0xc01961a1	-2.3965838
63	0xbffb22b0	-1.9619961
64	0x4066e60d	3.6077912
65	0x3fa7ba42	1.3103716
66	0xbf12b494	-0.5730679
67	0xbf4256c2	-0.7591363
68	0x3ec23270	0.37929106
69	0x4004cf40	2.0751495
70	0xbf912584	-1.1339574
71	0xc0335920	-2.8023148
72	0x3fa621da	1.2979081
73	0x4027eb72	2.6237454
74	0x4007beaf	2.1210134
75	0xc0848899	-4.1416745
76	0xbfd767e7	-1.6828583
77	0x3f8dc83c	1.1076732
78	0xbe9ea862	-0.3098784
79	0xbdf74d54	-0.12075296
80	0xbe7c2a80	-0.24625587
81	0xc032bca4	-2.7927637
82	0x4076b4cc	3.854785
83	0x3f00002c	0.5000026
84	0xbfb80407	-1.4376229
85	0x3f98dbb5	1.1942049
86	0x3f1ce666	0.6128906
87	0xbe9fb978	-0.3119619
88	0xbfa53c7d	-1.2909085
89	0xc02c236a	-2.6896615
90	0xbe08b05c	-0.13348526
91	0x403182de	2.7736125
92	0x3fae9ce0	1.3641624
93	0xc04ff1b1	-3.2491267
94	0x3df73530	0.120706916
95	0x4013f158	2.3116055
96	0x409ffe29	4.9997754
97	0xbee0dd70	-0.43918943
98	0xbff76399	-1.932727
99	0x3f3e4a19	0.74331814
100	0x404bf0c4	3.1865702
101	0x404a0d68	3.1570683
102	0xbfa7a17b	-1.3096155
103	0xc019cb37	-2.4030282
104	0x3fbced55	1.4759928
105	0xc02ad370	-2.6691551
106	0xbff14bca	-1.8851254
107	0xbede971a	-0.43474656
108	0xc00a2202	-2.1583257
109	0x3fe0802c	1.7539115
110	0x3fd30510	1.648592
111	0xc00cf74c	-2.2025938
112	0xbed0a030	-0.40747213
113	0xc07d5913	-3.9585617
114	0x40aa0ff8	5.3144493
115	0x402084c1	2.5081027
116	0xc010bff8	-2.2617168
117	0xc059241a	-3.3928285
118	0xbeff620c	-0.4987949
119	0x403093f2	2.7590299
120	0x3f3e28cc	0.74281
121	0xbfecf452	-1.8512061
122	0x3fd36483	1.6515049
123	0xbf1b5a7e	-0.60684955
124	0x3f9882e0	1.191494
125	0x40492d0e	3.143375
126	0x3e167c4e	0.14695856
127	0xc00f5fd1	-2.2402232
128	0x3ec9a0d8	0.39380527
129	0xbf95ec25	-1.171269
130	0xbf020262	-0.50784886
131	0x3fef04e8	1.8673372
132	0x3fc850d5	1.5649668
133	0x3ecdeaf8	0.4021833
134	0xc021d4f1	-2.528622
135	0xbfa9d09b	-1.3266786
136	0x3f32b5fc	0.69808936
137	0x403d74f6	2.9602637
138	0x3ec08a84	0.3760568
139	0x3ce0da40	0.02744782
140	0xc004b46d	-2.0735123
141	0x3fed5e90	1.8544483
142	0x3fb3545d	1.4010121
143	0xc0367da8	-2.8514194
144	0xc0253ad8	-2.5817165
145	0x3e3d2a70	0.1847322
146	0x40356eb6	2.8348823
147	0xbfb98498	-1.4493589
148	0xbf4b5ed6	-0.79441583
149	0x40071d18	2.1111507
150	0xbefb0cbc	-0.49033153
151	0xbfb74886	-1.4319007
152	0x3fdd27ed	1.7277809
153	0xc019ec43	-2.4050453
154	0xbf0b0fa4	-0.5432074
155	0xbf185a30	-0.59512615
156	0xbfa63fe3	-1.2988247
157	0xbefc5708	-0.4928515
158	0x3e85ace4	0.26108468
159	0x3f7455e1	0.9544354
160	0xbf0264fd	-0.50935346
161	0xc0617934	-3.5230227
162	0xbe3c022a	-0.183602
163	0x3f6b2841	0.918583
164	0x4030de5e	2.7635722
165	0xc021e4d1	-2.5295908
166	0xbeb61514	-0.35562956
167	0xc0778fc5	-3.86815
168	0x3feca26e	1.848707
169	0x3eef2bec	0.46713197
170	0xbdf6d0f0	-0.120515704
171	0xbfd43ce8	-1.6581087
172	0x405755d8	3.3646145
173	0x40318840	2.773941
174	0x3f3394f0	0.70149136
175	0xc080a09d	-4.019606
176	0xbf0479b8	-0.5174823
177	0x40a7d52c	5.244772
178	0xbfe55db1	-1.7919217
179	0x3fe14c40	1.7601395
180	0x40080e8d	2.125888
181	0xc0b5b5ac	-5.6784267
182	0x3f857c5f	1.042858
183	0xc01ca39e	-2.4474864
184	0x3c070f80	0.008243442
185	0x3f6e0328	0.92973566
186	0x3f606ce6	0.87666166
187	0xbfe0ab86	-1.7552345
188	0x4061f110	3.5303383
189	0xc0354f2f	-2.832958
190	0xbea03e98	-0.31297755
191	0x409d7740	4.920807
192	0xc0136697	-2.3031366
193	0x3f1ba735	0.6080201
194	0xc02ba510	-2.6819496
195	0x404e854b	3.2268856
196	0x3c73fe00	0.014892101
197	0x3f8b8532	1.0900023
198	0xc03589a4	-2.836526
199	0x3f5d27e8	0.8638902
200	0x40bc7382	5.8891
201	0xbecd7970	-0.40131712
202	0xbf9e5d5e	-1.2372243
203	0x3f0b0daa	0.54317725
204	0x3e9f3175	0.3109242
205	0xbf0543ee	-0.5205678
206	0x3fe6ff88	1.8046732
207	0xbccc51e0	-0.024941385
208	0xbffe11a3	-1.9849132
209	0xbf0a76e4	-0.5408766
210	0xbf7feeb6	-0.9997362
211	0xbe4d0fb0	-0.20025516
212	0xbf58b6f7	-0.8465418
213	0x3fbd20cb	1.4775633
214	0xbe98f58a	-0.2987483
215	0xbfe5ea30	-1.7962093
216	0x403f0742	2.984818
217	0xbe96b8e6	-0.2943794
218	0x3f8f1123	1.1177105
219	0x3ead2460	0.33816814
220	0x3fe72ead	1.8061119
221	0xbfb6e630	-1.4288998
222	0x3e3ea600	0.18618011
223	0x3e6f9018	0.23394811
224	0x40293afb	2.644225
225	0x3d78f4c0	0.060780287
226	0x3facf49b	1.3512148
227	0x3f8560be	1.0420148
228	0xbfff1ed5	-1.9931284
229	0x3e43fe30	0.19139934
230	0xc02ba7f1	-2.6821253
231	0x400e803a	2.2265763
232	0xc06a1478	-3.6574993
233	0x40166440	2.3498688
234	0x3fb0dbfe	1.3817136
235	0x3f5a73c2	0.8533288
236	0x40375542	2.8645787
237	0xbf967821	-1.175541
238	0x3fbf6fa5	1.4955946
239	0x3e84e9e2	0.25959688
240	0x40809b64	4.0189686
241	0xc01a4e9b	-2.4110477
242	0x3f07cc4e	0.5304612
243	0xbf9960c3	-1.1982654
244	0x3f361f46	0.7114147
245	0x4008a364	2.1349726
246	0xbffad90a	-1.9597485
247	0x3ea1d6fc	0.31609333
248	0xc0144498	-2.3166866
249	0x3f6fab42	0.93620694
250	0x3e33b6bc	0.17550176
251	0xbebc9903	-0.3683549
252	0xbf96f879	-1.1794578
253	0x407866ab	3.8812664
254	0x40aff926	5.4991636
255	0x3f451b22	0.76994526
