hw4/tests/hw4_extra/data/test_attention_layer-4-11-27-8-32-True-0.0-cpu().npy (npy, 4880 bytes, 1 tensors)

array f4 [4, 11, 27]
00000000: 12cc 4ec0 d738 1f40 bf36 33bf 40e8 053d
00000010: 594e a03f 0e16 663f 0f4d a43f a2d2 4e3f
00000020: 95f0 98bf a21c e03f 45bf fc3e 268e 2ac0
00000030: 7cd8 0740 0e30 e8bf e2b0 e23f b874 f13f
00000040: e08a 04be df83 05c0 b06a 6b3f 043b 2ac0
00000050: f0bc 5f3f 8fcf 3240 59ec 98bf 736a aa3d
00000060: 203a 35c0 3312 6440 8b4c 6a3f b249 0bc0
00000070: dda5 7c40 73f4 edbf 3f90 49be 0448 c63f
00000080: 6496 04be db0d 393f 87a9 913d d4bb cabf
00000090: 1a14 fa3f a8dd f2bd 3ea0 f2bf a39f f93f
000000a0: 275e 1cbf 6e01 bf3f fe8f c63f f924 ba3f
000000b0: 95ad cbbf c40e 5c3f 71da 07c0 1161 1440
000000c0: fbf5 b33f e6f5 e0be fa94 a5be b0ff 2fc0
000000d0: 0d71 5e40 bc83 bb3f 3044 153f a7b4 4240
000000e0: a0d3 1abe 9747 fa3c 4b22 e93f 34d3 53bd
000000f0: ac17 e7be 9f1c 6b3d 2c2d a8bf 8c73 2840
00000100: 43c5 5bbd 4cbb 07bf e8d0 c43f f62a 043f
00000110: 121f 9fbe 9b11 e23c 8a7b cdbd be1a c7bf
00000120: 53c0 f73f 7cad d1be 9880 99bf f19e 11c0
00000130: 2cd7 3b3f 7d17 38be c438 073f 7557 923f
00000140: 4e30 0240 72dd 93bf 9918 503f f277 dabf
00000150: e7f1 10c0 6055 40be c463 2a40 0873 7dbf
00000160: dae3 0a3e 052f bfbe 3742 f23f e75d 3dbf
00000170: a513 49c0 7f2e 8c3d e6cb b9bf af4b e93f
00000180: ec20 24bf 3142 bebf a36d 183f 8ff4 3340
00000190: 2bd1 bd3f 81cb 47be 7232 a6bf 8d21 98bf
000001a0: a3b5 623f 9774 1bc0 50c0 dc3f 382e 76be
000001b0: a1aa 2940 41ea c23f 215f 55bf 6529 90bd
000001c0: fb93 6cbe 42c4 343f 21dd 17bf 7aee e5be
000001d0: 14fe 43bf c088 a43f a123 45bf 00a0 553d
000001e0: b007 2140 7fc2 f83e d9f5 17bf 81cb 0e3f
000001f0: 547e 7bbf 11f0 dcbd 03bd e73f 7dc4 a13f
00000200: 8148 aebf c5d3 563e 6c82 b13f 7c00 b7be
00000210: d665 043f 198a 4dbf 7294 47be 16d1 d53e
00000220: 0c3c 95bd 09b9 9dbf b9ca 67bf 738a 1dbf
00000230: 841e 8a3f 064d 2f3f 394f aa3e 5835 18c0
00000240: 8594 5c3f d4a4 04bf f6a2 a9bf ed3f e93f
00000250: c1b8 733f 6f27 353f 81c7 923e 3c7a 213e
00000260: 36ed 0bc0 dd35 5d3f 3e84 c1bf a081 ddbe
00000270: b0db 4dbf 6ab6 e3be c9fa 3e3f ac96 82bf
00000280: df15 35bf 4683 143f 977e 1940 0a5e 4f3f
00000290: 784b 8fbf 330e 28bf e514 25be e525 cb3f
000002a0: 140a b9bf 1653 fd3d 4e5a fabf 6c2d 0540
000002b0: 0e41 e43e c244 f3bf d398 85be ff41 46bf
000002c0: a3e5 bfbd 8ec2 ecbf 407f c4be 79d9 123e
000002d0: aa70 f1be 3df5 643f 5fdc 0cbf 4388 97be
000002e0: ed3a da3d 04d0 cb3e 4217 32be 7152 1fbf
000002f0: ed80 e23c bd81 533f eba2 833f a812 07c0
00000300: e9d6 e33e deb2 9a3f b8ab d2bf ced8 2e3f
00000310: 2d90 58bf d311 4fbf 84c3 3040 9ae5 b03e
00000320: e203 a63f 07ae 87bf 6ccb 3f3f 58ac 10bf
00000330: aa56 99bf f0aa ccbf 50ba b53e 0728 aa3f
00000340: 8dcb 2740 c968 9fbf c8fd 5abf 25d5 0ec0
00000350: 2a1d 7dbd 66b2 a63f 544f 53bf 9d24 6bbe
00000360: 7f96 543f cb64 a8bf 92fd 87be 6e50 31bf
00000370: b7dd b33f ce15 753f 8be3 4cbf 08fa 5d3d
00000380: 7c07 1fc0 a7fc 9f3d a947 80be 888d b4bf
00000390: afde 09be 9ee7 11bf 751e b83f fd77 74bf
000003a0: bfb9 adbe e7b3 52bf f5ed 8dbf c1d7 ea3e
000003b0: 849c 59bf d01f e1bf e1f4 04bf 8cdd 923d
000003c0: a71f 52be 3adf 9abf 9a8c b23d bb0f 6c3f
000003d0: 3990 9e3f 0b84 36c0 5702 a2bf 7868 e73e
000003e0: 657d 383e 2db8 163e ab1e cdbf 431a 3fbf
000003f0: c77a 923f 70a7 fcbd 4184 f93e 7e4b a7bf
-3.2312055 2.4878442 -0.7000541 0.032692194 1.252391 0.898774 1.2836016 0.8079015
-1.194842 1.7508738 0.49364677 -2.664926 2.1225882 -1.8139665 1.771023 1.8863745
-0.12943602 -2.0861738 0.9195967 -2.659852 0.8739767 2.7939184 -1.1947128 0.08321085
-2.8316727 3.5636108 0.91523045 -2.176373 3.9476235 -1.8590225 -0.19683932 1.5490727
-0.12947994 0.72286767 0.07112413 -1.583857 1.9537385 -0.11858684 -1.8955152 1.9501842
-0.61081165 1.4922311 1.5512693 1.4542533 -1.5912348 0.8596003 -2.1227076 2.3184245
1.4059442 -0.43937606 -0.32340223 -2.749981 3.47565 1.4649577 0.5830717 3.0422761
-0.15119791 0.030551715 1.821359 -0.05171509 -0.45135248 0.057400342 -1.3138785 2.6320524
-0.05365492 -0.5302017 1.5376253 0.51628053 -0.31078392 0.027596286 -0.10033329 -1.5555036
1.9355568 -0.4095267 -1.1992369 -2.275326 0.733752 -0.1797771 0.5282099 1.143294
2.0341983 -1.1551955 0.81287533 -1.7067854 -2.2647645 -0.18782568 2.6623392 -0.9900365
0.13563481 -0.3734056 1.8926457 -0.7397141 -3.141824 0.06844806 -1.451535 1.8226222
-0.64112735 -1.486395 0.5954229 2.8118017 1.4829458 -0.19511224 -1.2984145 -1.1885239
0.88558406 -2.428991 1.7246189 -0.24041069 2.6510394 1.5227739 -0.8334828 -0.070391454
-0.23103325 0.70611966 -0.5932179 -0.44908506 -0.7655957 1.2854233 -0.7700749 0.05215454
2.5160942 0.4858589 -0.5935951 0.5577927 -0.98239636 -0.107879765 1.8104557 1.2638088
-1.3615876 0.20979221 1.3867927 -0.35742557 0.5171789 -0.80288845 -0.19490221 0.41761082
-0.07286844 -1.2322093 -0.90543705 -0.6153938 1.0790563 0.68476903 0.33263567 -2.3782558
0.8616412 -0.5181401 -1.3252857 1.8222634 0.9520379 0.70763296 0.28667834 0.15769285
-2.1863532 0.86410314 -1.5118482 -0.4326296 -0.8041334 -0.44475108 0.7460142 -1.0202231
-0.707365 0.5801281 2.3983514 0.8100287 -1.1194906 -0.65646666 -0.16121252 1.587094
-1.4456201 0.12369363 -1.9558809 2.0808973 0.44580883 -1.9005358 -0.26093158 -0.7744445
-0.093699716 -1.8496873 -0.38378334 0.14340772 -0.47156268 0.89436704 -0.5502376 -0.29596147
0.106557705 0.3980714 -0.17391685 -0.6223517 0.027649367 0.8261984 1.0284094 -2.1105137
0.444999 1.2085836 -1.6458654 0.6829957 -0.84594995 -0.8088657 2.7619333 0.34550172
1.2969935 -1.0599984 0.7491977 -0.56512976 -1.1979573 -1.5989666 0.35493708 1.3293465
2.6217988 -1.2453853 -0.8554349 -2.2317593 -0.06179539 1.3023193 -0.8254292 -0.22963186
0.8304214 -1.315576 -0.26560646 -0.6926335 1.4052037 0.95736396 -0.80034703 0.054193527
-2.4848318 0.078118615 -0.25054672 -1.4105692 -0.13463853 -0.56994045 1.4384295 -0.9549559
-0.33930776 -0.8230576 -1.1088244 0.45867732 -0.8500445 -1.7587833 -0.51936156 0.07171163
-0.20519887 -1.2099373 0.08718224 0.922115 1.2387763 -2.8518093 -1.2656964 0.4519689
0.18016584 0.14718695 -1.6024984 -0.7464945 1.1443719 -0.12336624 0.48733714 -1.3069913
