hw4/tests/hw4_extra/data/test_transformer_layer-2-5-27-8-32-64-True-0.0-cpu().npy (npy, 1208 bytes, 1 tensors)

array f4 [2, 5, 27]
0	0xc03f7781	-2.991669
1	0xc0991fd6	-4.785136
2	0x4049d5b4	3.1536684
3	0x3e8f55e4	0.27995217
4	0x3fa495b2	1.2858183
5	0xc0721060	-3.7822495
6	0xbf4b35b0	-0.79378796
7	0x3f663e32	0.8993865
8	0x3ea00590	0.31254244
9	0x3e6e42bc	0.23267645
10	0x3fdfca42	1.7483599
11	0x40759776	3.8373694
12	0xbf761094	-0.96119046
13	0xc0965ece	-4.699073
14	0xc0947e7a	-4.640439
15	0xbf4ee038	-0.8081088
16	0x40246d80	2.5691833
17	0x405262ca	3.2872796
18	0x408918c6	4.284274
19	0x40133a21	2.300423
20	0x3ff20722	1.8908427
21	0x4010863e	2.2581935
22	0xc001be7e	-2.0272517
23	0x3ff134e9	1.8844272
24	0x4061d63b	3.5287006
25	0xbee08510	-0.4385152
26	0xc02cc6cf	-2.6996343
27	0xc0394a1e	-2.8951488
28	0xbfbadf7e	-1.4599454
29	0xbed4a4bb	-0.4153193
30	0x3ec5574d	0.38543168
31	0x4045ceaf	3.09074
32	0x40008b93	2.008519
33	0xbe4acbf0	-0.19804358
34	0xbe58fb18	-0.21189535
35	0xc02c4c26	-2.6921477
36	0xc01f98ec	-2.4937086
37	0x4012569b	2.286536
38	0x3fa8768e	1.316118
39	0xc052f9bb	-3.2964923
40	0xc0d826a3	-6.7547164
41	0xc029304c	-2.6435728
42	0xbf5ec0d4	-0.8701298
43	0x40840d5c	4.126631
44	0x40523cda	3.284964
45	0x3ebc58a8	0.3678639
46	0x404b2500	3.1741333
47	0xbf8c3fb6	-1.0956943
48	0x400d97a3	2.2123802
49	0xbdbdfff0	-0.09277332
50	0xbd94e280	-0.07269764
51	0x40344568	2.8167362
52	0x403b21be	2.9239345
53	0xbfc0c49d	-1.5060002
54	0xc04f3926	-3.237863
55	0xbfe54d24	-1.7914166
56	0xc01e4ce3	-2.4734428
57	0xc01ad10e	-2.4190097
58	0x3f719627	0.9436974
59	0xc0a9089c	-5.282301
60	0xbf299133	-0.6623718
61	0x3ea23e64	0.31688225
62	0xbfca5325	-1.5806624
63	0xbfe6c0c5	-1.8027579
64	0x3fdc03b6	1.7188632
65	0x3fbc4e91	1.4711477
66	0xbf815393	-1.010363
67	0xc09bc329	-4.8675733
68	0xc032fba5	-2.7966092
69	0xc02e5168	-2.7237186
70	0x40380878	2.875517
71	0x3f56c83a	0.8389927
72	0x40551cb1	3.3298762
73	0x40835620	4.1042633
74	0x3fc536f9	1.5407401
75	0x3f9d5678	1.2292013
76	0xc039384e	-2.8940616
77	0x3ed30174	0.41212046
78	0x406bde76	3.685453
79	0x3fc97881	1.57399
80	0x3f0c0240	0.54690933
81	0x3f37bbf4	0.7177117
82	0xbefde9b5	-0.49592367
83	0x3f1707a8	0.5899606
84	0xc03613e6	-2.8449645
85	0x401a105a	2.407248
86	0x40426be2	3.0378346
87	0x3eb04d10	0.34433794
88	0xbdf4fd02	-0.1196232
89	0xc0224eaa	-2.5360513
90	0xc0528ca4	-3.289834
91	0x3f293ad6	0.661054
92	0x3f307f94	0.6894467
93	0xc00110de	-2.0166545
94	0xbfa92532	-1.3214476
95	0xbf83f24e	-1.030832
96	0xbf6fa64a	-0.9361311
97	0xbfa68913	-1.3010582
98	0xbd8a401a	-0.06750508
99	0x4021eb6d	2.5299942
100	0x4038bcd6	2.8865256
101	0x40191e27	2.3924654
102	0x402e5c20	2.7243729
103	0xbf088884	-0.53333306
104	0x4012c6ed	2.2933915
105	0xbedc24c3	-0.42996797
106	0x4031672c	2.771922
107	0xc007d798	-2.1225338
108	0xc05a5e5c	-3.4120092
109	0x3f1921e8	0.5981736
110	0xbf7f48df	-0.9972057
111	0xbfc8446d	-1.5645882
112	0x40179d9e	2.3689952
113	0xc03f54ae	-2.9895434
114	0xbf19ca6c	-0.60074496
115	0x40008ad2	2.008473
116	0xbfce129f	-1.6099433
117	0xc028072e	-2.6254382
118	0xbed58d9e	-0.41709608
119	0x40268a8e	2.6022067
120	0x3f07f866	0.531134
121	0xc08b714c	-4.35758
122	0xc049ff07	-3.1561906
123	0xbfd48ee9	-1.6606113
124	0x3fb7b9fa	1.435363
125	0x40244b06	2.567079
126	0x3fe61b0a	1.7977002
127	0x400a3788	2.1596394
128	0x3f60227b	0.87552613
129	0x3fec8960	1.8479424
130	0xc0234950	-2.5513496
131	0xbf54fd17	-0.83198684
132	0x405ed950	3.4820137
133	0x40166cd3	2.350392
134	0xbf0acdd2	-0.54220307
135	0xbff06d6a	-1.878339
136	0xbf942359	-1.1573287
137	0xbf2b5a94	-0.66935086
138	0xbd3ed6a0	-0.0465914
139	0x40a15c38	5.042507
140	0xc03cc6a5	-2.9496243
141	0xbfccbba6	-1.5994766
142	0x3fe6ae54	1.8021951
143	0x3ed7b67c	0.42131412
144	0xbfac4052	-1.3457129
145	0xbf86d3a0	-1.0533333
146	0x402894a5	2.6340725
147	0xc03a5a5f	-2.9117658
148	0xbed3342b	-0.41250739
149	0xc01abc04	-2.4177256
150	0xbe8863a8	-0.26638532
151	0x3fbde0bb	1.4834207
152	0x40229fd2	2.5410047
153	0x3f5a97c0	0.853878
154	0x3ffdb8f0	1.9822063
155	0xbfa87f3e	-1.3163831
156	0x3ff03c68	1.8768435
157	0xbf510018	-0.8164077
158	0xc0592656	-3.3929648
159	0x403b89a9	2.930277
160	0x3f888fcf	1.0668887
161	0xc03bfeb1	-2.9374201
162	0x3ff4b496	1.911761
163	0x3fdaeadc	1.7102923
164	0xbf7d15bf	-0.98861307
165	0x3e93eb94	0.2889067
166	0x4047a18a	3.1192346
167	0xc0193913	-2.3941085
168	0x400414e1	2.0637743
169	0x3f742082	0.95362103
170	0xbf7a38f0	-0.9774313
171	0x3f0bf44c	0.5466964
172	0xc0155789	-2.3334677
173	0x3fc29085	1.5200354
174	0x40256a61	2.5846179
175	0xc00b7b16	-2.1793876
176	0xc0e8bb78	-7.2728844
177	0x3eb42628	0.3518536
178	0xbf934677	-1.1505879
179	0xbf8ddcc6	-1.1083
180	0x408acdd2	4.3376245
181	0x3f962898	1.1731138
182	0xbc352340	-0.011055768
183	0x3f38d688	0.7220235
184	0x3ff75a4a	1.9324429
185	0xc021ca2b	-2.5279644
186	0x40b5e0b0	5.6836777
187	0x3fcfa25e	1.6221426
188	0xbe48d358	-0.19611871
189	0xbfe45e3a	-1.7841256
190	0xc03b447c	-2.926055
191	0x409302e6	4.594104
192	0xbe61c262	-0.22046807
193	0x40484764	3.1293573
194	0xc0003f21	-2.003853
195	0x3ff3d43f	1.9049147
196	0x3fb7d0f1	1.4360639
197	0xbd6fe860	-0.05857122
198	0x3f4d5b64	0.80217576
199	0xbfe53d48	-1.7909327
200	0x3f2b7ce0	0.6698742
201	0xbf834e97	-1.0258359
202	0xbfcb4e94	-1.5883355
203	0x40899751	4.2997212
204	0x408a8e55	4.3298745
205	0xc057dda6	-3.3729033
206	0xc01edd0f	-2.4822423
207	0x3f5efebf	0.8710746
208	0x3fcc3819	1.595462
209	0x3ff174f6	1.8863819
210	0xbf9dd030	-1.2329159
211	0xbfd39756	-1.6530559
212	0xbfd4c06d	-1.6621224
213	0x3f6c9f47	0.9243054
214	0x3e622168	0.22083056
215	0xbffd44f4	-1.9786668
216	0x3fb3eda0	1.4056892
217	0xbf7f021e	-0.99612606
218	0xc00ef4ce	-2.2336917
219	0xc02f7f80	-2.742157
220	0x3ecd6d44	0.40122426
221	0x4026ce7e	2.6063533
222	0xbeda2a60	-0.42610455
223	0x3f9b1f98	1.2119017
224	0xc01d69f0	-2.459591
225	0x3ef88420	0.48538303
226	0xc022d1e0	-2.5440598
227	0x4036f89e	2.8589244
228	0x3fed29b6	1.8528354
229	0x3f35dd5e	0.71040905
230	0x3f3cfed8	0.7382636
231	0x3fc042f8	1.5020437
232	0xc04a6c30	-3.1628532
233	0xc0401448	-3.0012379
234	0x4070b8c5	3.7612774
235	0x403b0657	2.922262
236	0xbefe1380	-0.49624252
237	0x3fe999ce	1.8250062
238	0x40454454	3.0822954
239	0xbfab97ca	-1.3405697
240	0xbe4806d0	-0.19533849
241	0x3fef3b9b	1.8690065
242	0xbeed5dbc	-0.46360576
243	0xbdab7f90	-0.0837394
244	0xbf5e7df0	-0.86910915
245	0x3eca551b	0.39518055
246	0xbfa1bf9a	-1.2636597
247	0x3f432d1e	0.7624072
248	0xbf569600	-0.8382263
249	0xbf901bb8	-1.1258459
250	0x3f2eef06	0.6833347
251	0xc002398f	-2.034763
252	0x3eec69d8	0.46174502
253	0xbef5711c	-0.47937858
254	0x40b377f8	5.6083946
255	0x3f9a812c	1.207067
