hw4/tests/hw4_extra/data/test_transformer_layer-4-11-27-8-32-64-False-0.0-cpu().npy (npy, 4880 bytes, 1 tensors)

array f4 [4, 11, 27]
4.54345 -0.2050969 0.9464917 -1.7484376 -1.8385221 4.098418 0.15756899 -3.4018664
0.5234592 1.5726321 -2.0475783 2.1086688 -3.2467434 0.80007195 -1.3384538 3.7055182
2.397153 -1.0546141 -1.35623 -0.89053756 2.2889857 -0.22764423 -0.20047605 -2.2998228
-1.6237613 1.654849 -0.8458457 4.1181045 1.1859593 -0.1829074 0.5815567 -1.0213445
4.3445597 1.06511 1.4099435 -1.3354387 -3.1139598 -1.0360779 -1.4640074 2.2441056
3.6961012 1.8853521 2.6052065 2.989995 1.0470096 1.5812689 -1.1764107 0.12350547
-0.3800788 1.0365037 0.1740399 -0.41728735 -1.1219512 0.73219204 1.4741936 -1.3227456
-1.6512527 -3.2652183 0.11954704 0.021651983 0.50130147 -1.8666561 2.4674268 1.8332058
-0.76918155 3.6136246 2.2322438 1.2234628 -1.770334 -0.6608658 2.739059 1.3885925
-3.7205894 -0.44077277 2.5561001 -0.31460682 0.3150555 0.5942656 0.7441769 0.387972
2.8221889 -2.0273662 0.24018312 1.5542676 0.5359309 0.15693438 -0.054677725 -3.3875966
0.32717538 -1.495438 1.8594426 -0.84410006 3.6843848 -1.5399206 -0.25741893 1.3199106
-1.4399881 -2.1508322 1.6935804 -0.65507805 -1.7495598 -0.74496335 -0.35714078 2.2240818
-0.8919995 1.5538174 -0.5182518 -1.5005534 1.6542724 0.2518704 -2.604978 -0.93589675
-0.2717389 1.2888469 1.6201543 -0.9384699 0.6271931 0.62504894 -2.195878 -1.2228438
-1.4576687 0.8045323 -1.5142784 -1.4684441 0.58798015 1.1996486 -1.097024 -2.5703187
2.0852737 0.8696775 -2.5065088 -0.99159145 0.84032524 4.478664 2.1108217 -0.22144777
0.75129616 1.6156542 -0.4494334 1.2763052 -0.023542479 -0.005565405 -1.2169423 -0.4479425
-0.6293289 -2.3624234 0.13205072 -3.2830927 0.5222893 0.5210016 -0.5756999 1.4540219
1.7368604 -0.25453126 -0.5248757 0.08006498 0.50045705 0.60061216 -0.5716152 -2.0139413
1.1592329 -0.46886408 1.6797574 -2.0846267 -3.48534 -4.418171 -0.9387365 0.4854164
-0.64911646 -2.490953 1.7292904 0.8491919 0.28144956 2.7938452 0.09273136 1.5972313
0.8347533 1.4306616 2.8230104 0.6629871 -1.0382731 -2.6149616 2.7055707 -2.2325897
-1.0748267 -1.734715 3.3714218 0.55219424 3.3838198 0.85223055 -3.3950753 0.42795885
0.22220814 0.97305375 2.640778 2.3640378 0.04092118 -1.4489033 -0.53381205 -0.78108877
-0.37233767 -3.9525282 0.43996346 0.22046685 -0.57317096 2.0385692 3.164212 -0.40631792
-1.4267952 -1.2707727 1.7712798 -0.9716801 0.22633743 -2.4790144 0.39651507 1.470956
-1.4077733 -2.5818357 0.6901235 -2.0472589 0.7643726 1.7606308 0.1581831 -0.49545297
-0.5680467 0.40503472 -0.97428477 1.3408492 1.1289704 0.17606598 0.31747746 -1.7550168
-2.021078 0.730424 -1.1114248 -0.10851681 0.3667347 3.0726533 2.0146625 -1.435708
2.5446098 -1.8126214 -1.6749862 0.93695664 -0.94333684 -0.6417495 -1.0533893 2.8156574
2.5759428 2.7933936 -1.7228804 1.8018646 4.8782287 -0.4299101 6.262574 -1.3157992
00000000: f163 9140 ec04 52be 484d 723f cecc dfbf
00000010: b154 ebbf 3e26 8340 c459 213e 2eb8 59c0
00000020: 6c01 063f 024c c93f 860b 03c0 6ef4 0640
00000030: a5ca 4fc0 84d1 4c3f 7452 abbf 3627 6d40
00000040: f46a 1940 98fd 86bf f298 adbf 45fa 63bf
00000050: be7e 1240 921b 69be 9849 4dbe 4c30 13c0
00000060: 69d7 cfbf 18d2 d33f 5889 58bf 83c7 8340
00000070: 84cd 973f 144c 3bbe e6e0 143f 6bbb 82bf
00000080: a206 8b40 8655 883f 0779 b43f a8ef aabf
00000090: 1e4b 47c0 339e 84bf 9864 bbbf 6d9f 0f40
000000a0: ec8c 6c40 3853 f13f b4bb 2640 145c 3f40
000000b0: 6904 863f 0567 ca3f a094 96bf 70f0 fc3d
000000c0: b099 c2be 27ac 843f 8437 323e b0a6 d5be
000000d0: 199c 8fbf f070 3b3f 60b2 bc3f ba4f a9bf
000000e0: 405c d3bf 56f9 50c0 14d5 f43d 805f b13c
000000f0: 4b55 003f 96ee eebf 52ea 1d40 7da6 ea3f
00000100: 15e9 44bf a045 6740 15dd 0e40 6e9a 9c3f
00000110: 4e9a e2bf 802e 29bf be4c 2f40 66bd b13f
00000120: 231e 6ec0 f8ac e1be 2597 2340 2514 a1be
00000130: f44e a13e ca21 183f 6182 3e3f 44a4 c63e
00000140: be9e 3440 5ec0 01c0 90f2 753e 3ef2 c63f
00000150: c432 093f 68b3 203e c0f5 5fbd 62ce 58c0
00000160: 8883 a73e 836a bfbf 3702 ee3f f116 58bf
00000170: f6cc 6b40 1e1c c5bf 6acc 83be d5f2 a83f
00000180: 8851 b8bf 3ca7 09c0 3ec7 d83f 32b3 27bf
00000190: 93f1 dfbf ebb5 3ebf 28db b6be 5b57 0e40
000001a0: 145a 64bf 7de3 c63f 26ac 04bf 2212 c0bf
000001b0: 33bf d33f 28f5 803e f6b7 26c0 ee96 6fbf
000001c0: 5c21 8bbe eff8 a43f 3761 cf3f 903f 70bf
000001d0: ba8f 203f 3503 203f 4489 0cc0 2586 9cbf
000001e0: e394 babf d4f5 4d3f e0d3 c1bf faf5 bbbf
000001f0: de85 163f 168e 993f 486b 8cbf 1a80 24c0
00000200: 2075 0540 2fa3 5e3f a46a 20c0 f0d8 7dbf
00000210: 8e1f 573f 3751 8f40 b417 0740 34c3 62be
00000220: f254 403f c2cd ce3f 221c e6be f85d a33f
00000230: 28dc c0bc 005e b6bb c4c4 9bbf b858 e5be
00000240: b31b 21bf f231 17c0 4e38 073e 311e 52c0
00000250: c0b4 053f 5c60 053f 1261 13bf 641d ba3f
00000260: 7151 de3f ec51 82be 415e 06bf 1cf9 a33d
00000270: f41d 003f b8c1 193f 6055 12bf 6ae4 00c0
00000280: be61 943f f40e f0be 4a02 d73f 866a 05c0
00000290: d00f 5fc0 a861 8dc0 0951 70bf 8088 f83e
000002a0: 7f2c 26bf c66b 1fc0 6359 dd3f a464 593f
000002b0: 281a 903e 5cce 3240 f0e9 bd3d 1372 cc3f
000002c0: 64b2 553f eb1f b73f 34ac 3440 86b9 293f
000002d0: 22e6 84bf 885b 27c0 1228 2d40 c0e2 0ec0
000002e0: ec93 89bf 240b debf 60c5 5740 9a5c 0d3f
000002f0: 8190 5840 c82b 5a3f ea48 59c0 6c1d db3e
00000300: 888a 633e 0d1a 793f 8202 2940 654c 1740
00000310: f89c 273d aa75 b9bf e8a7 08bf 6ff5 47bf
00000320: 0ba3 bebe 39f6 7cc0 e442 e13e 10c2 613e
00000330: 55bb 12bf eb77 0240 7382 4a40 e708 d0be
00000340: 3aa1 b6bf aea8 a2bf 4cb9 e23f 07c0 78bf
00000350: 00c5 673e 2ca8 1ec0 0604 cb3e 4948 bc3f
00000360: ea31 b4bf cc3c 25c0 efab 303f 4a06 03c0
00000370: ecad 433f 5a5c e13f c0fa 213e 03ac fdbe
00000380: 826b 11bf b660 cf3e ba6a 79bf f2a0 ab3f
00000390: 1a82 903f a44a 343e 688c a23e 64a4 e0bf
000003a0: 5859 01c0 11fd 3a3f 2b43 8ebf 103e debd
000003b0: a7c4 bb3e 5aa6 4440 3bf0 0040 48c5 b7bf
000003c0: e3da 2240 fa03 e8bf f365 d6bf 64dc 6f3f
000003d0: 867e 71bf b249 24bf 76d5 86bf bb33 3440
000003e0: 3fdc 2440 f6c6 3240 5887 dcbf 80a3 e63f
000003f0: 731a 9c40 2d1d dcbe 0267 c840 1c6c a8bf
