hw4/tests/hw4_extra/data/test_transformer_model-8-11-27-64-2-8-32-False-0.0-cuda().npy (npy, 9632 bytes, 1 tensors)

array f4 [8, 11, 27]
000000 4d 5f b5 bf f6 0f 48 c0 06 89 d2 40 8f 0b 48 40
       -1.4169708 -3.1259742 6.5792265 3.1257055
000010 25 5f a3 c0 a6 19 25 bf 72 0a 48 be 6d 5d 07 40
       -5.1053643 -0.6449226 -0.19535235 2.1150773
000020 2d 41 01 40 3b 86 d5 3f 20 b7 a8 3d 79 ec d9 3f
       2.019603 1.6681589 0.08238053 1.7025291
000030 a1 ae e0 c0 d9 74 0b 40 14 05 11 c0 3c 9b a8 3e
       -7.021317 2.1790068 -2.265935 0.32930934
000040 05 a4 dc bf 84 a9 19 3e 0e 81 d9 c0 a8 31 b3 40
       -1.7237555 0.15006071 -6.7970037 5.5998116
000050 bd 84 bb 3f 80 4c 33 be 2c b3 ff be 74 1a 01 3f
       1.4649884 -0.17509651 -0.49941385 0.5043099
000060 bd 62 02 41 bc 79 06 40 61 f7 d2 c0 33 46 ea 3f
       8.149106 2.10118 -6.5926976 1.8302673
000070 21 3b 4c bf 73 1b 0c 41 77 9b f5 3f b2 d0 c0 3f
       -0.79777724 8.756701 1.9188069 1.5063689
000080 b0 25 2b 40 68 ed 0e c0 5c 17 64 40 fb 2e e5 3e
       2.6741753 -2.2332401 3.5639257 0.44762406
000090 d4 53 7d 3e a0 c4 dd 3f d4 7e 22 40 ff a1 75 40
       0.24739009 1.732563 2.538991 3.8380125
0000a0 78 2f 73 3f 77 c6 94 40 52 06 bf 40 58 6c dc bf
       0.94994307 4.6492267 5.9695215 -1.7220564
0000b0 47 4f bc 3f 3d b8 84 3f 17 73 82 40 a8 d9 f7 be
       1.4711694 1.0368725 4.076549 -0.48408246
0000c0 40 95 92 bf dc 64 53 40 bc 1a 8f be d8 7b d7 3f
       -1.1451797 3.303031 -0.27950084 1.6834669
0000d0 b4 1e f7 be 5e e7 55 bf 11 08 e7 3f e0 c6 dc bf
       -0.48265612 -0.83556163 1.8049337 -1.7248192
0000e0 90 51 b0 3f ca 59 8c bf 6c e6 1f 3f 2c dc 26 40
       1.3774891 -1.0964901 0.6246097 2.6071882
0000f0 e0 fb 77 bf 4e d1 ba 3f 40 ae 7d be 08 2d ff be
       -0.96868706 1.4595125 -0.24773502 -0.49839044
000100 e6 33 24 c0 40 33 4a bf 91 7e 08 c0 08 59 62 c0
       -2.5656676 -0.7898445 -2.132725 -3.536684
000110 0d b4 91 40 da eb 4a bf 93 00 a1 bf 6b ea 94 40
       4.553229 -0.7926613 -1.25783 4.6536155
000120 f7 7c ca c0 05 e7 c8 40 23 ca 88 3f 99 2e 9b 40
       -6.3277545 6.2782006 1.0686687 4.849438
000130 42 ec 1b c0 c8 e0 a1 3f 90 ba e4 3e 75 6d c7 40
       -2.436295 1.2646723 0.44673586 6.2321115
000140 97 79 a5 c0 ec 6d 1a c0 7d 05 74 c0 51 00 f8 3f
       -5.1710925 -2.412959 -3.812835 1.9375097
000150 e5 19 65 40 88 b8 ac c0 e7 3f 69 40 c7 51 5f c0
       3.5797055 -5.397526 3.6445253 -3.4893663
000160 37 62 11 40 e8 b5 15 c0 38 7f 2e 3f 93 07 5d bf
       2.2716196 -2.3392277 0.6816287 -0.8633968
000170 76 f4 e6 3f e0 5b 2a bd f6 a8 b5 3f 94 a4 98 bf
       1.8043354 -0.041591525 1.4192188 -1.1925225
000180 4d 0c ca 3f ef c2 65 c0 2a 29 30 c0 aa 2b 07 c0
       1.5785004 -3.5900228 -2.7525125 -2.11204
000190 62 c3 11 c0 ea 7a 16 bf 20 8a 5a 3f 7c 9a f8 3f
       -2.2775502 -0.587813 0.8536701 1.9422145
0001a0 65 15 52 40 fa 55 ea 40 22 8b 10 bf 80 d6 cd bf
       3.2825558 7.322995 -0.564623 -1.6081085
0001b0 ce 8c 81 c0 a9 98 03 bf d0 b7 ae 3f 53 5d 25 c0
       -4.048438 -0.51404816 1.3649845 -2.583821
0001c0 a7 1c 8a be cd 44 8e bf 78 41 6e 3f 8e 8f a6 3f
       -0.26974985 -1.1114746 0.9306865 1.301256
0001d0 a8 c9 88 c0 d8 df 8e 3f 17 5f 3b c0 2a 93 0d 40
       -4.2746162 1.1162062 -2.9276788 2.2121072
0001e0 27 9e 6a c0 d7 3e 80 3f 4e 7f 6b bf 90 10 a6 3e
       -3.6659029 1.0019177 -0.91991127 0.3243451
0001f0 91 47 81 bf 3e ad b0 3f bc 6d fb bf 08 93 94 3f
       -1.0099965 1.3802869 -1.9642863 1.160737
000200 90 6f 89 c0 ae 95 4c 40 7d 10 26 c0 52 a5 8a c0
       -4.2948685 3.1966357 -2.5947564 -4.3326807
000210 bc 9b 38 40 0e 02 88 40 f0 f2 b6 c0 de 44 8f c0
       2.8845053 4.250251 -5.7171555 -4.4771566
000220 18 a8 62 c0 8a 40 05 40 00 a5 8e ba 78 2e 3c 40
       -3.5415096 2.0820642 -0.0010882914 2.9403362
000230 04 35 6c c0 9e 2c 2f bf ef 3e 13 40 a3 df 23 bf
       -3.6907358 -0.68427455 2.3007162 -0.6401312
000240 de 19 bf 40 d5 30 e3 bf 3a 14 17 40 24 4a d8 c0
       5.9719076 -1.7749277 2.3606095 -6.7590504
000250 1a df 45 bf 4d 28 43 c0 e8 b0 da 3e e8 c6 6d c0
       -0.7729355 -3.0493348 0.42713094 -3.7152653
000260 00 7b 43 40 4d c2 11 c1 00 4c 3b 40 37 eb 1e c0
       3.0543823 -9.109937 2.9265137 -2.4831064
000270 c0 e7 58 bc 4c 88 c2 c0 da 01 4e c0 c4 09 e8 40
       -0.013238847 -6.079138 -3.218863 7.251192
000280 7b ee 37 bf fc 16 2f c1 6e 70 1e c0 88 51 31 3e
       -0.7184827 -10.943111 -2.4756122 0.17316258
000290 22 8a bf 3e 2b 9c df 3f 84 4a 4d c0 04 ba 5c 40
       0.37410074 1.7469534 -3.207673 3.4488535
0002a0 81 9f f5 bf 60 78 ff bc 36 99 30 c0 69 2b 18 c0
       -1.9189302 -0.031185329 -2.7593513 -2.3776495
0002b0 c9 9f 21 c0 e0 33 bc bf be 6b 2f c0 25 78 00 40
       -2.5253775 -1.4703331 -2.740951 2.007333
0002c0 a1 c3 12 3f 24 81 26 c0 44 13 32 3e e8 bd 95 bf
       0.57329756 -2.601632 0.17390162 -1.169858
0002d0 c1 c3 e1 bf 1a 1a 09 40 43 fa 0b c0 99 0e cf 3f
       -1.7637864 2.142218 -2.1871498 1.617633
0002e0 ec 70 ab bf e4 85 81 3f 22 0d 8e 3f c4 aa 96 40
       -1.3393836 1.0118985 1.1097758 4.7083454
0002f0 80 84 78 c0 32 74 ff bf e0 82 33 c0 8d ce b9 40
       -3.8830872 -1.9957335 -2.804863 5.8064637
000300 e0 f4 f7 3c aa d5 a4 3f 4c f0 14 40 e6 d4 cd 3f
       0.030268133 1.2877705 2.3271666 1.6080596
000310 24 4e 37 3f 6a 28 11 40 84 a1 89 40 10 4d b4 3f
       0.7160361 2.2680917 4.3009663 1.4086018
000320 e4 42 1d 40 d6 d3 07 c0 1c a9 40 be f9 68 66 40
       2.4572077 -2.1223044 -0.1881451 3.600157
000330 33 9e cb 40 24 95 61 c0 de 8e 28 40 b0 2e 85 c0
       6.3630614 -3.5247278 2.63372 -4.161949
000340 e0 bc f3 bf 38 ee fb bf 72 c8 a3 3f ee a0 b0 c0
       -1.9042015 -1.9682074 1.2795546 -5.5196447
000350 48 07 ae bf 3e 2e 3c 40 b0 f7 f5 bd 76 e7 52 c0
       -1.3595972 2.9403224 -0.12010133 -3.2953773
000360 58 b5 98 bf 8d f4 b8 c0 3b bd 63 3f 64 24 22 40
       -1.1930342 -5.7798524 0.8896062 2.533471
000370 20 0d 1b bc 05 47 3f 40 80 07 ad bf ee e0 bb 3e
       -0.009463578 2.9887097 -1.3517914 0.36695045
000380 ea a3 92 40 90 06 ce 3f 08 8d c1 40 dd 4f cf 3f
       4.582509 1.6095753 6.0484657 1.6196247
000390 e8 9b 7d bd 7a 84 8d 40 9f 10 bf 3f 69 61 85 c0
       -0.061916262 4.4224215 1.4926947 -4.168141
0003a0 c8 fa 97 c0 4c d0 e6 bf 12 39 8d c0 81 b0 7f 3f
       -4.749363 -1.8032317 -4.4132166 0.998787
0003b0 62 89 0d 40 f2 e7 d0 3f 1e a8 94 3f 3b 9e 92 3f
       2.2115102 1.6320784 1.1613805 1.1454538
0003c0 20 3d da 40 f3 af 9e 3f 41 16 2b bf 24 68 1a bd
       6.8199615 1.2397445 -0.6683083 -0.037696972
0003d0 db f3 31 bf 83 4e 8c 40 44 da 51 40 11 e5 1f 3d
       -0.6951272 4.384584 3.2789469 0.039036814
0003e0 8a 14 39 40 50 05 6e be 56 5a 47 c0 8c 46 2a bf
       2.8918786 -0.23244214 -3.1148887 -0.66513896
0003f0 4e 3e b8 bf 1c a4 54 3f 74 fa a4 be 86 24 89 c0
       -1.4394014 0.8306291 -0.3222233 -4.2857084
